KGs/semantic_bible/model weights/CNN_{_in_height_ 201, _inp_width_ 40, _kernel_h_ 11, _kernel_w_ 5, _out_size_ 8}_.pt (torch, 267120 bytes, 12 tensors)

conv2d.0.weight f4 [4, 1, 11, 5]
00000000: 5b3b 98bd be52 98ba 59e9 2f3d 7212 c83d
00000010: 46ec b13d 1b54 a53d df30 9abd 78d1 a13c
00000020: 1955 d73c 89b2 003e 359e 66bd 8f22 8bbd
00000030: 7f89 ce3d c449 02be dbb5 d03c 8989 0ebe
00000040: b3ed 0f3e b2e0 b2bd 5be7 fd3d c9e6 29bd
00000050: 3a74 4a3d 1216 093d 2f6d 27bd 1286 26bd
00000060: 384f adbd cbde 6cbd 3fd8 333d 8d13 0f3d
00000070: eb6b 013d 1559 6b3d 423a 9d3d fa90 03bd
00000080: 9bb3 f1bd b9b1 963d 7701 873c 9bf0 9fbd
00000090: 6b11 75bd c3b4 52bd 57ec babb d234 b9bd
000000a0: c610 c83d 2fc8 623b b4e8 bebd 5737 423d
000000b0: 1eb8 24bd faf5 24bc e860 e5bd b00e cd3c
000000c0: b8fe 0cbc aa01 5bbc 314b ff3d a398 273d
000000d0: ec20 d6bd d54a e53d 0ae7 9b3d 9491 35bd
000000e0: 1be6 d8bd 4386 eabd 31b0 5dbd fb98 ba3d
000000f0: 6812 9abd f4b7 043e 8fc9 96bd 3095 673d
00000100: 227c 903d 3a73 bc39 fe49 afbc da1d 3dbc
00000110: 4b2f b4bd e62c e8bc 12b2 443b fa80 69bc
00000120: d05e 50bd 1502 a3bd 5ac3 c23d eeb9 81bc
00000130: 7ca8 8d3d 7b4e d4bd 71df 42bd c990 d83d
00000140: ce3d 31bd c89d 30bd 550f cebd b325 373d
00000150: b448 b6bd 9d81 f8bd 0de5 dbbd 07f2 153e
00000160: ba27 da3d 242e c83d 8b95 c5bd d1bc 9bbc
00000170: 43a3 0c3d 8cd8 c7bd 5ad9 313c a5ef 0cbe
00000180: 6e4a 0d3d 97eb 8dbd 9a72 c8bd bcc0 77bb
00000190: e24f fbbd eb7c 973b 997f 95bd 369a cf3d
000001a0: f91f d0bd 6d26 5e3d a952 0fbd a38d 13bd
000001b0: 2dbf 653d 95b9 d63d 139a 083e 0a46 03be
000001c0: f4da a0bd c333 dd3d 8c96 36bd 734f 28bd
000001d0: 8d49 18be 924a f53c fb84 823d ff01 c2bd
000001e0: 09e1 1b3d dcf9 af3c 2c54 d0bd 0c8f 5b3d
000001f0: 360b bb3d f9a4 f53d 7976 913d 1996 2a3d
00000200: 01f4 6d3d 6daf 11bd b14c f93d 3969 713d
00000210: 4bf1 fa3d 0919 e63d 3ef3 e83d a0b2 233b
00000220: daf0 ce3d da54 7fbd 2f9b 833c a53c 023e
00000230: cc48 eabd 1dcc a53d 5e8a 74bd 3b4a a13d
00000240: 158e f0bc aa3f 7f3d 05e8 653d 59af e33d
00000250: f5b4 d13d 9f67 b83c 83ae 5c3d d64b fabd
00000260: c9f0 993d 2c80 00bc 7932 893d 6f4b 103e
00000270: fba0 a93d b8cc 6dbd c574 053d f7bf 81bd
00000280: 9ed4 fbbd 7f31 53bd 55f7 d1bd a181 473d
00000290: 60ea e03b fd08 00be cb87 99bc 0e81 88bb
000002a0: b898 3cbc a305 0abd 0ecd d03d 26a3 4d3d
000002b0: ced5 c33d a57a de3a bd17 703d b12d b2bd
000002c0: 3dd1 7f3d 0929 eebd cc95 a3bc dc1a 7e3c
000002d0: 6490 863d 7ef4 d13d e952 8ebd c082 cdbd
000002e0: 6cab 263d 8de5 033d 6748 64bd 21ff dabc
000002f0: f7c1 983d 429e 2c3d 5333 99bd 2f3b f63d
00000300: cc8e debd ca95 593d 5fba 0fbe 886d a9bd
00000310: ae03 5e3d e255 82bd 0397 febc 3737 923d
00000320: 7036 893c ded9 063e 25bc a83d 08dc 20bd
00000330: 7dda 97bd 0251 5abd 6d3d 17be 8eb2 c33d
00000340: fc0f b73d c6be e23d fc7b 8dbd 7d0b 1d3d
00000350: 1c2f 883d cf6b 39bd 80f2 aa3d a3a8 27bd
00000360: ebb8 533d 75f1 503d b88d a5bd 1fa7 543d
-0.07433196 -0.0011621339 0.042947147 0.09769143 0.08687644 0.080726825 -0.07528853 0.019753203
0.026285695 0.12568106 -0.05630322 -0.06793701 0.10084819 -0.12723452 0.02547734 -0.13919653
0.14055519 -0.087342635 0.12397643 -0.04147986 0.04942725 0.033468314 -0.04087561 -0.040655203
-0.084623754 -0.05782966 0.0439074 0.034930754 0.03159706 0.057458002 0.076771274 -0.032120682
-0.11801835 0.07358117 0.01648019 -0.07809564 -0.059831064 -0.05144192 -0.0057044434 -0.09043278
0.09768824 0.0034604182 -0.09321728 0.047416057 -0.04021465 -0.010068411 -0.11200124 0.025031418
-0.008605652 -0.013367096 0.124655135 0.04091705 -0.10455498 0.11195914 0.076124266 -0.044328287
-0.10590764 -0.1145139 -0.054123107 0.0911121 -0.07523042 0.12960798 -0.07362663 0.05653876
0.070549265 0.00035944005 -0.021397587 -0.011542762 -0.08798083 -0.028341722 0.0030013365 -0.014251942
-0.05087167 -0.079593815 0.095099166 -0.015835728 0.069169015 -0.103665315 -0.04757637 0.105744906
-0.043271832 -0.043119222 -0.10061518 0.044713687 -0.08900586 -0.12134097 -0.10737047 0.14643107
0.106521085 0.097744256 -0.09647664 -0.019010933 0.034335386 -0.097581 0.010855043 -0.13763292
0.03449481 -0.06929701 -0.097874835 -0.0037804088 -0.12271096 0.0046230457 -0.07299728 0.10136835
-0.10162348 0.054235864 -0.03499094 -0.036023747 0.056090523 0.10484616 0.13340025 -0.12819687
-0.07854262 0.108008884 -0.044577166 -0.041091394 -0.14871807 0.029942784 0.0637302 -0.09473037
0.038056407 0.021481447 -0.101723045 0.053603217 0.09132998 0.11994357 0.07102675 0.04164705
0.05809403 -0.03556769 0.12172831 0.05893824 0.12253054 0.11235244 0.1137452 0.0024978295
0.101045325 -0.06233678 0.016065208 0.12718447 -0.11439666 0.08095572 -0.05970227 0.078754865
-0.029364625 0.062316574 0.056129474 0.11117429 0.10239593 0.022510348 0.053877365 -0.12221496
0.07516629 -0.007843059 0.0669908 0.14091276 0.08282658 -0.058056563 0.032582063 -0.063354425
-0.12296413 -0.051560875 -0.10252253 0.048707608 0.006863877 -0.12503429 -0.018741509 -0.004165775
-0.01151102 -0.03369678 0.10195361 0.05020442 0.095622644 0.0016973807 0.05861639 -0.08700121
0.062455405 -0.116289206 -0.01996889 0.015509333 0.06570509 0.10251711 -0.069494076 -0.10034704
0.040690824 0.03220134 -0.05573311 -0.026732983 0.07458871 0.042143114 -0.074804924 0.12023007
-0.1086708 0.053121366 -0.14035939 -0.082728446 0.054202728 -0.06364037 -0.031077867 0.07139438
0.01674959 0.13169047 0.08239011 -0.03927234 -0.0741472 -0.05329991 -0.14769526 0.09555541
0.08938596 0.110715434 -0.06908414 0.038341034 0.066496104 -0.04526883 0.083470345 -0.04093231
0.051690023 0.05101152 -0.08083671 0.05191719

conv2d.0.bias f4 [4]
00000000: de3f 91bd cd49 513d 3229 ca3d 7864 473d
-0.0709226 0.051095773 0.09871139 0.0486798

conv2d.2.weight f4 [2, 4, 9, 3]
00000000: 0ed6 05bd df84 13bd 65bc 323d ab70 113d
00000010: 9e5f b33b de37 353b 5640 b83c 930d b0bc
00000020: 488c 41bc c9e8 ea3c 3da8 443d 1151 e9bb
00000030: c05c 7d3d db5b 5d3d 552d 61bd aa6f cabc
00000040: e35f ff3c 28bd 84bc 07b9 c6bd a14f 313d
00000050: d48f 1f3d 822a 81bd e453 99bd a0e1 03bb
00000060: 0998 b03d 1dfd 89bd 66a2 00bd 161f 803d
00000070: 66c8 ce3c 6f55 b73d 595f f93c 97b3 0c3d
00000080: 090e e53c 926f 4dbd 9640 86bd a758 64bc
00000090: 04cf 2cbd af1f 0dbd adf6 ab3c 100d 023d
000000a0: f4b5 6e3d 0aed af3c 7f4a 8bbd 5074 b23c
000000b0: 98a2 a939 a74c 9fbd 8d17 cabc 779e 93bd
000000c0: bb80 083d b904 f0bb 74ef 84bc 88e2 7bbd
000000d0: bbda b6bd 5f27 283d 303d 803d 1d72 10bd
000000e0: 1e44 87bd 39c4 513d 1cee 22bc 20f3 47bd
000000f0: fb86 09bd 4af0 5c3d f50f acbd ea89 acbc
00000100: aeda 8e3d c3f6 2dbd ee71 6bbd 7905 48bd
00000110: 9a6c ab3d f9fe 63bd 9171 debb 8b69 6dbd
00000120: e874 233d 2982 4cbd 7f47 e43d 1933 c43c
00000130: c35b b5bc 98a8 053c 5e0f c7bc 8333 943d
00000140: 1fdd c8bb 1504 82bd 355a 493d 3027 853d
00000150: 4ea5 823d a047 c2bd 1cd0 4e3d 402a 803d
00000160: b422 40bd 42e9 8fbd d8da 80bd 8fb2 a53d
00000170: b4cd 8ebc dbae 43bd 1ce1 823d e0de 0cbb
00000180: 1875 12bd 9636 843d 9e2b 40bd 256d 90bd
00000190: acca 723c f9a0 e3bd 9139 b53d fd56 d5bc
000001a0: d14f 51bc ceaf a8bd 43e4 113d 7039 7d3d
000001b0: f16c e139 8a36 55bd 548a edbb 21c6 5c3d
000001c0: 0596 0b3d 2060 95bd caa3 3ebd b0e4 0b3a
000001d0: c7fd cc3d 3981 8c3d 078a 823c 1671 9abd
000001e0: c9eb a9bc 6d6e ad3c 3c47 c3bd 2a84 de3c
000001f0: ae76 92bc bf11 12bd 3a8c 8cbc 3aa1 1d3d
00000200: 1766 7c3d 4613 bb3c ac31 cd3c e9c5 8b3c
00000210: be57 9fbc 2e98 6abd fe7b 713c f1e7 033d
00000220: f370 883c a7f5 ba3d 2ec1 803d e25b e73b
00000230: 8f8e 88bc 426e 84bd 5a1b efbc 7a37 94bd
00000240: f167 a33d 4195 52bc 02d0 15bd 5db7 943d
00000250: 6442 133d 84ec 5d3b 41e4 b93d e235 07bc
00000260: a6ef 5c3c de4f 323d 8155 b9bd 8633 b13d
00000270: c499 ce3d 2354 903d 4e2f 14bb 3ad0 613d
00000280: 4591 f4bd 1788 a9bd c2a9 c83d 3e6b df3d
00000290: 2856 a5bc 556b 8c3b f470 8e3d 0906 973d
000002a0: 38c1 603d 0c3b 8fbd 740c 79bd 4430 c0bd
000002b0: fee4 15bd 6471 5b3d 1f1c 53bd 5b19 92bd
000002c0: a9b9 9fbd 07aa 90bd e447 9c3c b6f7 1b3d
000002d0: cc33 813d d94e 9ebc a269 adbd 4103 153d
000002e0: efc1 06bd 09ba febb 0ba8 9bbc d03f bf3c
000002f0: ef40 7a3d 7699 433d ca4c 5f3d 70b5 533d
00000300: 88e5 383c 342a e83c 1473 1738 f477 9d3d
00000310: 21ad 17bc a48d 333d ed6c 88bd cb9c b5bd
00000320: d0b3 1c3b d263 afbd 78da 813d 4a35 2e3d
00000330: f53d 283d 6631 993d 35e2 cb3c f179 b5bc
00000340: 629c 74bd 26a9 c8bd 4c82 5a3d eca5 cfbd
00000350: 3ffb c33d 9638 aa3c 9d30 aebd 3d0d f93c
-0.03267484 -0.036015388 0.0436367 0.03550784 0.005474045 0.0027651708 0.022491615 -0.021490848
-0.011813231 0.028675454 0.048012007 -0.0071202596 0.06185603 0.05404268 -0.054974873 -0.024711449
0.031173652 -0.016203478 -0.0970326 0.04328883 0.038955525 -0.06306936 -0.07486704 -0.0020123497
0.086227484 -0.06737731 -0.031404875 0.06255929 0.025242042 0.08951842 0.030440973 0.034350958
0.027960794 -0.05015523 -0.065552875 -0.013937152 -0.042189613 -0.034454044 0.020991648 0.03175074
0.058278993 0.021475334 -0.068013184 0.021783978 0.00032355334 -0.07778292 -0.024669433 -0.07207959
0.033325892 -0.0073247817 -0.016227461 -0.061495334 -0.08928438 0.041053172 0.062616706 -0.035265077
-0.06604789 0.051212523 -0.009944465 -0.048815846 -0.033575993 0.053940095 -0.08401481 -0.021061856
0.069753036 -0.04247166 -0.0574817 -0.048833344 0.083703235 -0.055663083 -0.0067884405 -0.05796198
0.039906412 -0.049928818 0.11146449 0.023950147 -0.022138482 0.008157872 -0.02429932 0.072363876
-0.0061298753 -0.06348435 0.049158294 0.06501615 0.063791856 -0.09486318 0.050491437 0.062580585
-0.046908095 -0.07026912 -0.06291741 0.08090698 -0.017432071 -0.047774177 0.063905925 -0.0021495149
-0.0357562 0.06455724 -0.046916597 -0.07052068 0.014818829 -0.111146875 0.088488705 -0.026042456
-0.012775377 -0.08236657 0.035618078 0.061822355 0.00042996512 -0.052053966 -0.007249156 0.053899888
0.034078617 -0.07293725 -0.04654292 0.00053365063 0.10009342 0.06860585 0.015934957 -0.07541101
-0.020742314 0.02117082 -0.09535071 0.02716263 -0.017878857 -0.035661455 -0.017156709 0.038483836
0.061620798 0.022836339 0.0250481 0.017062144 -0.019451018 -0.057274036 0.014739035 0.03220362
0.01665542 0.09128886 0.06286846 0.007060514 -0.01666954 -0.064663425 -0.029187847 -0.07237144
0.079788096 -0.012852968 -0.036575325 0.07261536 0.035951987 0.0033862898 0.09076739 -0.008252593
0.013484871 0.0435332 -0.09049512 0.086524054 0.10087922 0.07047298 -0.0022611204 0.05513022
-0.119417705 -0.0827791 0.09798004 0.10909127 -0.020182684 0.004285256 0.06955138 0.07374198
0.054871768 -0.06993684 -0.06080289 -0.09384206 -0.036595337 0.053574935 -0.05154049 -0.071337424
-0.07799084 -0.0706368 0.019077249 0.038078032 0.063087076 -0.019324707 -0.084674135 0.036380056
-0.032899793 -0.007773642 -0.019001028 0.023345858 0.06109708 0.047753774 0.05451659 0.051686704
0.011285193 0.028340437 3.610838e-05 0.07688895 -0.009257586 0.04383625 -0.06661401 -0.088677965
0.0023910888 -0.08563961 0.06340498 0.04253129 0.04107471 0.07480125 0.024888137 -0.022152873
-0.05971945 -0.097978875 0.053346917 -0.10139069 0.09569406 0.020778935 -0.08505366 0.03040182

conv2d.2.bias f4 [2]
00000000: 7405 f93c c2fe e23b
0.030398108 0.006927342

fc.0.weight f4 [50, 1292]
00000000: a7fc 113c 3844 e5bc a432 75bc 1123 b9bc
00000010: 6207 aabc 92ff ecbc c04c c6bb 15ac ea3a
00000020: 78e8 a63c a66c 333c 1462 15bc 01d4 9bbc
00000030: 5830 b4bc 06cf 8b3c 0022 ce3c 5590 41bc
00000040: e852 debc 34f4 a83b 0b05 b9bc dbf2 ea3b
00000050: fbab 0fbb edb7 173b d8b7 11bb eb3a 9c3c
00000060: 8d31 bf3b 8b46 633c 32bf 7fbc 028a 8e3c
00000070: b3ea f1ba f57e d8bc 9248 d53b c973 c4bc
00000080: 6e89 993c a4d5 373c caac 07bc cf62 30bc
00000090: eaf8 c33c ec34 e0bb f467 b0bc e7b7 d63b
000000a0: ae00 2cbb a111 b23c e5d1 2dbc 970f 603c
000000b0: abb5 6abc 9e2a 8dbc 9a89 9e3c 8ee7 023d
000000c0: ca4b a7bc 7bf0 193c 3a39 b83c f901 b9bb
000000d0: 3b25 58bc 70bf f7bb 8b9c 40bc 63ee c8bc
000000e0: 885c 90bb d0c0 19bc 6148 e43b ed88 ad3c
000000f0: 1716 903b c479 863c 2dbd d5bc ea9c 96bc
00000100: cd56 393c 71b8 8e3c efe5 a43c 26ce 76bb
00000110: 32e8 9bbc d55f 0abb b2c4 d9bb 62e8 843b
00000120: 872b b3bb 8219 a5bc c319 103c 775c 473c
00000130: 6bd1 b6bc ca85 a03c 3001 963c ad55 793b
00000140: 5404 883c 9031 72bc 5380 e93c bf47 a9bc
00000150: 3f39 483c 3d82 07bc 0f08 b5bc 3bc9 5e3b
00000160: a1aa c5bb 4a9d a73c 8e33 f7b8 0a6c 0dbc
00000170: cb14 a0bc 0c4c 553c 7fce 76bc 591f 81bc
00000180: b09d 033c a3ba acbb a6a9 2abc 61f0 e63c
00000190: fbf5 80bb c895 00bb 9aff 813c 86bd 9c3c
000001a0: 281c 89bc 66f9 b9bc c8b4 913b 4e09 7dbc
000001b0: 6e9b b63c 5db5 94bc 0be1 83bc 2ff2 0dbc
000001c0: 8574 69bc 4953 173c 43cd debc 5acd 59bb
000001d0: a82a b0bc 11d9 b7bc 963c 04bc 14ad d5bb
000001e0: 4053 743c 5409 85bc 799c a43c b633 6a3c
000001f0: 88b4 aebb f10b 08bc 06a7 383b 896e bfbc
00000200: f8f1 15bc ed33 46bc a4c2 923c dc48 b5ba
00000210: 91ce 933c 3ede 8fbc 197f 8ebc ca83 d1bc
00000220: 887d 8d3c 5e13 9c3c e243 c73c ff6b 91bc
00000230: 72ab 84b8 89f5 9b38 f1e5 943c 79e9 aebc
00000240: 5877 2f3c 8802 873c e318 cdbc fd1b cf3b
00000250: 25cf 7fbc 7dd9 a63c fca4 a43b 03e8 d23c
00000260: fdc3 a8ba 7969 76bb 3073 dd3c e886 0b3c
00000270: 4a62 f43c 7a70 923c be77 973b ed15 2bbc
00000280: 117f 24bc 0d03 a1bc caf5 203c 1bd2 02bc
00000290: e962 95bb fd28 bd3c be46 06bc d07b 773b
000002a0: 43b9 d1bc d2c7 b83c ad7b acbc 083a 0ebc
000002b0: fd84 99bb 0eb6 9b3c 255a 3e3c 5e3f 88bc
000002c0: d6d8 9ebc 3cc0 22bc e394 a7bb a88b 153c
000002d0: da97 a2bb dc73 333c 9456 513c f109 d1bc
000002e0: 6198 51b9 6e57 f3bc 2442 133c ea0c 893a
000002f0: 38e4 61bb 39cb 31bc 88ee da3c cbf5 c4bc
00000300: 1858 6e3c f762 e33c 1de3 3d3c aaea 783c
00000310: ae1d 353c f175 023d b7ef ba3c d672 083c
00000320: 6be1 d93c ab69 9fbc 0024 e43c ebbe 493c
00000330: e5f0 31bb 4e44 a83c c294 dcbc 186f be3c
00000340: 90b0 28bb 2a60 263c b35f 98bc 8601 cfbc
00000350: 60fe 4bbc f5ee 443b 4697 883b 6b42 de3b
00000360: 754b 5b3c f18b 673c b519 813c 619a 843c
00000370: 9526 d1bb d1a3 68bc d384 c4bc ea26 7abc
00000380: e9a1 cc3c 3a2f b03c 5e30 393c 0129 34bb
00000390: 7f7d acbc b1d0 813c cf71 943c c29d ce3b
000003a0: d1b4 55bc 22c7 8a3b 056a b03c 54e9 063d
000003b0: e8c6 c83c 2267 bc3b aed9 c93c 39bb 0fbc
000003c0: c371 f4bc d5e0 8a3b 761c 153c 6f3a 113b
000003d0: c047 80ba 2c54 5ebc 435a 21bd e819 853c
000003e0: 877c a73b 1750 40bc 3df8 2fbc 621b 29bc
000003f0: ee90 8abc 9a9e 983c b84b 1d3b 6967 763c
0.008910335 -0.02798663 -0.014965687 -0.022599729 -0.020755474 -0.02893046 -0.00605163 0.0017904068
0.020374522 0.010951197 -0.009117622 -0.01902199 -0.021995708 0.01706649 0.025162697 -0.011814197
-0.027139142 0.0051560644 -0.022585412 0.007170064 -0.0021922577 0.00231504 -0.0022234824 0.019071063
0.0058347643 0.013871799 -0.015609549 0.017399792 -0.0018456787 -0.026427725 0.006508895 -0.023980992
0.01874229 0.0112203695 -0.008280942 -0.010765745 0.023922402 -0.0068422463 -0.021533944 0.0065526846
-0.0026245522 0.021736922 -0.010609125 0.013675592 -0.01432554 -0.017232236 0.019352723 0.03195911
-0.020421881 0.009395714 0.022488225 -0.005645987 -0.01319247 -0.007560663 -0.011756073 -0.024527734
-0.004405562 -0.009384349 0.006966636 0.021183455 0.0043971646 0.016415484 -0.026091183 -0.01838537
0.011312199 0.017421933 0.020129172 -0.0037659495 -0.019031618 -0.002111425 -0.0066457624 0.0040560225
-0.0054678353 -0.020153765 0.008795205 0.012168041 -0.022316655 0.019595046 0.018311113 0.0038045452
0.016603626 -0.014782324 0.028503573 -0.020664094 0.01222068 -0.008270797 -0.02209857 0.0033994454
-0.0060323034 0.020460743 -0.000117874806 -0.008631716 -0.019541165 0.013018619 -0.015063881 -0.015762018
0.008033201 -0.0052712723 -0.010416424 0.028190793 -0.003935573 -0.0019620527 0.01586895 0.01913334
-0.016737059 -0.02270193 0.0044465996 -0.015444113 0.022290912 -0.018152887 -0.01609852 -0.008663698
-0.014248972 0.009236165 -0.027197486 -0.0033233971 -0.021504715 -0.022442373 -0.008071085 -0.0065208767
0.0149124265 -0.0162398 0.020094143 0.014294555 -0.0053315796 -0.008303628 0.0028175726 -0.023368137
-0.009151928 -0.012097341 0.017915078 -0.0013830918 0.018042834 -0.017562028 -0.01739459 -0.025575537
0.017271772 0.019052204 0.024324361 -0.017751692 -6.326185e-05 7.4367104e-05 0.01817605 -0.021351563
0.010709606 0.0164807 -0.025036281 0.006320475 -0.015613352 0.020367378 0.0050245505 0.025745397
-0.0012875792 -0.0037599488 0.027032465 0.008516051 0.029832024 0.017875899 0.0046224287 -0.010442239
-0.010040061 -0.019654775 0.009824226 -0.007984663 -0.00455891 0.023090834 -0.008195577 0.0037763007
-0.025601035 0.02255622 -0.021055067 -0.008680828 -0.004685043 0.019007709 0.011618172 -0.016631778
-0.019390505 -0.009933528 -0.005114184 0.009127535 -0.00496195 0.010952916 0.0127769895 -0.025517436
-0.00019988559 -0.029704776 0.008987937 0.0010456119 -0.0034468304 -0.010851675 0.026725069 -0.024042984
0.01454737 0.027757151 0.011589793 0.015192667 0.0110544395 0.03185076 0.022819383 0.00832816
0.026596745 -0.019459566 0.027849197 0.012313585 -0.002715164 0.020540383 -0.026926402 0.023246333
-0.0025740005 0.010154763 -0.01860032 -0.025269281 -0.012450784 0.0030049656 0.004168424 0.00678282
0.01338469 0.014132486 0.015759328 0.016186895 -0.006382773 -0.014199213 -0.023989117 -0.015268067
0.024979549 0.021506894 0.011303036 -0.002749026 -0.021055935 0.015846582 0.018120674 0.0063054273
-0.013043598 0.0042351643 0.021534929 0.032937363 0.024508908 0.005749599 0.02463993 -0.008772665
-0.029839402 0.004238228 0.009101024 0.0022160073 -0.0009787008 -0.013569873 -0.03939272 0.016247705
0.0051112804 -0.011737845 -0.010740337 -0.01032147 -0.016914811 0.018630315 0.002400143 0.015039303

fc.0.bias f4 [50]
00000000: 2866 9a3c 37be 87bc 0eed d73c e500 1e3c
00000010: 5906 a5bc 60e1 7bbc 0796 b23c 6bc9 9ebc
00000020: 8256 953c 8639 a5bc 224b eabb bfa3 8f3c
00000030: 0b86 36bc 187f b9bc 4aa1 c23c d53e 01bb
00000040: 9355 8dbb 013c 0a39 cc90 513c 8dee 2ebc
00000050: 77f8 b7bc bf2e 2d3c b430 0dbb d277 aebc
00000060: 4f79 c43c 318e 7fbc e501 b6bc 857c bd3c
00000070: 0994 b13b 0061 b63c 55e1 50bc 50a9 a3bb
00000080: a001 073c 8238 1c3a eed1 673c 07cb b73c
00000090: 5e5e 9638 5d30 0dbc 3ea5 5d3c 89cf 89bc
000000a0: 767f 49ba a968 70bc 2f5d b43c 2691 33bc
000000b0: fb56 b23c 0056 7abc c31b 853b ead6 bebc
000000c0: 5147 b13c 565c 48bc
0.01884754 -0.016570194 0.026358154 0.009643768 -0.020144628 -0.015373558 0.021800054 -0.019383153
0.018229727 -0.02016903 -0.00715007 0.017534135 -0.011140357 -0.02264361 0.02375855 -0.0019721289
-0.0043131798 0.00013183059 0.01279087 -0.010676992 -0.022457344 0.010570227 -0.0021543922 -0.02129737
0.023983626 -0.015597866 -0.0222177 0.023130665 0.0054192585 0.02226305 -0.012749036 -0.004994549
0.0082401335 0.0005959348 0.014149172 0.022435678 7.1701346e-05 -0.008617488 0.013528166 -0.016822593
-0.00076865347 -0.01467339 0.02201709 -0.010959899 0.021769991 -0.015279293 0.0040621473 -0.023295838
0.021640452 -0.012229046

fc.1.weight f4 [50]
00000000: ecf0 823f f93f 813f 2b70 803f dda9 813f
00000010: ee25 813f d2ad 803f 16a1 823f 1e90 813f
00000020: f8b6 803f 3191 823f 7f15 823f 893f 813f
00000030: 4048 813f 4902 823f 719c 833f c75a 823f
00000040: 00b5 813f c323 813f 70ad 813f 2614 803f
00000050: 9bb5 813f ddc4 803f 7774 833f de32 833f
00000060: 9e5b 813f 533b 813f b5a6 803f 2b78 803f
00000070: c856 823f a335 803f be93 813f 48eb 803f
00000080: 654c 803f 6511 813f f2dd 803f b987 813f
00000090: e48a 803f 234f 823f b928 823f 1868 813f
000000a0: 865c 803f 18f2 803f 0739 803f 2bec 813f
000000b0: 4ab1 803f f216 823f 717b 803f 4557 803f
000000c0: 004c 823f 5dd6 823f
1.0229774 1.0097648 1.0034231 1.0129963 1.00897 1.0053046 1.020541 1.0122106
1.0055838 1.0200559 1.016281 1.0097514 1.0100174 1.0156947 1.0282117 1.0183953
1.0133362 1.0089039 1.0131054 1.0006149 1.0133547 1.0060078 1.0269917 1.0249898
1.0106084 1.0096229 1.0050875 1.0036672 1.0182734 1.0016369 1.0123212 1.0071802
1.0023314 1.0083433 1.0067732 1.0119544 1.0042386 1.0180401 1.0168678 1.0109892
1.0028236 1.0073881 1.0017403 1.0150198 1.0054104 1.0163252 1.0037671 1.0026633
1.0179443 1.0221668

fc.1.bias f4 [50]
00000000: 9bc0 6e3c 6e8d 6abc b3c8 a43c 16cf 0ebc
00000010: bfbb 8abc 973a 3e3c 0e5e 94bb 7e9e 1e3c
00000020: eb68 df3b 6251 d23b 24e4 a03c ee1b 50bb
00000030: a3ae 5c3c 3622 57bc d0ab d8bc c728 a4bb
00000040: 280c 68bb 5944 2d3b 04ac 2f3a 127c 85bc
00000050: 2f18 01bb 8092 0a3b 9c23 2e3c 33c4 08bc
00000060: f0e5 7f3c cc9b c1ba 5867 843c b5e9 d13b
00000070: 575c 813c 407f 75bc 1d3a 44bc 92c0 4eba
00000080: 587d 47bc 96fd 7c3b e561 23bb b043 8d3c
00000090: 5136 aabc 501e 55ba 43d8 cd3a 2105 4e3c
000000a0: 7a63 803b d34f dbba 1973 acbc 4d31 ce3b
000000b0: 3d36 48bc e968 84bb f85d 323c bbb6 a73b
000000c0: a8ea 393c 4ac4 fabb
0.014572288 -0.014315946 0.020115232 -0.008716365 -0.016935227 0.011610649 -0.0045278138 0.009681342
0.006817927 0.006418393 0.019640036 -0.0031754929 0.013469371 -0.013130715 -0.026449114 -0.005009744
-0.0035407636 0.0026438443 0.00067013525 -0.016294513 -0.0019698252 0.002114445 0.010628607 -0.008347559
0.015618786 -0.0014771163 0.01616256 0.006406034 0.015791101 -0.014983952 -0.011976746 -0.00078869716
-0.01217588 0.0038603297 -0.0024930176 0.01724419 -0.020777853 -0.0008129822 0.001570471 0.012574465
0.0039181085 -0.0016732163 -0.021050977 0.006292498 -0.012219963 -0.0040408266 0.010886662 0.0051182187
0.01134745 -0.007652794

fc.1.running_mean f4 [50]
00000000: e5b9 683b f1fc 1f3c 781c 983b 62da a23c
00000010: 49d2 36bc b9c3 3ebc 7cc6 833c 52f1 89bc
00000020: 6465 4abc 1556 c0bc 6109 50bc 2612 903c
00000030: 169e 32bc 96d5 9ebc f9bd 133d 0080 5fba
00000040: ea60 003a 4e93 85bb c7d4 e3bb 2737 2a3d
00000050: 046b 02bc d0fd c83c 4730 1dbc f6f0 98bc
00000060: c309 b43c d20d 09bc 6cee 4abd b525 273d
00000070: 956b bb3a 7c8c d73c 2219 94bb ee95 923a
00000080: 961d a53c fcb7 883a 68f5 fd3c fd24 ca3c
00000090: 5dd6 913c 7bae aa39 06e3 203c 10d9 17bd
000000a0: b46b 88ba befd 4ebc c987 c73c e1e1 94bc
000000b0: e6f4 3c3d 2d6c 97bc 0af8 a0bc 7c95 fdbc
000000c0: 6bf0 e93b 59a0 0ebc
0.0035511192 0.009764896 0.0046420656 0.019879524 -0.011158534 -0.011643344 0.016085856 -0.016838703
-0.012353275 -0.023478547 -0.012697549 0.017586779 -0.010901948 -0.019388955 0.036069844 -0.00085258484
0.0004897254 -0.004076398 -0.0069528553 0.041556504 -0.007960085 0.02453509 -0.00959403 -0.018669587
0.021977311 -0.008365111 -0.049543783 0.040807445 0.001429903 0.026312105 -0.0045195976 0.0011183599
0.02015571 0.0010430808 0.031000808 0.02467584 0.017802412 0.00032554925 0.009819752 -0.03707224
-0.0010408075 -0.012633739 0.02435674 -0.018174114 0.04613199 -0.0184842 -0.019649524 -0.030955069
0.0071392558 -0.008705222

fc.1.running_var f4 [50]
00000000: 2721 253a 90a2 6d3a 1935 073a b04f 353a
00000010: 4f55 313a 5433 343a 4687 f739 11ad 6c3a
00000020: 3508 893a 86ca 163a 874c 463a 8289 203a
00000030: f1b2 1a3a 6288 0d3a 484d 0b3a c236 373a
00000040: bc90 8a3a 2294 443a 44bb 463a a538 443a
00000050: a5cf 733a 6f68 253a 544c 2e3a 3317 223a
00000060: 36bf 4a3a ec1a 693a 3f2f 683a bc53 453a
00000070: e1d3 1d3a b6bd 0d3a 6a02 223a 3cea 4c3a
00000080: 56d3 303a c7f6 1f3a 5dde 233a 1582 173a
00000090: 9151 1c3a edc1 333a 3fcd 403a 14bc 493a
000000a0: 13bf 3e3a 4d49 123a c093 153a 5ef1 163a
000000b0: 01e2 413a e64b 513a 29fa 373a 4979 253a
000000c0: 1890 eb39 23f0 243a
0.00062991906 0.0009065056 0.00051577535 0.00069164764 0.0006764726 0.00068741036 0.00047212298 0.00090284745
0.0010454716 0.0005752224 0.0007564504 0.0006124006 0.0005901298 0.0005399046 0.0005313945 0.00069890555
0.0010571699 0.000749888 0.00075810053 0.00074852473 0.0009300656 0.00063098123 0.0006648947 0.00061832665
0.0007734181 0.00088922563 0.0008857138 0.0007527431 0.0006020647 0.0005406992 0.00061801693 0.0007816886
0.00067453587 0.00061021413 0.0006251091 0.00057795766 0.0005963082 0.00068572053 0.0007354803 0.00076955673
0.0007276397 0.00055803807 0.00057059154 0.00057580124 0.0007396043 0.0007984027 0.0007018173 0.00063123234
0.0004493005 0.00062918867

fc.2.weight f4 [8, 50]
00000000: 4c8b 0abd ae0b f9bb c7af b0bd 88a5 04be
00000010: 2977 903d caac 1d3b 41ee 01bc 5bdc afbd
00000020: 9fb0 41bc f347 e43c de37 b8bd 22bb 92bd
00000030: 2f27 fabc a125 0b3e 4623 a93d a90e 073b
00000040: bd50 8c3d 4b3c b93d 7897 00bd 86da 943d
00000050: f1fd 46bd bc3a 90bc 4926 3ebd ba8c b83d
00000060: c05e d0bd f26b eebd 52bf 84bd 5bbb 57bd
00000070: a41b c93d 4928 38bd 76bd d53d 58a6 0abe
00000080: 4e7a 6b3b 302a b03d 119e 033d 86e9 03be
00000090: 7182 a73c 9806 a03d 4fc5 06be f986 e1bd
000000a0: 5927 2d3d b5d5 c8bd 5326 0cbd 430a eebc
000000b0: 51de cd3d 599b 4b3d 6ca8 cfbd fb9f fd3d
000000c0: e5d0 d5bd 97fc ad3c 0002 4dbe d21c 56bd
000000d0: 505b b2bc fd69 fbbd aa3a 4c3c 1948 9e3d
000000e0: deb8 383e 585c d83c b33c 8ebc cfd0 1f3e
000000f0: 4737 b13c 75a5 f03c 0754 d4bc e269 4bbe
00000100: c2a8 573e f480 d4bd dfb8 c7bc cb5a 933d
00000110: 6348 f33d 4246 9e3c 6329 03be f0f8 763d
00000120: 3c31 2bbe 22d5 f8bd 20ef 1e3b 9764 16bd
00000130: 3811 193d 94a8 92bc 3dc2 23be 433c b63b
00000140: c806 dabd 5e2d 5f3d 5c2a 073d 58b2 303d
00000150: 8dcb 0b3e 553d 633d 87d3 043d 32cd efbc
00000160: 8fcf 253e a0f0 98bd 6324 663c 62f9 c73d
00000170: fd68 14be 4c6e e13d bdf2 83bd 3b01 2c3e
00000180: d33e bcbd 3eab 2c3d baa6 03be 11c6 d0bd
00000190: 325f 52bd db71 8e3c 760b b2bc 183e 293e
000001a0: 1ca0 99bd 230b 12be c124 b6bd e895 f5bc
000001b0: 8c31 c73d 18fc 48be 60cd 0c3e 667a eebd
000001c0: dbc9 9b3d 69bf 3e3d dddf 2d3d 6d6c 07bd
000001d0: c8c0 c8bd 18b5 09be e274 bbbd d61f a8bc
000001e0: 5fd1 c8bd 6dc6 06be 53a0 0ebe 2f44 003e
000001f0: 2682 1a3c dddb ddbc e49f 323e 20ce da3d
00000200: 651c 393e 3753 f7bd 65f8 193d 3f6c 40bd
00000210: 61ef a8bd efbe a3bd b4f2 91bd 4ffa 40be
00000220: 8cff b23b d534 b2bd 6b67 2bbe 6436 2bbe
00000230: 1181 973d 43f1 1b3c 72b0 0fbe 659f abbc
00000240: 4423 28be e7aa 3cbe a1fe 4b3d 622a 41bc
00000250: b61b 0c3e 16bb 2ebe 68a7 253e f457 fcbd
00000260: ccc3 043e 757e c4bd 6af0 1ebe 1531 44bd
00000270: d43d 483e baeb 023e 30b5 893c e28d f4bc
00000280: 8e0f 2c3d cc5e 06be 2207 fb3d aa9d c5bd
00000290: adf0 31be c626 24be 0c4a 94bc 8ed7 373b
000002a0: 723b 7b3d c605 61bc f877 e73c 89e0 40bc
000002b0: 02ef 0f3e 9f5e 45be 5c07 223e e70b afbd
000002c0: 20af 013d 3001 25bc 381f 0a3e 0f3e ffbd
000002d0: bd42 023e 1969 b4bc af8d d03c aee4 3f3d
000002e0: 338d 483d cbbd de3d 2424 0ebe 6845 083d
000002f0: 76ec 323c 43b7 313d 4150 72bc 7547 e0bd
00000300: f668 053d ec0d 2dbe 5a55 d83c 3d8c 2b3d
00000310: 8631 463d 71e9 1f3d a8ea 2f3e eed3 b8bd
00000320: b6cb 133d 995c 84bc 21ca 05be 8822 c63d
00000330: 7dca adbc 89f3 00be 1d0f db3d 23d8 893d
00000340: f376 1b3c f03f 0bbe 929d e3bb b6f9 a93c
00000350: a3a3 11be 2be5 263c 24f3 613d 5983 0fbd
00000360: 9038 cfbb b7f8 fdbd d87d a13d 12c7 0c3e
00000370: e990 33bc f653 8abd 2207 9bbc d89c eabd
00000380: 2a60 c3bc d3af b23c d7ca 5f3d 6e46 c63d
00000390: e570 10be b5f4 0e3c 94a9 443d ade4 dd3d
000003a0: cd4b cb3d 0806 66bc 10df 74bd c084 c6bd
000003b0: 52cf 273d 59be dc3d ee14 073e d929 51b9
000003c0: 5783 2bbd 0775 adbd 44f8 c63d 69f9 7bbd
000003d0: f86a 993b 8820 6bbd 7b89 85bd 9953 fdbd
000003e0: aa31 843d 29ff bc3d 9877 183e e272 2dbe
000003f0: 2cfb 7c3c 10d5 bfbd cef3 fbbd a369 623d
-0.03382425 -0.0076002693 -0.08627277 -0.1295377 0.07053978 0.002405929 -0.007930339 -0.08586951
-0.011821895 0.02786634 -0.08995031 -0.07164599 -0.030536262 0.13588573 0.08258681 0.0020608103
0.06851337 0.09044703 -0.03139445 0.072682425 -0.04858202 -0.017606132 -0.04642323 0.090112165
-0.10174322 -0.11641683 -0.06481804 -0.05266891 0.09819725 -0.044960294 0.104365274 -0.13540018
0.0035931054 0.086017966 0.032133166 -0.12882051 0.020447941 0.07813758 -0.13161205 -0.11012072
0.042273853 -0.098063864 -0.034216236 -0.029057628 0.10052169 0.049708698 -0.10139546 0.123840295
-0.10440234 0.021238608 -0.20020294 -0.05227358 -0.021772057 -0.12276075 0.0124651585 0.07728595
0.18039271 0.02641122 -0.017362928 0.15606998 0.021632804 0.029375771 -0.025918974 -0.1986461
0.2106047 -0.10376158 -0.024380146 0.07195052 0.11879041 0.01932061 -0.12808757 0.060296
-0.16718 -0.12150027 0.0024251416 -0.036717024 0.037369937 -0.01790265 -0.15992065 0.005561383
-0.10645825 0.054486625 0.03299938 0.04313883 0.13651867 0.055478413 0.03242829 -0.02927265
0.16192459 -0.074677706 0.014046761 0.09764363 -0.14493175 0.110073656 -0.06442783 0.16797344
-0.0919167 0.042155497 -0.1285657 -0.10194028 -0.051360317 0.017388275 -0.02173398 0.16527593
-0.075012416 -0.14262061 -0.08893729 -0.029978707 0.09726247 -0.19627416 0.1375022 -0.116444394
0.0760686 0.04656926 0.04244982 -0.033062387 -0.09802395 -0.13447988 -0.09153153 -0.020522993
-0.09805559 -0.13161631 -0.13928346 0.1252601 0.009430444 -0.027082378 0.17443806 0.106838465
0.18077238 -0.12076419 0.037590403 -0.04697823 -0.08248783 -0.07995402 -0.0712637 -0.18845485
0.0054625925 -0.08701483 -0.1673867 -0.16719967 0.07397664 0.0095179705 -0.14032152 -0.020950029
-0.16419703 -0.18424569 0.04980338 -0.01178989 0.13682446 -0.17063555 0.16177142 -0.12321463
0.12965316 -0.09594432 -0.15521398 -0.04789837 0.19554836 0.12785235 0.01681003 -0.029852811
0.04200702 -0.131221 0.1225722 -0.09649213 -0.17376967 -0.16030416 -0.018101715 0.0028052065
0.06133599 -0.013734287 0.028255448 -0.011772283 0.14056018 -0.19274376 0.1582312 -0.08547192
0.031661153 -0.010071084 0.13488472 -0.124630086 0.12720771 -0.02202277 0.025458185 0.046848945
0.048962783 0.10876044 -0.13880974 0.033269316 0.0109206345 0.043387663 -0.014789642 -0.10951129
0.0325708 -0.16899842 0.026407886 0.04188179 0.048387073 0.039040986 0.17179358 -0.090247974
0.036082946 -0.016157435 -0.13065387 0.09674555 -0.021214718 -0.12592901 0.10696242 0.06730678
0.009488809 -0.13598609 -0.006946274 0.020748954 -0.14222579 0.010186474 0.055163518 -0.035037372
-0.0063238814 -0.12400954 0.07885331 0.13747814 -0.010959842 -0.067542955 -0.0189243 -0.11455697
-0.023849566 0.021812355 0.054636803 0.09681402 -0.14105566 0.008725335 0.048013285 0.10834632
0.09926567 -0.014039524 -0.05978304 -0.09693289 0.0409692 0.107784934 0.13191578 -0.00019947383
-0.041873302 -0.08469587 0.09715322 -0.061517153 0.004681941 -0.05740407 -0.06520363 -0.123694606
0.06454785 0.092283554 0.14889371 -0.16938356 0.015440743 -0.0936681 -0.123023614 0.055276524

fc.2.bias f4 [8]
00000000: 3781 1abe cd73 173e 7d26 293c 211f 7abd
00000010: 6270 ce3b 78bb f8bc 61d2 25be 0441 12bd
-0.15088354 0.14790268 0.010324118 -0.061064843 0.006300018 -0.03036283 -0.16193534 -0.035706535
