KGs/semantic_bible/model weights/GRU_{_hidden_dim_ 100, _n_layers_ 2}_.pt (torch, 439585 bytes, 16 tensors)

gru.weight_ih_l0 f4 [300, 40]
0.047961462 0.091907054 -0.06825243 0.070629105 -0.021174002 -0.018715328 0.05064075 -0.05519127
-0.038438622 -0.0065348027 -0.008213405 0.056872755 -0.06672154 0.049964562 -0.054890502 -0.024760704
0.07316752 -0.0481988 -0.02117706 -0.0923644 -0.056402996 0.08295111 0.08384902 -0.06682957
-0.05459673 -0.001369447 -0.021332223 0.016221197 0.080455415 0.084062755 0.0156265 0.006389035
0.037429575 -0.025811188 -0.02639621 0.059202723 0.04230399 -0.06495768 0.058218155 -0.06822341
0.08479713 0.054664247 0.08572013 -0.009254472 0.0350171 0.049191847 -0.09938648 -0.07761837
0.0020764149 -0.030602004 -0.09738293 -0.042581856 0.06589991 0.044288997 0.054716635 -0.004957065
0.04872307 0.011160163 0.03170839 0.08351919 -0.08002621 0.027418736 -0.09708386 0.088624924
-0.048437737 -0.022589866 -0.09585091 -0.08253018 -0.09823623 -0.054221407 -0.0464738 0.09259898
0.059651576 0.098366834 -0.08662694 0.027834192 -0.08937782 0.0046497313 -0.014244024 -0.06705198
0.05014392 -0.08768917 0.06591543 -0.017459292 -0.047986187 -0.019038357 -0.07079709 0.054443356
0.057066616 0.06535469 -0.08081755 -0.070302576 -0.019087255 -0.033373464 -0.06332017 0.026511261
0.08347295 -0.08637605 0.011916381 -0.044609733 0.054979477 0.08280655 0.025270173 -0.008247805
-0.008351136 0.051541742 -0.09329206 -0.050363082 -0.09475101 0.079892196 -0.037750907 -0.06210184
0.0017291916 -0.013248961 -0.03582838 -0.01654596 -0.0330519 -0.08753879 0.057962827 -0.09133418
0.037492353 -0.045381602 -0.074164964 -0.018739644 0.030789616 0.08902922 -0.030898709 -0.03852138
-0.011530679 0.09317721 -0.048326395 0.073942445 0.009057351 0.03146603 0.06247431 0.03175723
0.021163423 -0.057573803 -0.0013394577 -0.069820754 -0.046808835 0.094641335 0.08384624 -0.03424719
0.035494264 0.045374326 -0.013987138 0.07888826 -0.009903953 -0.036797974 -0.07294292 0.02883503
0.08903726 -0.07974715 0.07188022 -0.0021519272 0.07517239 -0.035415255 -0.00895946 0.03748731
0.07638528 0.09160356 0.049448676 0.040649943 0.07080762 0.03106519 -0.074261986 0.05342323
0.0065741506 0.099195614 -0.047550004 0.018258473 0.022290139 0.058868982 0.014739009 0.038202133
0.099906586 -0.08006714 0.0626156 0.05616775 -0.027204746 0.020228123 0.013813021 0.0060930667
0.016544824 -0.063955486 -0.024827564 0.00970959 -0.08373496 -0.03298525 -0.093410455 -0.0905125
-0.06701083 0.04478599 -0.024664942 0.09423933 0.08362141 -0.010302353 0.033082712 0.09455973
-0.07419322 0.077138275 0.05895759 -0.028161837 -0.026490765 0.040447906 -0.0028097632 0.043707363
0.026701028 -0.034527667 0.020647148 -0.07234913 0.008735769 -0.06920792 -0.07409975 -0.016241055
-0.09032709 -0.049171895 -0.04065765 0.08599918 0.08577331 0.035324596 0.03654573 0.07673707
0.06709627 0.08056517 -0.09793535 0.07937881 0.0039898492 0.0684351 -0.09174275 -0.038624506
-0.035868227 -0.092520125 -0.08396495 -0.03849375 -0.051643457 -0.035326783 -0.07700042 0.03363843
-0.012584886 -0.098375425 0.089239195 0.066727705 0.027056767 0.071648896 -0.08483625 0.043646943
0.06270208 0.08167121 0.096252516 0.007902936 0.059814785 -0.0031794382 -0.056540962 -0.02086368
00000000: 3d73 443d c439 bc3d eec7 8bbd fea5 903d
00000010: 1a75 adbc e350 99bc ad6c 4f3d 3e10 62bd
00000020: d171 1dbd e621 d6bb 8491 06bc 68f3 683d
00000030: 4ea5 88bd a4a7 4c3d ddd4 60bd f6d6 cabc
00000040: dad8 953d 1b6c 45bd 847b adbc 8c29 bdbd
00000050: d406 67bd 46e2 a93d 09b9 ab3d f1dd 88bd
00000060: d2a0 5fbd 047f b3ba eac0 aebc 51e2 843c
00000070: cfc5 a43d 1829 ac3d 2503 803c 1c5b d13b
00000080: c14f 193d fc71 d3bc dd3c d8bc 8e7e 723d
00000090: f346 2d3d 8808 85bd 2976 6e3d b7b8 8bbd
000000a0: 1eaa ad3d 9ee7 5f3d 098e af3d 12a0 17bc
000000b0: 176e 0f3d 647d 493d 248b cbbd 61f6 9ebd
000000c0: 7614 083b 0eb1 fabc b470 c7bd 506a 2ebd
000000d0: 88f6 863d 6168 353d 8d1e 603d e06e a2bb
000000e0: d891 473d 1ed9 363c a8e0 013d 1c0c ab3d
000000f0: c8e4 a3bd 429d e03c e7d3 c6bd fc80 b53d
00000100: a666 46bd 620e b9bc 7b4d c4bd 9505 a9bd
00000110: 1430 c9bd 4417 5ebd 505b 3ebd 89a4 bd3d
00000120: 3655 743d 8d74 c93d 7769 b1bd 8804 e43c
00000130: b80b b7bd c65c 983b c45f 69bc 8c52 89bd
00000140: b663 4d3d 6196 b3bd abfe 863d ca06 8fbc
00000150: 2a8d 44bd 54f6 9bbc 11fe 90bd ffff 5e3d
00000160: afbe 693d aed8 853d ac83 a5bd ccfa 8fbd
00000170: e05c 9cbc 9db2 08bd 01ae 81bd 252e d93c
00000180: def3 aa3d ede5 b0bd ed3c 433c b2b8 36bd
00000190: 2932 613d 7b96 a93d 6503 cf3c cd21 07bc
000001a0: 34d3 08bc 6f1d 533d e80f bfbd 8549 4ebd
000001b0: d10c c2bd 859e a33d b2a0 1abd 805e 7ebd
000001c0: 0ba6 e23a 2c12 59bc c8c0 12bd 658b 87bc
000001d0: 6e61 07bd 8a47 b3bd 6e6a 6d3d 6a0d bbbd
000001e0: 9591 193d 0fe2 39bd cde3 97bd e283 99bc
000001f0: 813a fc3c f454 b63d 4a1f fdbc 98c8 1dbd
00000200: 2ceb 3cbc b1d3 be3d e6f1 45bd 236f 973d
00000210: 4965 143c 86e2 003d 10e5 7f3d df13 023d
00000220: ea5e ad3c 82d2 6bbd be90 afba 2ffe 8ebd
00000230: 9fba 3fbd 51d3 c13d 94b7 ab3d c846 0cbd
00000240: 6f62 113d 6eda 393d 4f2a 65bc 2b90 a13d
00000250: 3144 22bc 79b9 16bd 1963 95bd 7137 ec3c
00000260: 2b59 b63d 7952 a3bd f035 933d 5907 0dbb
00000270: fbf3 993d 960f 11bd b3ca 12bc 4b8c 193d
00000280: e36f 9c3d a69a bb3d b28a 4a3d 8e80 263d
00000290: 9603 913d 6d7c fe3c ab16 98bd 51d2 5a3d
000002a0: f96b d73b 1227 cb3d cbc3 42bd cb92 953c
000002b0: cf99 b63c 9a20 713d e27b 713c d779 1c3d
000002c0: d39b cc3d 3efa a3bd 9c3c 803d 2810 663d
000002d0: 7ddc debc 73b5 a53c 0250 623c 59a8 c73b
000002e0: 0389 873c 18fb 82bd 2d63 cbbc f914 1f3c
000002f0: 3c7d abbd 8b1b 07bd fb4d bfbd 9e5e b9bd
00000300: f93c 89bd 8471 373d 220e cabc 8d00 c13d
00000310: b441 ab3d 33cb 28bc bd81 073d 88a8 c13d
00000320: 9df2 97bd acfa 9d3d 847d 713d a7b3 e6bc
00000330: 2903 d9bc b4ac 253d 0124 38bb 7e06 333d
00000340: 1dbc da3c e26c 0dbd 3524 a93c c82b 94bd
00000350: 7920 0f3c e2bc 8dbd 9cc1 97bd f60b 85bc
00000360: 69fd b8bd 7868 49bd a388 26bd 5720 b03d
00000370: eba9 af3d 86b0 103d fab0 153d 5328 9d3d
00000380: c569 893d 5aff a43d 5492 c8bd 5c91 a23d
00000390: 48bd 823b b427 8c3d 9fe3 bbbd bb34 1ebd
000003a0: 90ea 12bd 317b bdbd d1f5 abbd 9fab 1dbd
000003b0: 1788 53bd d1b2 10bd 65b2 9dbd 73c8 093d
000003c0: d630 4ebc 0e79 c9bd 0ac3 b63d 89a8 883d
000003d0: 27a6 dd3c a8bc 923d a1be adbd 23c7 323d
000003e0: f369 803d 3c43 a73d 0a20 c53d 517b 013c
000003f0: 5900 753d 1f5e 50bb 7f97 67bd 4fea aabc

gru.weight_hh_l0 f4 [300, 100]
0.025626175 -0.064123236 -0.056122866 -0.045436226 -0.05306381 0.0015593378 -0.005642386 -0.059209023
0.030994661 0.09729707 -0.019790808 0.08955888 0.040272515 0.010150701 -0.08007759 -0.052889455
0.07621112 0.016058972 -0.010250591 0.08364107 -0.035351474 -0.051868174 0.04858699 -0.09035006
0.083941415 0.06652722 -0.00031764142 -0.08908722 -0.055960096 -0.09331123 -0.0662026 0.07156021
0.0548652 0.021012647 -0.032719135 0.09089964 -0.067743175 -0.08632342 -0.07158114 -0.035308003
0.06908104 0.022655617 -0.09600415 -0.09619785 0.094668776 0.07280309 -0.07465728 -0.036387462
-0.03681315 0.07338462 0.013954894 0.026052866 0.097303025 -0.07136619 0.054151446 0.077701166
0.024097243 -0.028074196 0.0001659605 -0.042182963 0.07447629 0.00997271 0.026036818 -0.0018104938
-0.0169855 0.07126092 0.06898545 0.011539354 -0.05088387 -0.026057899 0.06969866 0.010535462
-0.059936516 0.031106025 -0.02080717 0.02342865 0.07461923 -0.07968491 0.0047576725 -0.061587308
-0.020829685 -0.02772447 0.017982055 -0.009169412 -0.074972205 -0.03381195 -0.084866464 0.023880392
-0.06012779 -0.031925593 -0.093357295 -0.080466785 0.00022670331 -0.028754365 -0.08008732 0.058122195
-0.032825593 0.07885667 -0.09573461 0.04618402 -0.04555026 -0.09995182 -0.05604875 -0.093289904
-0.049310025 -0.02925187 -0.025202032 -0.08241094 0.01365642 0.0011771634 0.07926191 0.0442123
0.055093862 0.07853795 -0.069221936 0.041014086 0.0068893135 -0.038393106 -0.09966855 -0.05466516
-0.08462237 0.055815693 0.08203433 -0.078447014 0.09177741 -0.021997886 0.08170892 0.09883783
0.011973082 -0.01816781 0.014266055 0.04996081 -0.050497755 0.04465906 -0.013121658 -0.07732951
0.016048698 -0.058541518 0.018351976 -0.06267374 -0.082437776 -0.046519406 -0.022907387 0.045414846
0.024339424 0.026625592 -0.014295885 -0.015430225 0.027793534 -0.06757338 -0.09169665 0.05140476
-0.023537792 0.097823516 0.03381765 0.029050525 0.079404965 -0.071165726 -0.09489559 0.056636855
0.053030342 0.086878605 0.007123756 0.026071455 0.06446856 0.03037413 -0.08638948 0.042496696
-0.016754387 -0.019337386 -0.039423384 0.017211558 -0.06129865 -0.096330285 -0.06632247 -0.023227867
-0.0777689 0.029205717 0.097668566 -0.08168301 0.03269908 -0.09139053 -0.051219605 0.06863925
-0.06923679 -0.015234812 -0.059729494 -0.025586866 0.02891047 0.03302259 -0.056980316 0.0027304138
-0.025470478 0.0016071225 0.033270724 -0.08902612 0.098848544 -0.09636669 -0.08846358 -0.024592381
-0.019161472 -0.047973037 0.08239762 -0.07531298 0.039295033 0.051520564 -0.058901455 0.00058502285
-0.06264995 -0.098069966 0.06228917 0.08788434 0.050229672 0.09857502 -0.0032258802 0.054771584
0.00027869348 0.021813624 -0.06922777 0.00021065128 0.032653946 0.013427233 -0.068434715 -0.08244549
0.096189864 0.07770401 0.098726794 0.05080874 0.097023636 -0.028688 -0.022043774 0.0507365
0.03825293 0.041397694 -0.00083133415 0.049672663 -0.035937667 0.08395668 -0.029074894 -0.067354634
0.05097083 0.061464928 -0.042525772 -0.0715008 0.057130665 0.09411434 0.019163517 -0.012389103
-0.07698379 -0.039967176 -0.0046005314 -0.095339924 -9.240982e-05 -0.08497861 -0.09314009 -0.008711007
00000000: fced d13c 0b53 83bd 17e1 65bd 561b 3abd
00000010: 7059 59bd b262 cc3a c4e3 b8bb 2985 72bd
00000020: 84e8 fd3c b043 c73d 5520 a2bc a56a b73d
00000030: cbf4 243d 204f 263c b8ff a3bd 9da2 58bd
00000040: 9314 9c3d 1b8e 833c 18f2 27bc 024c ab3d
00000050: b5cc 10bd b973 54bd 2703 473d 7409 b9bd
00000060: 7ae9 ab3d 6c3f 883d 1c89 a6b9 5c73 b6bd
00000070: 6a36 65bd f519 bfbd 3b95 87bd 298e 923d
00000080: 55ba 603d b722 ac3c 8004 06bd 9729 ba3d
00000090: efbc 8abd 55ca b0bd 2299 92bd 209f 10bd
000000a0: 5c7a 8d3d 4698 b93c d39d c4bd 6103 c5bd
000000b0: b4e1 c13d c919 953d ebe5 98bd 050b 15bd
000000c0: 63c9 16bd ad4a 963d 11a3 643c d26c d53c
000000d0: cf46 c73d 7028 92bd e8cd 5d3d ca21 9f3d
000000e0: 9567 c53c dbfb e5bc af05 2e39 0bc8 2cbd
000000f0: 0687 983d 9464 233c 2a4b d53c 174e edba
00000100: 2d25 8bbc 3ff1 913d 3e48 8d3d 8f0f 3d3c
00000110: 9b6b 50bd 6077 d5bc 2cbe 8e3d ee9c 2c3c
00000120: fe7f 75bd 10d2 fe3c cc73 aabc 71ed bf3c
00000130: f8d1 983d d831 a3bd 40e6 9b3b f942 7cbd
00000140: 04a3 aabc 6d1e e3bc 1a4f 933c 4d3b 16bc
00000150: 078b 99bd 667e 0abd 78ce adbd d0a0 c33c
00000160: 8f48 76bd 69c4 02bd 1c32 bfbd c5cb a4bd
00000170: 35b7 6d39 468e ebbc d204 a4bd 8a11 6e3d
00000180: 2174 06bd 9b7f a13d 8210 c4bd 742b 3d3d
00000190: e992 3abd 8ab3 ccbd 6093 65bd c70e bfbd
000001a0: 4ff9 49bd 9ea1 efbc 7e74 cebc 11c7 a8bd
000001b0: 2dbf 5f3c 0d4b 9a3a 1154 a23d f517 353d
000001c0: 1aaa 613d 81d8 a03d 3bc4 8dbd 63fe 273d
000001d0: c0bf e13b 1742 1dbd 061f ccbd 93e8 5fbd
000001e0: 7e4e adbd ff9e 643d 9d01 a83d d4a8 a0bd
000001f0: cbf5 bb3d e934 b4bc 0257 a73d 7d6b ca3d
00000200: bf2a 443c a9d4 94bc 2cbc 693c b5a3 4c3d
00000210: bcd6 4ebd 6bec 363d 39fc 56bc ef5e 9ebd
00000220: 8f78 833c 3bc9 6fbd e256 963c 175b 80bd
00000230: 23d5 a8bd 228b 3ebd 46a8 bbbc eb04 3a3d
00000240: 7963 c73c ea1d da3c 4a39 6abc 0ecf 7cbc
00000250: 44af e33c ea63 8abd 74cb bbbd cc8d 523d
00000260: 54d2 c0bc b257 c83d 6084 0a3d 5efb ed3c
00000270: 129f a23d 56bf 91bd 9e58 c2bd 0cfc 673d
00000280: 5836 593d 69ed b13d 666e e93b ce93 d53c
00000290: 1808 843d 2bd3 f83c f8ec b0bd 0411 2e3d
000002a0: 7f40 89bc 7069 9ebc 6a7a 21bd 41ff 8c3c
000002b0: 4b14 7bbd d048 c5bd 13d4 87bd 5e48 bebc
000002c0: 4d45 9fbd d440 ef3c 7506 c83d 6c49 a7bd
000002d0: 78ef 053d f52a bbbd a6cb 51bd bc92 8c3d
000002e0: 05cc 8dbd 6f9b 79bc eaa6 74bd 8c9b d1bc
000002f0: a6d5 ec3c b242 073d 3164 69bd bef0 323b
00000300: 77a7 d0bc 15a6 d23a e246 083d 5453 b6bd
00000310: 1b71 ca3d e65b c5bd 652c b5bd f675 c9bc
00000320: 85f8 9cbc 607f 44bd 15c0 a83d b13d 9abd
00000330: d4f3 203d 3a07 533d a742 71bd 385c 193a
00000340: 9e4e 80bd e8d8 c8bd ee22 7f3d b4fc b33d
00000350: a1bd 4d3d b3e1 c93d 4a69 53bb 2b58 603d
00000360: 9b1d 9239 7cb2 b23c 4ac7 8dbd 46e2 5c39
00000370: 25c0 053d e6fd 5b3c 8027 8cbd 2ed9 a8bd
00000380: 31ff c43d 4823 9f3d 4631 ca3d d31c 503d
00000390: 54b4 c63d 1903 ebbc 2595 b4bc 14d1 4f3d
000003a0: 1baf 1c3d a190 293d e4ed 59ba 9075 4b3d
000003b0: 6033 13bd 7bf1 ab3d 792e eebc 3af1 89bd
000003c0: cac6 503d a6c2 7b3d 812f 2ebd 036f 92bd
000003d0: d801 6a3d 05bf c03d cffc 9c3c aafb 4abc
000003e0: ada9 9dbd 9fb4 23bd 0ec0 96bb 9441 c3bd
000003f0: 25cc c1b8 4409 aebd 3bc0 bebd 9db8 0ebc

gru.bias_ih_l0 f4 [300]
0.071198836 -0.011288052 0.06729009 -0.045123573 -0.072800376 -0.0525945 0.0019252046 -0.00023493657
0.009110027 -0.052920118 -0.006815633 -0.0030733636 0.04891068 -0.063192695 -0.06503345 -0.039994355
-0.040679567 -0.01622768 -0.01162991 -0.0071938373 -0.061277967 -0.093751244 -0.087121665 -0.09465206
-0.05694779 0.069833264 -0.059063625 -0.037026763 -0.06639546 -0.014952023 -0.020032428 0.03263492
-0.06277992 0.067866005 -0.082080305 -0.0027426986 0.06290306 -0.07852725 -0.016854338 -0.00065654906
-0.06711145 -0.0038193346 -0.0032357285 -0.06678852 0.048396558 -0.08127101 0.0023178186 0.05467121
-0.06244543 -0.08305048 0.032819726 0.024073754 -0.03292665 0.06286956 0.037456263 -0.007820531
-0.04994207 -0.07210335 -0.07680797 -0.09202766 0.056244344 0.049719956 0.054942 0.08852011
-0.010808749 -0.012568901 0.031527948 -0.021614144 -0.06212546 -0.061036706 -0.004131721 -0.077689745
-0.07343566 -0.011898283 0.017583746 0.06464472 -0.09427179 -0.09525764 0.030774714 -0.061216712
0.0063497215 0.04673831 -0.0846089 -0.004480486 0.05958758 -0.013101511 0.0761684 -0.07901299
-0.002520152 0.00503053 0.028089806 0.066331245 0.031496946 0.046956606 0.07365225 0.09705113
0.04693192 -0.07468497 -0.03795556 -0.0022248065 -0.07120357 0.04880041 -0.1043291 -9.705474e-05
-0.044759694 0.05014893 -0.018089466 0.02779401 0.010956801 -0.026788944 0.07818849 0.08604239
0.010273989 -0.010477146 -0.06702903 -0.041629896 0.04263533 0.08775605 0.024702493 0.009849673
0.016733514 0.081144385 0.04358361 -0.06481685 -0.06438735 -0.006392201 0.09436099 -0.0029797626
-0.10144944 -0.05998893 0.025487104 0.04014629 0.016956164 0.09117747 0.024948644 0.061808668
-0.08815649 -0.014982304 -0.03401384 0.00978923 0.050664768 -0.072018266 0.063801646 -0.030525481
-0.08580611 -0.042180225 -0.034248177 -0.04732019 -0.020779008 -0.029517844 0.04735427 0.087442905
0.016196657 -0.028071398 0.07192971 -0.06502949 0.05334931 0.059912603 -0.03320514 0.071836285
0.00043901 0.084755264 -0.029179897 -0.047678307 0.031121599 -0.05628602 -0.004790624 -0.04113119
-0.09266883 -0.058065604 -0.042857755 -0.087395966 -0.0013986563 0.04556456 0.09521228 0.063516356
0.05658983 -0.07569728 -0.07471273 -0.08236744 -0.049235415 0.08994086 -0.06151765 -0.069611765
0.087848864 0.06720022 -0.007449352 0.062791616 -0.06338025 0.0048275837 0.06419309 0.04622555
-0.001485653 0.055607975 0.0065121483 0.017456396 0.03313141 -0.03347365 0.018759785 -0.08644818
0.031137101 0.06558405 0.051420633 -0.07511917 -0.00087171403 0.08675974 -0.051076375 0.0144032845
-0.09680487 -0.043663193 -0.01841885 -0.04237096 0.06955896 -0.05226916 -0.007673303 0.024021583
0.03964941 -0.06630897 0.03529064 -0.06299241 0.05021936 0.09087216 -0.035651207 -0.04698382
-0.032779172 0.024987826 -0.04446952 0.07812353 0.06856936 0.041418925 0.034415446 -0.008354815
0.045034096 0.048023272 0.057097815 -0.021079233 0.022521857 0.033870332 -0.07518206 -0.044040922
-0.011864134 -0.08430761 -0.056940254 0.05101708 -0.042005222 -0.025789304 0.0071584443 0.016732667
0.00067342434 -0.0027799497 -0.08059579 0.09167061 -0.026480813 0.047594048 -0.06636405 0.08688855
00000000: b2d0 913d 86f1 38bc 63cf 893d 7fd3 38bd
00000010: 5d18 95bd 556d 57bd 2657 fc3a 4e59 76b9
00000020: 3942 153c c4c2 58bd ac55 dfbb 7c6a 49bb
00000030: 9156 483d 2c6b 81bd 4230 85bd 1fd1 23bd
00000040: 9e9f 26bd e9ef 84bc 618b 3ebc 48ba ebbb
00000050: 9bfe 7abd a700 c0bd d86c b2bd f0d8 c1bd
00000060: 1642 69bd be04 8f3d b3ec 71bd 60a9 17bd
00000070: 58fa 87bd 54f9 74bc 0c1b a4bc 32ac 053d
00000080: c292 80bd 55fd 8a3d b819 a8bd d9be 33bb
00000090: 52d3 803d e5d2 a0bd 1c12 8abc 431c 2cba
000000a0: ba71 89bd cd4d 7abb 840e 54bb 6bc8 88bd
000000b0: 783b 463d 6a71 a6bd 8be6 173b ebee 5f3d
000000c0: c7c6 7fbd 5f16 aabd fa6d 063d 5236 c53c
000000d0: 18de 06bd c2c1 803d bd6b 193d af21 00bc
000000e0: 0e90 4cbd ecaa 93bd 7f4d 9dbd ff78 bcbd
000000f0: 7860 663d 27a7 4b3d dd0a 613d 084a b53d
00000100: 2e17 31bc cbed 4dbc 7323 013d 2510 b1bc
00000110: 4477 7ebd a001 7abd 6363 87bb cd1b 9fbd
00000120: 6f65 96bd 04f1 42bc ca0b 903c 7364 843d
00000130: 9111 c1bd 7016 c3bd 411b fc3c 60be 7abd
00000140: 5311 d03b ac70 3f3d 6e47 adbd 0ad1 92bb
00000150: 1b12 743d b8a7 56bc 2efe 9b3d 90d1 a1bd
00000160: 2229 25bb 25d7 a43b 981c e63c add8 873d
00000170: f102 013d 9255 403d fed6 963d bec2 c63d
00000180: af3b 403d 6ff4 98bd 4a77 1bbd 0fce 11bb
00000190: 2dd3 91bd f0e2 473d 7faa d5bd de89 cbb8
000001a0: f155 37bd f768 4d3d 5c30 94bc 43b0 e33c
000001b0: 2784 333c 7d74 dbbc 4921 a03d fe36 b03d
000001c0: 3c54 283c 56a8 2bbc 8446 89bd 1c84 2abd
000001d0: 62a2 2e3d 72b9 b33d e25c ca3c 8660 213c
000001e0: b914 893c 072f a63d ba84 323d b2be 84bd
000001f0: 84dd 83bd ab75 d1bb 5640 c13d 1f48 43bb
00000200: b9c4 cfbd f4b6 75bd 55ca d03c 7070 243d
00000210: a7e7 8a3c 41bb ba3d 1961 cc3c 162b 7d3d
00000220: 648b b4bd 5678 75bc 1952 0bbd 0263 203c
00000230: dc85 4f3d 507e 93bd 70aa 823d 9310 fabc
00000240: 1dbb afbd 2cc5 2cbd d147 0cbd d1d2 41bd
00000250: bd38 aabc 68cf f1bc 8df6 413d 4415 b33d
00000260: daae 843c fdf5 e5bc e24f 933d 2e2e 85bd
00000270: ce84 5a3d eb66 753d 1d02 08bd e71e 933d
00000280: ed2a e639 2b94 ad3d ae0a efbc 544a 43bd
00000290: b9f2 fe3c 2b8c 66bd abfa 9cbb 2e79 28bd
000002a0: 28c9 bdbd 33d6 6dbd 9d8b 2fbd a8fc b2bd
000002b0: 1e53 b7ba e7a1 3a3d a8fe c23d dd14 823d
000002c0: bdca 673d 2d07 9bbd fd02 99bd 43b0 a8bd
000002d0: 13ab 49bd ea32 b83d eef9 7bbd 9d90 8ebd
000002e0: 1bea b33d 45a0 893d b219 f4bb e498 803d
000002f0: 81cd 81bd b530 9e3b ab77 833d 0157 3d3d
00000300: 3eba c2ba 30c5 633d dc63 d53b b700 8f3c
00000310: cdb4 073d ab1b 09bd 1fae 993c be0b b1bd
00000320: 3c13 ff3c ee50 863d 719e 523d 14d8 99bd
00000330: bd83 64ba 17af b13d 7635 51bd c1fb 6b3c
00000340: a241 c6bd 2dd8 32bd 21e3 96bc 2c8d 2dbd
00000350: ee74 8e3d 3018 56bd 5570 fbbb e9c8 c43c
00000360: 6b67 223d ffcc 87bd eb8c 103d 2a02 81bd
00000370: d1b2 4d3d 2f1b ba3d 0007 12bd 1b72 40bd
00000380: 7443 06bd 45b3 cc3c ac25 36bd 3bff 9f3d
00000390: 186e 8c3d e4a6 293d 36f7 0c3d a2e2 08bc
000003a0: ac75 383d 0db4 443d 66df 693d 5bae acbc
000003b0: c27f b83c 9ebb 0a3d 0df9 99bd 4164 34bd
000003c0: c961 42bc 78a9 acbd 2f3a 69bd 49f7 503d
000003d0: ab0d 2cbd 1744 d3bc 6291 ea3b f212 893c
000003e0: be88 303a d12f 36bb 680f a5bd cdbd bb3d
000003f0: 4aee d8bc faf1 423d e0e9 87bd a0f2 b13d

gru.bias_hh_l0 f4 [300]
-0.0570362 -0.061931066 0.0565996 -0.036740012 -0.019113477 -0.026673162 0.028697377 0.069184884
-0.047629647 0.06082872 0.018225173 0.052357543 -0.095923714 0.08382354 -0.075570464 0.0865722
-0.0736888 0.04029962 0.020680856 0.06199022 0.07059108 -0.060940593 0.06648504 0.01803693
0.048970975 0.050567787 -0.079211056 -0.08674279 -0.034159128 -0.05830346 0.07865347 0.021920297
0.082341716 -0.07451102 -0.02292441 -0.09188949 0.06009458 0.089212045 -0.09197266 -0.07816187
-0.06815706 0.02332626 -0.0452776 0.07199025 0.050471634 0.003087222 0.06323218 0.073034056
-0.07341113 0.0956837 0.069573894 0.074565716 -0.044469386 0.008478892 -0.0045864526 0.050174158
0.06250356 -0.0577423 0.085586846 -0.08730214 0.08397378 -0.035430573 0.009454387 -0.062450055
0.0033514546 0.029175915 -0.040656175 0.017321436 0.09300583 -0.047288906 0.054197803 0.067848675
-0.06407042 0.09326466 0.006317488 -0.016956141 -0.052275866 -0.083317876 0.053130116 -0.019702783
0.037843153 0.033213675 -0.03606965 0.045040447 -0.01944135 -0.08238863 0.0034274757 0.014287741
0.08086101 0.0472821 0.0008428218 -0.08495692 -0.06106578 0.042028494 0.041036133 0.058786523
-0.013818186 0.09894912 -0.0041171657 -0.04979921 -0.071991034 0.071106076 -0.011810665 -0.074514955
-0.013108559 -0.059574794 -0.010033278 -0.037163988 0.036330733 0.042930085 0.00045380945 -0.006300009
0.034970973 0.052324932 -0.037537426 0.043353334 -0.068196215 -0.016108809 -0.05916243 0.06446798
0.06044424 -0.10145497 -0.012186198 -0.07673173 -0.07534717 -0.018077588 -0.09631968 0.027309293
0.049487464 -0.048304964 -0.056593172 -0.081260234 0.06532879 -0.052573744 -0.022707714 -0.064090975
-0.051866863 0.04490696 -0.035414275 0.087742895 0.06381886 -0.061863653 -0.011253269 -0.034726344
0.032411065 0.04068684 0.08687003 0.026276516 0.098101236 0.049072392 -0.026222037 -0.03559423
-0.09077174 0.0950225 0.027054358 0.00055344874 0.027477182 0.0039653555 -0.03957187 -0.039456595
0.024760798 0.03916923 0.07083082 0.004745416 -0.0664772 -0.020962382 0.03895366 0.023832712
-0.077999525 -0.10150377 -0.02225688 0.025076402 -0.083073504 -0.05771252 -0.027156768 -0.056630056
-0.032433037 -0.03148915 -0.011909352 -0.024568615 -0.03725017 -0.0365341 -0.0075839544 -0.03422428
-0.06358287 0.043606773 -0.0806732 0.022273667 -0.023673251 -0.056435462 -0.07171252 -0.008697412
0.086070165 -0.039524928 -0.09858173 0.0105640255 0.061022885 0.08591838 0.051186584 -0.042906955
0.08601763 0.00041082315 -0.07249957 0.007074629 0.09181471 -0.085556634 0.028831212 -0.0627292
0.036219906 0.037589204 -0.07613551 -0.044941794 0.04077449 -0.09509276 0.00085756776 0.006392728
-0.016164942 -0.05863566 0.055294406 0.089068405 -0.046669334 -0.009153989 -0.00054690085 0.028869895
0.10268322 -0.014505307 -0.02094581 0.034983803 -0.09337792 -0.01569516 -0.059365433 0.06840979
0.05277598 -0.038330786 -0.0056750644 -0.0801523 -0.0034773583 0.01289114 -0.070335075 0.09222786
0.09951083 -0.09827834 -0.077525035 -0.08892506 -0.049546145 -0.0396438 -0.005381664 -0.06409321
-0.021620674 0.08621753 -0.0745395 -0.07288304 0.09134119 -0.00891063 0.09270645 -0.026821872
00000000: ca9e 69bd 6eab 7dbd fbd4 673d b27c 16bd
00000010: de93 9cbc ad81 dabc c316 eb3c ceb0 8d3d
00000020: 4e17 43bd 8927 793d f54c 953c dd74 563d
00000030: a773 c4bd adab ab3d b0c4 9abd c44c b13d
00000040: 27ea 96bd 3711 253d e66a a93c 75e9 7d3d
00000050: 0e92 903d d89c 79bd 4f29 883d 2fc2 933c
00000060: ca95 483d 2b20 4f3d 6839 a2bd 34a6 b1bd
00000070: 71ea 0bbd 9ccf 6ebd 1215 a13d 3292 b33c
00000080: c6a2 a83d 3c99 98bd f9cb bbbc 8f30 bcbd
00000090: bc25 763d ceb4 b63d 295c bcbd 5513 a0bd
000000a0: ee95 8bbd b616 bf3c 0175 39bd a06f 933d
000000b0: 58bb 4e3d fe52 4a3b e07f 813d e192 953d
000000c0: 9358 96bd d1f5 c33d c27c 8e3d e9b5 983d
000000d0: 8825 36bd 0deb 0a3c f449 96bb 6b83 4d3d
000000e0: de01 803d 3183 6cbd 2848 af3d 77cb b2bd
000000f0: 72fa ab3d a61f 11bd 93e6 1a3c a1cb 7fbd
00000100: 14a4 5b3b 5402 ef3c 1787 26bd afe5 8d3c
00000110: d779 be3d 03b2 41bd 84fe 5d3d 3ff4 8a3d
00000120: 5a37 83bd 8b01 bf3d ee02 cf3b 9be7 8abc
00000130: 381f 56bd 90a2 aabd f79e 593d bb67 a1bc
00000140: 6c01 1b3d 100b 083d c5bd 13bd 557c 383d
00000150: 7743 9fbc 5fbb a8bd 809f 603b 2117 6a3c
00000160: 759a a53d e0aa 413d d0f0 5c3a e5fd adbd
00000170: 1d20 7abd 1226 2c3d 8115 283d 23ca 703d
00000180: ac65 62bc d6a5 ca3d 4ae9 86bb 42fa 4bbd
00000190: 0970 93bd 10a0 913d 8581 41bc 4c9b 98bd
000001a0: 48c5 56bc b304 74bd 9e62 24bc 4439 18bd
000001b0: 89cf 143d 75d7 2f3d 46ed ed39 4e70 cebb
000001c0: b93d 0f3d ab52 563d d8c0 19bd 4493 313d
000001d0: 75aa 8bbd 9ff6 83bc 4e54 72bd ca07 843d
000001e0: 6194 773d a0c7 cfbd 9ea8 47bc 8625 9dbd
000001f0: 9e4f 9abd 7317 94bc 4143 c5bd bdb7 df3c
00000200: 5eb3 4a3d 6ddb 45bd 3ece 67bd c46b a6bd
00000210: 1acb 853d 9157 57bd 8705 babc 2142 83bd
00000220: 5972 54bd 5cf0 373d 8f0e 11bd 8cb2 b33d
00000230: 76b3 823d be64 7dbd a25f 38bc 363d 0ebd
00000240: 77c1 043d 3ea7 263d eae8 b13d d941 d73c
00000250: 4de9 c83d 2200 493d 99cf d6bc 41cb 11bd
00000260: 89e6 b9bd 289b c23d 1aa1 dd3c 5115 113a
00000270: d417 e13c d0ef 813b 1d16 22bd 3d9d 21bd
00000280: 28d7 ca3c ea6f 203d c00f 913d 6f7f 9b3b
00000290: 3325 88bd 4db9 abbc df8d 1f3d d23c c33c
000002a0: 37be 9fbd 35e1 cfbd 0f54 b6bc 076d cd3c
000002b0: 7122 aabd f763 6cbd df77 debc ebf4 67bd
000002c0: 81d8 04bd c4fa 00bd 711f 43bc 1f44 c9bc
000002d0: a293 18bd c8a4 15bd d282 f8bb c22e 0cbd
000002e0: bc37 82bd 049d 323d fe37 a5bd 4477 b63c
000002f0: 68ee c1bc df28 67bd 04de 92bd 977f 0ebc
00000300: 8e45 b03d e4e4 21bd 38e5 c9bd bc14 2d3c
00000310: 22f3 793d faf5 af3d 06a9 513d 34bf 2fbd
00000320: 032a b03d c063 d739 a87a 94bd 4ad2 e73b
00000330: 5a09 bc3d 5138 afbd 6f2f ec3c 2b78 80bd
00000340: 535b 143d 23f7 193d efec 9bbd e314 38bd
00000350: 2703 273d febf c2bd 66ce 603a 177a d13b
00000360: 576c 84bc f22b 70bd 637c 623d 7f69 b63d
00000370: 5828 3fbd 9dfa 15bc e55d 0fba 8f80 ec3c
00000380: 944b d23d aba7 6dbc 8c96 abbc 2d4b 0f3d
00000390: ec3c bfbd 2393 80bc 2b29 73bd 6f1a 8c3d
000003a0: a02b 583d be00 1dbd e4f5 b9bb e426 a4bd
000003b0: 64e4 63bb 5c35 533c d60b 90bd f6e1 bc3d
000003c0: 56cc cb3d 2846 c9bd 72c5 9ebd 581e b6bd
000003d0: e6f0 4abd 8a61 22bd ab58 b0bb 4d43 83bd
000003e0: d71d b1bc d192 b03d 2aa8 98bd b443 95bd
000003f0: 1711 bb3d e4fd 11bc e1dc bd3d 8bb9 dbbc

gru.weight_ih_l1 f4 [300, 100]
0.04231764 0.05264711 -0.025705239 0.07547301 0.029030683 -0.02774045 0.074092165 -0.067237854
0.0018430663 -0.09470648 -0.034635227 -0.07410447 0.036765244 0.045743607 0.09681493 -0.07925945
-0.0045212815 0.069696985 -0.021675868 0.06493184 0.02460782 0.07223679 -0.079031914 0.017010015
-0.044793688 0.05722735 -0.036942776 -0.02660877 0.09729972 -0.08362732 -0.048374403 0.07638264
0.025953315 0.048712283 0.07776327 -0.03834845 0.08342629 0.012890671 -0.034787424 -0.010253541
-0.008842167 -0.0056132446 -0.047840048 -0.017363736 -0.0146894 0.042367563 0.08639761 0.06184969
0.065250196 0.08889604 0.06636741 -0.043911614 -0.001025995 0.08900692 0.03102489 0.044843085
-0.089100465 -0.079414025 0.08800209 0.075831674 -0.0521473 0.0086960755 -0.019897167 -0.069784604
-0.03168774 0.016621657 0.055817932 -0.042918578 -0.07996007 0.0104328515 0.05893244 0.08014848
0.032938343 0.029291017 0.056741174 -0.07650912 0.09648759 -0.07315009 -0.0887747 0.097006015
-0.058228195 0.0667508 0.025742767 0.07113669 0.05436024 -0.052307814 -0.073023885 -0.05546376
0.059345175 -0.054173402 -0.090932734 0.05280619 -0.06756862 -0.08183338 0.07118422 0.06649308
0.03496225 0.037977193 0.08277467 -0.029795848 -0.030264245 0.033041555 0.011176706 0.08153843
-0.06765804 0.0056712064 0.09365321 -0.06801724 0.09752231 -0.07334797 -0.00051290926 -0.05867172
0.060045168 0.07286017 -0.026572322 -0.037060462 -0.0025072868 -0.030011348 -0.097332865 -0.0027280983
-0.016695816 0.009703827 0.022936229 0.0017720781 0.09510548 0.049576845 -0.06669228 0.043341193
0.035321917 0.049689453 -0.0997118 -0.004411073 0.0014196574 0.0009380214 -0.077084005 -0.0037326629
0.09882695 0.019208742 -0.0625695 0.05029142 -0.07197815 0.046264693 0.017472627 -0.03209568
-0.08544264 0.09572 0.019714262 0.012239635 0.036992792 0.022675155 0.08590268 -0.088546425
0.019669842 -0.020734468 0.08891918 -0.016615834 -0.003248215 -0.06640131 -0.06725167 0.0071475357
-0.04171375 -0.01508734 -0.05702771 -0.091977514 -0.003785012 0.01491895 0.023010703 -0.012789772
0.09113719 -0.0700402 -0.022328306 0.03666327 -0.08215303 -0.0824165 0.058314547 -0.0485809
0.011534617 -0.09139782 -0.09263182 -0.090992525 -0.044566497 -0.026929751 -0.02458328 -0.07347104
-0.030294877 0.001466402 -0.008540924 -0.06637982 0.03199742 -0.017946677 -0.094118014 -0.023700802
-0.03849003 0.08622518 -0.0744558 -0.024882745 0.087521605 -0.064227685 -0.09934742 0.008450067
-0.004103552 -0.053069696 -0.025159089 -0.0930665 -0.029542873 -0.099543415 0.019633679 -0.079924636
-0.09333221 0.0141442865 -0.08124306 -0.08730559 -0.034562267 0.019668289 0.013437585 0.03410483
0.052374512 -0.067829214 0.028366517 0.06302893 -0.036476124 0.0094580045 0.09421594 0.045620404
0.077707 0.090154 -0.046192393 0.030855227 -0.015624381 0.035078585 0.004224554 -0.056188513
-0.05051067 0.04724363 -0.06763353 0.09557066 -0.005813986 -0.053441387 0.07122226 -0.038516268
0.0010188436 -0.08964349 0.057691336 0.023003314 -0.0013849945 0.057811845 0.078189805 -0.024573995
0.03242186 0.053088304 0.046840355 0.004649714 -0.03868587 0.051897794 -0.04315085 0.075641714
00000000: 4355 2d3d 7fa4 573d cb93 d2bc 9891 9a3d
00000010: c1d1 ed3c f13f e3bc a2bd 973d 00b4 89bd
00000020: 0b93 f13a 79f5 c1bd abdd 0dbd 16c4 97bd
00000030: 2797 163d a65d 3b3d e846 c63d c752 a2bd
00000040: 4227 94bb 4bbd 8e3d 9791 b1bc fcfa 843d
00000050: 5796 c93c e2f0 933d 7cdb a1bd 9658 8b3c
00000060: 9679 37bd 3a67 6a3d 4f51 17bd a3fa d9bc
00000070: 1345 c73d cd44 abbd 3d24 46bd 806e 9c3d
00000080: 0c9c d43c 8886 473d 5942 9f3d 4413 1dbd
00000090: 67db aa3d 6533 533c 427d 0ebd 78fe 27bc
000000a0: bdde 10bc 4fef b7bb edf3 43bd 653e 8ebc
000000b0: cfab 70bc 9c89 2d3d 3bf1 b03d 1a56 7d3d
000000c0: e5a1 853d 210f b63d a3eb 873d aadc 33bd
000000d0: ae7a 86ba 4349 b63d e927 fe3c 62ad 373d
000000e0: 4e7a b6bd d2a3 a2bd 713a b43d a34d 9b3d
000000f0: 6898 55bd fc79 0e3c 62ff a2bc 3beb 8ebd
00000100: 01cb 01bd 242a 883c 58a1 643d 64cb 2fbd
00000110: 1bc2 a3bd 8dee 2a3c 2463 713d e324 a43d
00000120: 5bea 063d b7f3 ef3c 6f69 683d d0b0 9cbd
00000130: 499b c53d b7cf 95bd 83cf b5bd 17ab c63d
00000140: b080 6ebd a5b4 883d 7fe2 d23c 1db0 913d
00000150: d8a8 5e3d b840 56bd 8c8d 95bd f82d 63bd
00000160: ed13 733d eee4 5dbd f13a babd 4e4b 583d
00000170: 6b61 8abd 4298 a7bd 08c9 913d 862d 883d
00000180: 9434 0f3d f98d 1b3d c485 a93d 6c16 f4bc
00000190: b9ec f7bc 9556 073d 811e 373c 9ffd a63d
000001a0: 4c90 8abd 87d5 b93b 41cd bf3d 9f4c 8bbd
000001b0: c7b9 c73d 7637 96bd c274 06ba c251 70bd
000001c0: ecf1 753d b637 953d 33ae d9bc b6cc 17bd
000001d0: 4b51 24bb 5cda f5bc 7456 c7bd e5c9 32bb
000001e0: aac5 88bc cdfc 1e3c c2e4 bb3c 1345 e83a
000001f0: a9c6 c23d 1711 4b3d f695 88bd 8986 313d
00000200: b7ad 103d 2b87 4b3d b335 ccbd c38a 90bb
00000210: cc13 ba3a 8de5 753a 38de 9dbd b19f 74bb
00000220: c965 ca3d a75b 9d3c 7024 80bd 60fe 4d3d
00000230: 4869 93bd 0c80 3d3d c122 8f3c c276 03bd
00000240: 8dfc aebd d908 c43d ce7f a13c c088 483c
00000250: c185 173d 3fc1 b93c bfed af3d d457 b5bd
00000260: a622 a13c 55db a9bc 421b b63d ee1d 88bc
00000270: 01e0 54bb 69fd 87bd 3ebb 89bd e035 ea3b
00000280: 0adc 2abd e430 77bc e395 69bd b55e bcbd
00000290: f70d 78bb 9d6e 743c f180 bc3c 318c 51bc
000002a0: 23a6 ba3d 3d71 8fbd dae9 b6bc 3a2c 163d
000002b0: d93f a8bd fbc9 a8bd 3cdb 6e3d c4fc 46bd
000002c0: b1fb 3c3c c82e bbbd c0b5 bdbd 4a5a babd
000002d0: 5c8b 36bd c89b dcbc e062 c9bc fc77 96bd
000002e0: f62c f8bc 4934 c03a 3bef 0bbc 25f2 87bd
000002f0: ba0f 033d e904 93bc f2c0 c0bd 2f28 c2bc
00000300: b9a7 1dbd d496 b03d 487c 98bd e6d6 cbbc
00000310: 873e b33d ce89 83bd a976 cbbd 2672 0a3c
00000320: 1777 86bb 9c5f 59bd 6f1a cebc a699 bebd
00000330: e503 f2bc 6bdd cbbd cfd6 a03c 87af a3bd
00000340: f524 bfbd 70bd 673c c362 a6bd 46cd b2bd
00000350: 2a91 0dbd 641f a13c 5129 5c3c 82b1 0b3d
00000360: a886 563d 0bea 8abd e660 e83c 5015 813d
00000370: fd67 15bd bff5 1a3c 49f4 c03d 76dc 3a3d
00000380: d924 9f3d a9a2 b83d 3c34 3dbd 1ac4 fc3c
00000390: 67fd 7fbc 90ae 0f3d 216e 8a3b ed25 66bd
000003a0: 47e4 4ebd 8982 413d 7383 8abd 8dba c33d
000003b0: 4083 bebb 5be5 5abd fadc 913d 3cc3 1dbd
000003c0: b88a 853a 0297 b7bd c04d 6c3d 7271 bc3c
000003d0: b488 b5ba 1dcc 6c3d fa21 a03d 674f c9bc
000003e0: c9cc 043d 1f73 593d acdb 3f3d a15c 983b
000003f0: 1375 1ebd c892 543d f2be 30bd 0bea 9a3d

gru.weight_hh_l1 f4 [300, 100]
-0.08701643 0.09103298 -0.06136783 0.062278572 -0.06550303 -0.0044493387 -0.07022076 0.040864743
0.09470096 0.03153043 0.06408339 0.009249423 0.088464975 -0.03125657 -0.012295798 0.08187638
-0.05682846 0.0061238897 0.0059611076 -0.026459668 0.08414998 0.04516474 -0.06946319 -0.09413264
-0.0602401 -0.07736166 0.025729308 0.0116652725 0.089597985 -0.075245805 0.013138085 -0.0963205
-0.035018336 -0.079616986 0.05399981 0.013040998 0.023032775 0.05074036 0.0565021 -0.025761852
0.06306585 -0.012777774 -0.053155158 -0.05884482 -0.092679694 0.07029917 0.09350807 0.05782664
-0.07274688 0.08187705 -0.031362116 -0.0732072 -0.016379304 -0.0027425138 -0.046900276 -0.07205305
-0.07891686 0.046989672 -0.029233944 0.0050769825 0.057070952 -0.013514886 -0.08703539 0.06567898
-0.025061492 -0.038009997 0.05575482 -0.0007653688 0.03484576 0.092351094 0.06492712 0.044940967
-0.050344743 -0.012834606 0.08027106 0.09850473 0.015828695 -0.08237088 0.00317033 0.09415707
0.002225493 0.04936732 -0.03118211 -0.016069256 0.06316212 0.078098506 -0.06251628 -0.075608246
0.04167307 -0.065834366 0.06584821 -0.013817017 0.0050630276 -0.0460794 -0.031627476 0.0757929
0.005971803 0.009546162 -0.051486578 -0.012725607 -0.05676896 0.006818819 -0.052599408 0.06007427
-0.057663225 -0.0241972 0.09790198 0.057872728 -0.076038845 0.06507493 0.013070509 0.057408385
-0.07384614 -0.0048550097 -0.07540855 -0.038760632 -0.04601965 0.04136309 0.063896395 -0.012004974
0.08602267 -0.023903945 -0.04088595 0.051970247 0.018616067 -0.049567517 -0.069748715 -0.0139132235
0.0053158198 -0.020481085 -0.074465096 -0.07577912 0.018753998 0.09658467 -0.074782304 0.09241647
0.069544114 -0.025982067 -0.07484694 0.07952981 -0.08809482 0.012965212 -0.07740567 0.09335586
-0.09157005 0.067580186 0.038471464 0.05547963 -0.035559967 0.044112515 0.026251294 -0.048758242
0.048423022 0.07621678 0.0017314857 -0.0858529 0.078791894 -0.035641152 0.058425494 -0.034052316
-0.050184865 -0.052887067 0.08836428 0.089048244 -0.06530092 0.098376185 -0.059571527 0.09832964
-0.07149176 -0.05818398 -0.037540678 -0.042828627 -0.06678649 0.08913256 0.04786695 -0.042769738
-0.045985315 0.05029192 0.012947784 0.068663865 -0.010397142 -0.05691166 0.09715498 -0.025900502
0.05258039 0.046220485 0.011438467 0.0150613515 -0.012116697 -0.0837382 0.035195377 0.08020086
-0.080494985 -0.05932659 -0.010543446 0.07673508 0.06437791 -0.07061707 -0.0023229078 0.0073882537
0.054146603 0.05997557 0.049006846 -0.03924424 0.08582564 0.09092012 -0.08801322 -0.011366514
0.056695316 0.023397295 -0.043846615 0.087538466 -0.052285157 0.02945713 0.09462292 -0.080656216
0.09750946 0.05206346 0.04245523 0.08577403 -0.06282837 -0.05701252 -0.09256473 -0.07803728
-0.06974413 0.006069318 -0.08231944 -0.072486706 0.072909065 0.08790519 0.01307419 -0.07869076
0.053505827 -0.083804436 0.0818727 -0.054591723 0.040650155 0.043648835 0.09704359 0.06831341
-0.0705026 0.007068919 -0.012086494 -0.04380343 -0.06983045 0.04531373 -0.06762592 -0.098539665
0.08234335 -0.07173933 -0.006652977 0.02722501 -0.0020205756 0.00948075 0.0009599754 -0.036587123
00000000: ac35 b2bd 806f ba3d d55c 7bbd d117 7f3d
00000010: 7426 86bd c2cb 91bb e7cf 8fbd ca61 273d
00000020: 94f2 c13d 0d26 013d 273e 833d e48a 173c
00000030: 202d b53d e406 00bd 5174 49bc ceae a73d
00000040: f6c4 68bd e9aa c83b 6555 c33b f2c1 d8bc
00000050: d356 ac3d aafe 383d b842 8ebd 9dc8 c0bd
00000060: 53be 76bd ca6f 9ebd 45c6 d23c b31f 3f3c
00000070: 267f b73d 791a 9abd 1f41 573c af43 c5bd
00000080: 636f 0fbd 3b0e a3bd e82e 5d3d e9a9 553c
00000090: 3baf bc3c 20d5 4f3d bf6e 673d 850a d3bc
000000a0: ab28 813d de59 51bc 39b9 59bd 4407 71bd
000000b0: dace bdbd 03f9 8f3d 2981 bf3d a0db 6c3d
000000c0: 51fc 94bd 28af a73d 9075 00bd a8ed 95bd
000000d0: e42d 86bc bfbb 33bb 811a 40bd 8d90 93bd
000000e0: 2a9f a1bd 3e78 403d 067c efbc d15c a63b
000000f0: 3bc3 693d 8a6d 5dbc 9c3f b2bd b382 863d
00000100: c24d cdbc 5fb0 1bbd 2b5f 643d 08a3 48ba
00000110: 6dba 0e3d 9222 bd3d 83f8 843d 0514 383d
00000120: 4a36 4ebd 3d48 52bc 2765 a43d d9bc c93d
00000130: 2eab 813c 10b2 a8bd 50c5 4f3b 6cd5 c03d
00000140: 94d9 113b 6335 4a3d a071 ffbc aca3 83bc
00000150: 245b 813d 1cf2 9f3d 8908 80bd 7fd8 9abd
00000160: 62b1 2a3d 2bd4 86bd 6ddb 863d c560 62bc
00000170: c1e7 a53b c1bd 3cbd d08b 01bd 4f39 9b3d
00000180: 1daf c33b 8167 1c3c 97e3 52bd 107f 50bc
00000190: 9286 68bd 6670 df3b 7a72 57bd 7010 763d
000001a0: 4630 6cbd 3539 c6bc d580 c83d f40b 6d3d
000001b0: 41ba 9bbd 0146 853d b025 563c 0e25 6b3d
000001c0: a53c 97bd c616 9fbb cc6f 9abd 78c3 1ebd
000001d0: 1a7f 3cbd 586c 293d 1ddc 823d 83b0 44bc
000001e0: a72c b03d 35d2 c3bc 0778 27bd c1de 543d
000001f0: b980 983c 4f07 4bbd 6ad8 8ebd 4af4 63bc
00000200: 5430 ae3b f3c7 a7bc 2881 98bd 1532 9bbd
00000210: fca1 993c 2fce c53d 7727 99bd d944 bd3d
00000220: 256d 8e3d 58d8 d4bc 5a49 99bd 86e0 a23d
00000230: 0f6b b4bd 0a6c 543c dd86 9ebd 5b31 bf3d
00000240: 1489 bbbd 7b67 8a3d 4194 1d3d 9c3e 633d
00000250: 54a7 11bd 53af 343d f40c d73c b9b6 47bd
00000260: 3857 463d 8b17 9c3d 05f3 e23a a5d3 afbd
00000270: a55d a13d 75fc 11bd 924f 6f3d 717a 0bbd
00000280: a58e 4dbd 1ca0 58bd 55f8 b43d ed5e b63d
00000290: 7dbc 85bd 7479 c93d 4601 74bd 0d61 c93d
000002a0: 466a 92bd 5352 6ebd 41c4 19bd 126d 2fbd
000002b0: 5bc7 88bd 228b b63d 2310 443d 522f 2fbd
000002c0: 195b 3cbd e6fe 4d3d f122 543c a49f 8c3d
000002d0: c658 2abc 331c 69bd 31f9 c63d 4a2d d4bc
000002e0: 895e 573d b151 3d3d 6868 3b3c e3c3 763c
000002f0: 1c85 46bc ef7e abbd 0729 103d 5940 a43d
00000300: 8eda a4bd 7000 73bd 6bbe 2cbc 4827 9d3d
00000310: 91d8 833d af9f 90bd ed3b 18bb 2a19 f23b
00000320: d4c8 5d3d f1a8 753d 67bb 483d 91be 20bd
00000330: 5ac5 af3d 5434 ba3d 4640 b4bd 9d3a 3abc
00000340: 5939 683d afab bf3c 8298 33bd 5e47 b33d
00000350: f628 56bd 1450 f13c a9c9 c13d 162f a5bd
00000360: 0ab3 c73d 7f40 553d 89e5 2d3d 4baa af3d
00000370: 29ac 80bd f685 69bd 9492 bdbd 02d2 9fbd
00000380: 03d6 8ebd 21e1 c63b 1897 a8bd e973 94bd
00000390: 5951 953d a307 b43d 2135 563c 9f28 a1bd
000003a0: ed28 5b3d a9a1 abbd e0ac a73d 929b 5fbd
000003b0: c780 263d 1fc9 323d cabe c63d e7e7 8b3d
000003c0: ab63 90bd 64a2 e73b 6e06 46bc 3a6b 33bd
000003d0: 4403 8fbd e49a 393d 757f 8abd 2acf c9bd
000003e0: a1a3 a83d 12ec 92bd 3701 dabb fc06 df3c
000003f0: a26b 04bb 2655 1b3c dca6 7b3a 61dc 15bd

gru.bias_ih_l1 f4 [300]
-0.090836816 -0.085125946 -0.065313116 0.04903982 -0.091218546 0.09308663 -0.019010132 -0.020820584
0.016827354 -0.099539846 -0.097685866 0.039675284 0.07924009 0.0696028 0.012393218 -0.06901338
0.03551857 -0.030809462 0.031830218 -0.031491045 -0.019189918 -0.09597729 0.05607291 0.086002715
0.10009206 -0.08215733 0.00786463 0.018166775 0.09610749 0.019857287 0.031704064 0.018109575
-0.09373226 0.018646333 0.02582233 -0.06453494 0.084606074 0.04121348 0.009433715 0.098545656
0.08569114 -0.0393643 0.07804942 -0.036806643 -0.034173552 0.0023575465 0.025329497 -0.021088274
0.03886496 -0.06798164 -0.056790095 0.049408097 -0.025611965 0.013776216 0.061080683 -0.080480725
-0.039322503 -0.024135469 0.044881947 -0.09673016 0.026670821 0.0024030486 0.06060385 -0.03176269
0.03768907 -0.037530724 -0.054026954 0.024890294 -0.045909572 -0.08793039 -0.060617764 -0.06626413
-0.06367894 -0.014187154 -0.04952855 0.064512834 0.029183589 0.08687174 0.0052429335 -0.07458966
0.06444422 0.016021619 0.068692744 -0.009418786 0.0992577 0.09025999 -0.030503904 -0.0917231
-0.089129955 0.026256762 0.058788016 0.045297094 -0.042368025 -0.09172825 -0.044445816 0.07384239
0.02710693 0.025347965 -0.08718526 -0.09232667 -0.059111867 -0.011826244 0.005223374 0.07592427
0.033514127 0.079690054 -0.08166095 -0.07276647 -0.0753287 -0.057445858 -0.0023097657 -0.037496183
-0.073832005 -0.031126088 -0.0059155584 0.07199372 -0.010138534 -0.022484154 -0.10044409 -0.026067214
-0.096641436 -0.06931046 -0.0070654727 -0.042775206 0.09675837 -0.028067488 -0.01765954 -0.061355975
-0.014332805 -0.0006733979 0.09633522 0.044443365 0.025316937 0.06699527 0.069505155 -0.000875274
0.041813403 -0.065989494 -0.069541074 0.024517156 -0.013400403 -0.05202324 -0.04773538 0.043974034
0.030975224 0.044427462 -0.025978016 0.02268827 -0.014812484 0.071265884 0.02278506 0.07251525
0.0920467 -0.076139905 0.005593752 -0.09181974 -0.024552433 0.017487086 -0.098348565 0.004380963
-0.08757464 0.08298356 0.08022688 -0.090156026 0.07093724 -0.09248939 -0.06391486 -0.08597205
0.028171077 0.029361153 0.004592309 0.0893941 0.06003995 -0.10254607 -0.08503758 -0.07419456
0.05218093 -0.054354407 0.04971149 0.035420798 -0.06417933 0.029361254 -0.09512832 0.037452232
0.094814345 0.082519285 0.029905064 0.042791393 0.059510756 0.073069766 -0.037463404 -0.02124831
-0.05650334 0.01431703 -0.07942381 0.069274664 0.041317116 0.08108307 0.059646133 -0.074872695
0.026812073 0.01174641 -0.08448069 0.008021802 -0.09048592 0.088704675 0.06552952 -0.010294868
-0.022035925 0.040738333 -0.06142255 -0.09078528 0.07879041 0.0057766745 -0.0047335275 0.051167984
-0.011239327 0.04131015 -0.08158638 -0.09143307 0.070133865 -0.085291065 -0.049433123 0.07184847
0.008206076 0.04567241 -0.056345798 0.0871899 -0.031796604 0.06469825 0.042128377 -0.074069574
-0.08899656 0.010729045 0.07073779 0.021664435 0.012171589 0.02590623 -0.06076691 -0.016801154
-0.023367075 -0.08330073 0.04650483 -6.314542e-05 -0.09929186 -0.06288248 0.03422686 -0.051517643
-0.012372671 -0.04864763 0.045987606 0.007657949 -0.025202708 -0.0619875 -0.096432045 -0.018997159
00000000: a708 babd 8356 aebd e2c2 85bd fadd 483d
00000010: cad0 babd 34a4 be3d 23bb 9bbc ee8f aabc
00000020: 85d9 893c 8cdb cbbd 870f c8bd 8d82 223d
00000030: a148 a23d ea8b 8e3d ed0c 4b3c e356 8dbd
00000040: ec7b 113d 2064 fcbc 6760 023d c1fc 00bd
00000050: 2d34 9dbc be8f c4bd b5ac 653d 3122 b03d
00000060: 11fd cc3d 1a42 a8bd a6da 003c 7dd2 943c
00000070: 01d4 c43d c0ab a23c 1fdc 013d 885a 943c
00000080: b3f6 bfbd 32c0 983c 5a89 d33c e52a 84bd
00000090: f345 ad3d 77cf 283d de8f 1a3c 4ed2 c93d
000000a0: d67e af3d 763c 21bd 60d8 9f3d 90c2 16bd
000000b0: 91f9 0bbd 1181 1a3b ce7f cf3c 51c1 acbc
000000c0: dd30 1f3d f539 8bbd bb9c 68bd 2560 4a3d
000000d0: 2fd0 d1bc a3b5 613c bd2f 7a3d 14d3 a4bd
000000e0: a210 21bd bfb7 c5bc 22d6 373d 761a c6bd
000000f0: c47c da3c 777c 1d3b be3b 783d 9819 02bd
00000100: db5f 1a3d d1b9 19bd 5e4b 5dbd bbe6 cb3c
00000110: ad0b 3cbd d914 b4bd 554a 78bd 7db5 87bd
00000120: 1b6a 82bd 3d71 68bc 73de 4abd 4e1f 843d
00000130: 6c12 ef3c d0e9 b13d eacc ab3b 77c2 98bd
00000140: 55fb 833d c53f 833c c8ae 8c3d 4051 1abc
00000150: 9f47 cb3d 3bda b83d 53e3 f9bc 52d9 bbbd
00000160: c489 b6bd 6c18 d73c b4cb 703d 7289 393d
00000170: 188a 2dbd 05dc bbbd d10c 36bd ae3a 973d
00000180: 5a0f de3c 89a6 cf3c 308e b2bd c415 bdbd
00000190: 491f 72bd ddc2 41bc d628 ab3b 2f7e 9b3d
000001a0: 1c46 093d 8a34 a33d db3d a7bd 9606 95bd
000001b0: ef45 9abd 594c 6bbd 705f 17bb 9995 19bd
000001c0: 3c35 97bd 23fc febc 4dd7 c1bb 7271 933d
000001d0: 181c 26bc b030 b8bc a2b5 cdbd e98a d5bc
000001e0: f2eb c5bd a4f2 8dbd 7b85 e7bb 0e35 2fbd
000001f0: 4129 c63d caed e5bc bdaa 90bc 6750 7bbd
00000200: 24d4 6abc f886 30ba 664b c53d 3f0a 363d
00000210: 7765 cf3c d134 893d b858 8e3d a572 65ba
00000220: 8844 2b3d 8025 87bd 8d6b 8ebd 34d8 c83c
00000230: 5d8d 5bbc 5216 55bd 2c86 43bd 1e1e 343d
00000240: c1bf fd3c 92f9 353d d9cf d4bc c0dc b93c
00000250: 10b0 72bc d9f3 913d bca7 ba3c e082 943d
00000260: fb82 bc3d 3def 9bbd cb4b b73b fd0b bcbd
00000270: 2f22 c9bc 1441 8f3c f96a c9bd 2e8e 8f3b
00000280: 555a b3bd 49f3 a93d fe4d a43d b9a3 b8bd
00000290: 8b47 913d 146b bdbd cbe5 82bd 1d12 b0bd
000002a0: 08c7 e63c cd86 f03c 147b 963b 4114 b73d
000002b0: 73ec 753d ad03 d2bd 2f28 aebd 51f3 97bd
000002c0: acbb 553d baa2 5ebd 469e 4b3d 6615 113d
000002d0: 7470 83bd 0387 f03c a3d2 c2bd 8367 193d
000002e0: 062e c23d dfff a83d 77fb f43c 0746 2f3d
000002f0: 8dc1 733d 9aa5 953d 3a73 19bd f010 aebc
00000300: 0c70 67bd fa91 6a3c f3a8 a2bd e0df 8d3d
00000310: 233c 293d e10e a63d 814f 743d db56 99bd
00000320: fea4 db3c 0474 403c 3604 adbd e06d 033c
00000330: af50 b9bd ccaa b53d 5734 863d ceab 28bc
00000340: af84 b4bc 3ddd 263d 3696 7bbd a2ed b9bd
00000350: de5c a13d 424a bd3b b51b 9bbb 8595 513d
00000360: 2725 38bc d534 293d c316 a7bd 4341 bbbd
00000370: 58a2 8f3d 15ad aebd 637a 4abd 4a25 933d
00000380: c772 063c fe12 3b3d daca 66bd 9e90 b23d
00000390: 283d 02bd 8480 843d ce8e 2c3d cab1 97bd
000003a0: d443 b6bd e0c8 2f3c f9de 903d 9d79 b13c
000003b0: 586b 473c 4d39 d43c b9e6 78bd 93a2 89bc
000003c0: 4f6c bfbc 9399 aabd d97b 3e3d f06c 84b8
000003d0: 8859 cbbd 88c8 80bd 7731 0c3d 2a04 53bd
000003e0: beb6 4abc bd42 47bd 805d 3c3d 88ef fa3b
000003f0: e975 cebc 9be6 7dbd 2a7e c5bd ee9f 9bbc
