KGs/semantic_bible/model weights/LSTM_{_n_layers_ 2, _n_hidden_ 100, _input_size_ 40, _out_size_ 8}_.pt (torch, 577185 bytes, 16 tensors)

lstm.weight_ih_l0 f4 [400, 40]
00000000: bffb 75bd a6fd 053d 818a 003d 05b1 80bd
00000010: ed69 1bbc 3d65 84bc dcbc c1ba 9b9e 593d
00000020: bcb1 75bd e67b e8bc 624d 26bd 2e76 2c3d
00000030: ac18 733c 9a3b c63c 0ae2 90bd dd13 aabd
00000040: 5b19 a43d 47b0 4b3d ad5d 273d 21bc e73c
00000050: c7fb d93c 8f9d bd3c c4d4 a53b ebb4 40bd
00000060: 9bb4 ae3c 632b edbc 8742 d2bc 8c15 23bd
00000070: bddb 72bd acdc c53d 995d 4ebd 5dc2 4ebc
00000080: 557c 3bbb c304 12bc 1dfb 8ebd a6bc c9bd
00000090: 2071 013d 4d9b 69bc 4997 c6bc 458b 6bbd
000000a0: 4d5c 383d 0e78 d4bc 52e4 aebd ef80 a5bd
000000b0: 023e c1bd c25c b53d 549a 243d 2238 5dbd
000000c0: 615e 533d 258b 0fbd f092 c73d 60c6 533c
000000d0: 4a65 53bd dd93 97bd b838 bfbd 78d0 b8bd
000000e0: e09e 833c d8f1 4c3c 749d 003c ace0 7239
000000f0: 18c0 c8bd f37c 16bc 5ea4 9d3d 9561 07bd
00000100: 362f 99bb f8e9 b63d 89cf 2dbd 72cf aabd
00000110: bd47 943d f853 b4bd 0cbe 973b b0b1 923d
00000120: 055b b63c 8e30 debc fce5 533c 5c52 14bd
00000130: 9a03 71bb b72a 93bd bfce 43bd 6c65 db3c
00000140: 3339 abbc 05e0 b3bc 68ef 573d ac05 933d
00000150: 1f0b 37bc ba96 813d aacb 91bd ee57 673d
00000160: 5878 ee3c 6a48 14ba 6364 be3b 9f5e 013d
00000170: 0bac a63d b101 cabc 4ff8 6abd 79c7 a53d
00000180: 12f6 283d 396e 903d 3321 1d3d b8d5 243d
00000190: 86a4 a73c 049e c13b 8ded 52bd eb7d 6b3d
000001a0: b8ef d53c 80d9 a13d eaf2 29bd 7e83 343d
000001b0: 5487 9cbd 36ee 213d 4f64 c1bd 4bb1 173d
000001c0: a73a 823d 309b 613d 2505 4e3c 095b a3bd
000001d0: 88d4 b03c cd0e 90bd dc7b 5a3d fba1 fb3c
000001e0: 5d61 b5bd 7ef6 6fbd 279e cabd 4495 c8bd
000001f0: b96f 42bc 0991 c43c 9564 7c3d 1893 babc
00000200: b818 8c3c 294b b13d 2f8e c0bd 879a 5dbd
00000210: d459 803d 2f2d 3cbd 1dc7 24bc a212 613c
00000220: e95d b23d 6d5c f7bc e910 5d3d 424c e63c
00000230: f762 203d 32c3 b8bd 2173 9fbd dbd2 53bd
00000240: 1755 85bd 79b2 9c3d 6760 15bd ddd9 9f3d
00000250: f6b1 d73c 32fc 86bb 1483 5f3d a750 7a3c
00000260: 9d48 09bd 382d ca3c 7075 a8bd 3b9d 643d
00000270: 37fb adbc 7b64 863c 9fa6 043d 2acc 13bd
00000280: 6032 d23b 9bce bbbd c9a3 093c 7093 c7bc
00000290: 4522 3fbd c8d7 c33d ce71 153d 1cbe 2a3c
000002a0: b4fa 93bd df95 b43c 7254 123c 709b c3bd
000002b0: 170c 8abd e3f8 773d 64b8 0fbd 15a1 c53d
000002c0: 0482 8f3d de23 f93c dc4c 2c3d de33 63bc
000002d0: 7f3c f63a d037 9e3c f1ca 0c3d 9ae1 843d
000002e0: 54b4 b6bd 5a3a 44bd 2d3e b83d b285 d43b
000002f0: b26e 1abc bf87 833d a894 9a3d 3cd8 883d
00000300: 1168 b4bd 6967 b03d 8372 b53b 5f96 acba
00000310: 5883 423d d5bd 25bd c20c b53d ee0e 60bd
00000320: b784 3c3d d27c c83d 2d20 d93c 737e 4abd
00000330: 4a9d 1dbc 2efc 383d ea63 2d3b f313 183d
00000340: 41a7 0ebd 22e1 813d 3fd1 eb3c 3399 b43d
00000350: 61ed 3a3c da13 9e3b 6329 183c ff96 7f3c
00000360: 8df3 c1bd abbb e53c 9d76 a0bb bf6c 3fbc
00000370: 94c6 a7bd b730 a7bd 649f 0f3c d049 97bd
00000380: 39b9 b5bd a69a bcbd 6e9e 943d 4da5 90bc
00000390: dc35 6c3d d5c5 a7bd a102 b83d 8d64 87bd
000003a0: 0f07 20bc 0dbf 91bd 8260 e63c 884b 083c
000003b0: 3879 b6bd 038c 1c3d 91b7 a6bd 7137 9cbd
000003c0: 5165 873d b5ca c5bd 8284 aa3d 2f28 773d
000003d0: f3a2 c43c e105 80bd 4448 6fbd 66fc 89bd
000003e0: 0c1b 8fbc 7aa7 6e3d ca2d 913d 44a7 893c
000003f0: 1666 a3bc 5fb1 cbbd b57d 5abd c627 56bd
-0.060054537 0.0327126 0.031382088 -0.06283764 -0.009485704 -0.016161555 -0.0014781016 0.053129774
-0.059983954 -0.028379392 -0.04060114 0.042104892 0.014837425 0.024198342 -0.070743635 -0.0830457
0.08012649 0.049728658 0.04086082 0.028287949 0.026609315 0.023146419 0.005060764 -0.047047537
0.021326354 -0.028951352 -0.025666488 -0.03981547 -0.05929159 0.096612304 -0.05038223 -0.012619582
-0.0028608043 -0.008912268 -0.0698149 -0.09850435 0.031602025 -0.014258218 -0.02424206 -0.057505865
0.0450099 -0.025936153 -0.085396424 -0.08081233 -0.09435655 0.08855583 0.04018624 -0.05400861
0.05160368 -0.035044808 0.09744823 0.012925714 -0.05161027 -0.074012496 -0.0933699 -0.09024137
0.016066968 0.012508832 0.00785004 0.00023162615 -0.09802264 -0.009185064 0.07697366 -0.033052046
-0.0046748174 0.08931345 -0.04243425 -0.08340348 0.072402455 -0.08805078 0.0046308096 0.071627975
0.022260198 -0.027122762 0.0129332505 -0.036211357 -0.0036775828 -0.071858816 -0.04780459 0.02678176
-0.020901298 -0.021957407 0.05271855 0.07178816 -0.011172085 0.06327577 -0.07118924 0.05648034
0.029110119 -0.00056565425 0.005810307 0.03158438 0.08138283 -0.02465901 -0.05736571 0.08094687
0.041250296 0.07052273 0.03836174 0.04024288 0.020464193 0.0059087295 -0.051496077 0.05749313
0.026115283 0.07902813 -0.041491427 0.044070713 -0.07642999 0.039533816 -0.094429605 0.037034314
0.06358843 0.05507964 0.012574469 -0.07976348 0.021585718 -0.07034073 0.053340778 0.030716887
-0.08856461 -0.058584683 -0.098934464 -0.09794095 -0.011867457 0.02399494 0.06161936 -0.022775218
0.01710163 0.08656914 -0.09402119 -0.054102447 0.06267133 -0.045941528 -0.010057238 0.013737353
0.08709318 -0.03019544 0.053971205 0.028112534 0.03915688 -0.090216056 -0.07785631 -0.05171476
-0.0651037 0.076512285 -0.03646889 0.07805226 0.026329976 -0.0041194195 0.054568365 0.015278018
-0.033516515 0.024679765 -0.082255244 0.05581401 -0.021237953 0.016405335 0.032385465 -0.036083378
0.0064146966 -0.09170266 0.008400866 -0.024362296 -0.04666354 0.095626414 0.036485486 0.010421302
-0.07225552 0.02204412 0.008931266 -0.09551132 -0.06740587 0.06054009 -0.035087958 0.096498646
0.070072204 0.03041261 0.042065486 -0.013867347 0.001878634 0.019313723 0.034373228 0.064883426
-0.089211136 -0.04790721 0.08996234 0.0064856643 -0.009425806 0.06422376 0.07547885 0.066818684
-0.088089116 0.08613474 0.0055373325 -0.0013167373 0.04748854 -0.04046424 0.08840324 -0.054701738
0.046025004 0.097894326 0.0265046 -0.049436998 -0.00962002 0.045162372 0.0026457259 0.0371284
-0.034827475 0.06341769 0.0287863 0.08818283 0.011409135 0.004824144 0.009287211 0.015599965
-0.09470282 0.028043589 -0.0048969523 -0.011683642 -0.08192173 -0.081635885 0.008766029 -0.073871255
-0.08873219 -0.09209184 0.072567806 -0.017656947 0.05766855 -0.0819203 0.089848764 -0.066109754
-0.009767308 -0.07116518 0.02812219 0.008318789 -0.089098394 0.038219463 -0.08140481 -0.07627762
0.066111214 -0.09657804 0.08326055 0.060341056 0.024003481 -0.06251121 -0.058418527 -0.06737594
-0.017468952 0.058265187 0.07088812 0.016803391 -0.01994614 -0.0994594 -0.05334254 -0.052284025

lstm.weight_hh_l0 f4 [400, 100]
00000000: 42e2 843d d2d1 793d 4b89 ff3c 0cd9 49bd
00000010: 64d4 0ebd 196b d0bc 1a51 6b3d c2c3 543b
00000020: 4c81 ab3c 73ce cc3d 2657 f3bc cff0 853c
00000030: 48d3 82bc 6621 c73d 2f83 acbd cb2e 38bc
00000040: e848 183d 3c5c ac3d 80ad a9bd c257 2f3d
00000050: 0598 903d f094 5fbd 5fdd c4bd 6578 063c
00000060: b9d2 913a 4ad6 8bbd 2540 a03d a098 23bd
00000070: c9c0 73bd 6484 043c a364 a7bd 5734 5bbd
00000080: 5b6b b33c 490a bcbc 00c7 babd cab8 7c3d
00000090: ccaa a0bd 376b 92bd 46e1 c73d 3c89 1fbc
000000a0: 378c 10ba 4fe6 133c ce70 3abd 2ca3 16bd
000000b0: 45c1 98bd e09b 903d 1d83 043d 60a0 f2bc
000000c0: 4d30 fcbb 4be3 853c db62 a5bb 78a6 cc3d
000000d0: 6a2e c9bd 7ee5 abbc 5921 163d 71f2 b53d
000000e0: 8a59 5fbd 0ffb 973d cb43 153d cc68 223d
000000f0: 4acb 953d 26d9 2fbc c659 a53d ed14 733d
00000100: c5bc 073d 865b 8dbd e8aa 81bd f087 583d
00000110: 5ecc 8f3d 8b4a 793d 8858 80bd a145 813d
00000120: 7918 9d3d 11d0 a6bb 661a 9a3c cfda c33d
00000130: b604 a73c 19f3 ee3c 1bbc ae3d 5cf7 5d3b
00000140: d925 933d d9d6 91bd 44a6 c93c 3a49 f1bc
00000150: b0d1 ddbb 3bba 4bbd 0710 953c 64b1 2c3d
00000160: 0eab 9a3d 369e c8bd 1b4f 31bc 3d50 993d
00000170: 2faf 97bd 6cce 80bd 2b0b 43bd 1da5 bf3d
00000180: 6d87 3d3d d3b5 7bbd ef35 e4bc ed30 c73d
00000190: 42b0 1fbc 0209 99bc 4e97 be3d cdee 7fbd
000001a0: 8072 8a3d 7ca4 a63d dcd1 2f3d 3b59 a03d
000001b0: de8d ccbc 1649 0a3d 21d3 af3d 7357 ab3d
000001c0: 29f2 b8bd 3cf9 22bd b1a5 193d 3f33 a43d
000001d0: 6b34 4d3c 7095 803d d687 ba3b 6c24 93bd
000001e0: 3baa cebc 15b1 c0bd 3839 3ebd c99f bfbd
000001f0: 216d ddbb 27da fd3c 4777 c2bd 329c c73d
00000200: 384d 11bd dfd1 c1bd da9d 9bbd 63fb b6bb
00000210: f74d 943d a95d 9a3d f7f8 98bd c9c8 8d3d
00000220: 8fff d4b8 596d 5fbd 0d1b 693d 1c11 723d
00000230: 472e 6ebd b4ae c63d 3ecd 20bd a4c0 d3bc
00000240: 7120 c4bc e7dc 4a3d 8f1d abbd 8cca 3c3d
00000250: 11d3 5abc e12e e63b a867 423d f067 b73d
00000260: 27a7 9abb e99f 84bd 3ec9 1bbd 965b cabc
00000270: 9961 8cbd 010b 153d 4b19 ba3d e748 293d
00000280: a3f0 cbbd 5831 2cbb 6fe1 afbd f68f a4bd
00000290: 9552 8a3d 239b 28bd e3bf 173d 9ea0 5fbd
000002a0: e3a4 82bd b7aa 573d 055a 8abd 9a2a a43c
000002b0: 5010 393d 0518 17bc 4d51 f83c 8627 28bd
000002c0: 650a ac3d 2652 d3bc b88c 6a3c 0bcb 623d
000002d0: 68eb 883c d580 c5bd 33d7 afbd 33b5 62bd
000002e0: bc82 aebd 02c9 523d cb01 9d3c d574 acbd
000002f0: bb36 0e3d 15be 92bd 62ff c4bc 0fef 563d
00000300: c528 6e3d 2cb8 99bd 55f6 42bc 23b5 a6bd
00000310: 3aa4 bf3c c573 c03d 3bf9 323a 5c33 f13c
00000320: 084f 803c 983a 4abd f0bc a1bd 613f 17bd
00000330: 2fa0 3bbd 0c32 373d 07c3 c53a 03b3 bfba
00000340: 5f01 99bd c5d2 72bd 51ba b03d f986 503d
00000350: 0abf 08bd 64bd 323d 7b1c ec3c f129 a1bd
00000360: 48c4 18bd 0a8b 893d 0c56 153b 6891 403a
00000370: a894 8d3d ae49 67bc 2532 07bd 1a9a 1fbc
00000380: e687 493d f47c c63d 747b 85bd d653 9abd
00000390: 8d0e 04bd d497 a9bd f14f 1dbd 8ed1 b5bd
000003a0: e1ca 663d e12a ab3d c314 98bd 6aca 2dbc
000003b0: 6720 ab3d 92b5 03bd fb46 2cbd e684 bc3c
000003c0: 3ee6 f7bc d33c 893d 8438 97bd afa4 bb3d
000003d0: b717 28bd 14c2 f5bc eb4b 42bd 1673 5abd
000003e0: 5fd4 0abd 8e6b ad3c 685c c53c c122 a73d
000003f0: f3ed 973d 8cd2 8cbd f53d 313c 68f4 45bd
0.06488468 0.060991116 0.031193396 -0.049279258 -0.03487052 -0.025441693 0.05745039 0.0032465314
0.020935677 0.100003146 -0.029704642 0.016350178 -0.015969887 0.09723167 -0.08423459 -0.011241625
0.037178904 0.0841603 -0.082850456 0.0428083 0.070602454 -0.054585397 -0.09612536 0.008207415
0.0011125422 -0.06827982 0.078247346 -0.039940476 -0.059510026 0.008088205 -0.08173492 -0.053516712
0.021901777 -0.022954123 -0.091199875 0.061699666 -0.07845077 -0.07149356 0.097597644 -0.009737309
-0.00055140577 0.009027078 -0.045517735 -0.036776707 -0.07458738 0.07060981 0.032351602 -0.029617488
-0.0076961876 0.016343733 -0.005047185 0.09992689 -0.09823306 -0.020983454 0.036652897 0.08884133
-0.05452875 0.074209325 0.036441606 0.039650723 0.07314165 -0.010732925 0.080737635 0.05934613
0.03313901 -0.06902222 -0.06331426 0.052864015 0.07021402 0.060862105 -0.06266886 0.06312109
0.076706834 -0.0050907214 0.018811416 0.09563219 0.020387989 0.029168652 0.08531972 0.0033869362
0.07184953 -0.07121057 0.024615414 -0.029453862 -0.0067693815 -0.04973815 0.018196119 0.04216136
0.07552157 -0.09795801 -0.010822083 0.07486007 -0.074064605 -0.06289372 -0.047618072 0.09357665
0.04627173 -0.061452698 -0.027857749 0.09726129 -0.009746613 -0.018681053 0.09306203 -0.062483598
0.067601204 0.08136842 0.042924747 0.07829519 -0.024969991 0.033761106 0.085851915 0.08366289
-0.090305634 -0.03978847 0.03751153 0.08017587 0.012524704 0.06278503 0.0056924624 -0.07184681
-0.025227657 -0.09408776 -0.046441287 -0.093566485 -0.006757394 0.030987812 -0.094954066 0.09746589
-0.035474032 -0.09463858 -0.07598467 -0.005584167 0.07241433 0.075373955 -0.07469361 0.06923062
-0.00010156549 -0.05454764 0.056910563 0.059098348 -0.058149602 0.09701291 -0.039258234 -0.025848694
-0.02394125 0.049527075 -0.08355247 0.0460916 -0.013355986 0.0070246314 0.047462136 0.089553714
-0.004719633 -0.06475813 -0.038033716 -0.024701875 -0.06854553 0.036387447 0.090868555 0.04132929
-0.09958007 -0.0026274528 -0.0858792 -0.08035271 0.067540325 -0.041163575 0.03704823 -0.054596536
-0.06379106 0.05265304 -0.06755451 0.020039845 0.045181572 -0.009222035 0.030312205 -0.041053317
0.0840042 -0.025796007 0.0143157765 0.055369418 0.016713813 -0.096437134 -0.08585968 -0.055348586
-0.08521029 0.051461227 0.019165894 -0.084207214 0.034720164 -0.071651615 -0.024047557 0.052474078
0.05814435 -0.07505831 -0.01189955 -0.08140018 0.023393739 0.09397081 0.00068272994 0.029443435
0.015662685 -0.049372286 -0.07897365 -0.036925677 -0.04580706 0.044725463 0.001508803 -0.0014625493
-0.07470965 -0.059283037 0.08629287 0.05090997 -0.033385314 0.04363765 0.028822174 -0.07869328
-0.037296563 0.06715973 0.0022786884 0.0007345886 0.069131196 -0.014116688 -0.033006806 -0.0097413305
0.04920187 0.09691802 -0.065176874 -0.07535522 -0.03224044 -0.08280912 -0.038406316 -0.0887786
0.056345824 0.08357788 -0.07425835 -0.010607341 0.0835579 -0.03215558 -0.04205988 0.02301259
-0.030261155 0.067010544 -0.073838264 0.0916227 -0.04103824 -0.02999977 -0.047435682 -0.05333241
-0.03389394 0.02116945 0.024091914 0.08160926 0.07418432 -0.06876096 0.010817994 -0.048328787

lstm.bias_ih_l0 f4 [400]
00000000: fb61 85bd 99f5 583d 8c13 eabc b389 14bb
00000010: 7cde b33d ead2 783d 6c0d 123d 0820 88bd
00000020: 81f7 c83c dd86 a73d 1b74 59bd 3779 82bd
00000030: 9136 b1bc 46c5 b83d c300 03bd f5e2 00bd
00000040: e276 b33d 1e94 113d 8e31 1ebd bab1 833d
00000050: 0545 cb3c 4dcf 57bd 5001 0b3c b4d3 d23c
00000060: 132c c03c 00a0 edbc 3ee5 b0bd 4ed7 433d
00000070: 29d3 063d 3733 e03a 3498 aebd 857d 59bd
00000080: adc5 863d c1a4 a3bd d7fe a73d b966 49bd
00000090: 4a05 89bd b5b9 c93c 78d5 a2bc 2a8b b63d
000000a0: a27c cb3c 0ce9 8fbd 32c4 9fbd 7dba b13d
000000b0: e07d 9e3d 9f33 27bd 0985 81bc c0ce 463d
000000c0: 714e 1cbd b5f5 9a3d 52bd 8e3d c9b1 81bc
000000d0: d28c 5d3d a017 b83d 705e 853d 6592 923c
000000e0: e2a3 163d 2d02 803c caf5 353b f73a 9cbd
000000f0: 387a 40bd b98d b3bc faba b5bd 1c83 423d
00000100: 0137 9fbd 16f0 4d3d e9a0 893d 7d5e b73d
00000110: 52ec 063d f1bc 9fbd d415 a83d a2fa 713d
00000120: c16b 263d c4d8 2abd b1ec 9a3d 5e87 753d
00000130: 3604 c33d 2e67 1dbb 093d c13d 07dc b83d
00000140: 7885 48b9 fa8a 303d e60e 893d d7f1 5d3d
00000150: 62e3 88bd ddfb b03d 9fcd a4bd a541 48bd
00000160: d31f 9fbb 6c36 863c 9e00 3abd 4ace 4cbc
00000170: cfe3 843d e2ad 373d 348c 1c3d c3d2 9a3d
00000180: 9a62 283d 141b a33c 5fb2 3f3d 3ca6 9a3d
00000190: 656d ce3c 37d0 67bd 97fd 9b3b f16b 4c3d
000001a0: 7fd4 a03d 1f22 6bbd cfc8 c2bd ba94 b7bd
000001b0: ea8b 723d 218a ab3d 5c7e 7a3d 817f dbbc
000001c0: aa90 853b 6862 743d ad27 90bd fe5a 90bd
000001d0: 86b8 4b3d 13d8 98bd 40db 153d 66a4 bcbc
000001e0: fae3 5e3d e217 98bd e815 19bd a8d2 44bd
000001f0: d2fb 63bc 9ac0 cabc 49cb b63c 07f0 383d
00000200: c596 6dbd 354a c63c cf9c 57bd 83c5 d9bc
00000210: 6213 cabd eb75 783c e9a7 be3d 7827 ad3d
00000220: 0279 64bd 6ec9 3bbc 6c96 0d3d ed88 94bd
00000230: 52c6 853c 9b97 9b3d 4f76 c53c 8308 0fbc
00000240: 45cd be3b f85b b73d a94f a93c 9c60 acbd
00000250: 9792 913c 2c75 013d dea1 38bd 38cb 7fbd
00000260: bec7 8f3d e9f5 8fbc a6ec 0d3d 9d5a 8dbd
00000270: 079d 4c3d 59c9 77bd ca05 303b 0c94 ca3d
00000280: 484d 6abc a1c4 92bd d1c6 66bb 7237 b1bd
00000290: 113b fc3a f8ab a7bd eda3 033d f445 783d
000002a0: d02b 3d3d d31e 00bd a2e8 88bd 21f9 813c
000002b0: a007 54bd b5f7 983d 9f03 223d 4f32 573d
000002c0: 215a 303c e7fe 183d 69d9 8fbd 900d 723b
000002d0: e146 81bd ea4b b3bd 542f 11bd 36c5 16bd
000002e0: 1236 f23b d4ba a03d 1ff7 a1bd 9940 0c3d
000002f0: ecf4 ffbc c28c 7cbd 2868 a03d 67e4 55ba
00000300: 93c7 63bc 6d23 733d 16f0 3b3d 7879 7ebd
00000310: 08b5 a03d 3090 d53c 6aef c8bc d6bb 883d
00000320: c4f2 88bd 0965 ac3d 2b1b 4bbd fb0d 89bd
00000330: 213f acbc 3988 b9bd f52b df3c ecc4 033d
00000340: dd91 983d d8e3 06bc 961b 43bc df48 33bd
00000350: 7fad 25bd f9e2 8c3d 9217 c93c dc5e 693d
00000360: f68c 88bd 5efd 60bd c4e6 8c3d a221 843d
00000370: 1d75 973d ea7e 80bd beb2 a6bc 3e97 803d
00000380: a46d c1bc 75c8 063d c371 7abd 922b 80bd
00000390: 2168 7fbc ca6c 773d 236d a1bc 3505 56bc
000003a0: 61ba e63b f299 0e3d d525 873d e153 20bd
000003b0: 586d a03b 6bf4 883d 38d5 083d d938 95bd
000003c0: 43fd 33bd 3e03 923d b882 65bd c539 93bd
000003d0: e8b3 b93c c785 79bd abde 32bc e6c7 8b3d
000003e0: 8889 abbd 5c79 ddbc 4613 263d ee62 a63d
000003f0: 2910 c33b 5cb1 6dbd d917 d33b 1831 8ebd
-0.06512829 0.052968595 -0.028573774 -0.0022665083 0.0878267 0.06074802 0.03565733 -0.066467345
0.024532082 0.0818002 -0.053089242 -0.06370776 -0.021632465 0.09022002 -0.03198315 -0.031466443
0.087629095 0.035541646 -0.038621478 0.06430383 0.024813185 -0.05268793 0.0084842 0.025735714
0.023458516 -0.029006958 -0.086374745 0.047812752 0.03291622 0.0017105107 -0.08525124 -0.05309822
0.065806724 -0.07990409 0.08202904 -0.04917023 -0.06690462 0.024624685 -0.01987718 0.08913262
0.024839703 -0.07026872 -0.07801093 0.08678148 0.077388525 -0.040820714 -0.015810506 0.048537016
-0.038160745 0.07566396 0.06969704 -0.015831845 0.054089375 0.08988881 0.06512153 0.017892072
0.036777385 0.015626037 0.002776491 -0.07628434 -0.046991557 -0.021918165 -0.088735536 0.047488317
-0.07774163 0.050277792 0.06720144 0.08953569 0.032940216 -0.077997096 0.082072884 0.059076913
0.040630106 -0.04171063 0.075646766 0.05994355 0.095222875 -0.0024017799 0.0943547 0.09026342
-0.00019123207 0.04310129 0.06692295 0.054185715 -0.06683995 0.08641789 -0.080470316 -0.04889073
-0.0048560887 0.016383372 -0.045410745 -0.012500355 0.064887635 0.044843562 0.038219646 0.07559731
0.04110966 0.019910373 0.046800967 0.07551238 0.025198648 -0.056595054 0.004760455 0.04990763
0.078530304 -0.057405587 -0.095109574 -0.08963914 0.059215464 0.083759554 0.061155662 -0.026794197
0.004076083 0.05966416 -0.070388176 -0.070486054 0.049736522 -0.07463088 0.036586046 -0.02302761
0.054416634 -0.0742643 -0.037374407 -0.04805246 -0.013915019 -0.024750043 0.02231373 0.045150783
-0.058005113 0.024205307 -0.05263978 -0.026583439 -0.09866978 0.015164833 0.0930937 0.08454794
-0.055779465 -0.011461599 0.03456728 -0.07252679 0.016329918 0.07597276 0.024104265 -0.008730057
0.00582281 0.089530885 0.020667868 -0.08416864 0.017770095 0.031605884 -0.045076244 -0.062449664
0.0702052 -0.017573314 0.034649514 -0.06902049 0.04995444 -0.060494754 0.002685892 0.09891519
-0.014300652 -0.0716641 -0.0035213719 -0.086531535 0.0019243677 -0.08187097 0.032138754 0.060613587
0.04618436 -0.031279396 -0.06684996 0.015865864 -0.051765084 0.07469121 0.039554235 0.052538212
0.010763676 0.03735247 -0.070238896 0.0036934353 -0.06312347 -0.08754714 -0.035445526 -0.03680917
0.0073916996 0.07848135 -0.07908463 0.034241293 -0.031244718 -0.061657675 0.07832366 -0.000815934
-0.013902563 0.059359957 0.04588326 -0.06212756 0.07847029 0.02606973 -0.024528224 0.06676452
-0.06686929 0.084177084 -0.049586456 -0.0669212 -0.021026196 -0.090591855 0.02724264 0.03217022
0.07449696 -0.008233033 -0.0119084325 -0.043770667 -0.040448662 0.06879229 0.024547372 0.05697523
-0.06667511 -0.05492913 0.068799525 0.064517274 0.073953845 -0.06274207 -0.020348903 0.06278847
-0.023611851 0.032906014 -0.061143648 -0.062583104 -0.015588791 0.060406484 -0.01970536 -0.013062765
0.007041261 0.034814782 0.06599013 -0.039142493 0.0048958473 0.06687244 0.033406466 -0.072862335
-0.0439427 0.07129525 -0.056032866 -0.07188753 0.022668794 -0.060918596 -0.010917346 0.06825237
-0.083758414 -0.027035408 0.040545724 0.08124338 0.005952854 -0.05803047 0.006442052 -0.06942958

lstm.bias_hh_l0 f4 [400]
00000000: 1f39 143d 8c3d 273d 7310 743b 1ab5 0bbd
00000010: 39c3 193c a995 c23d 73ef d13c e322 4d3d
00000020: 1658 9abd 3b7d c6bd 0296 4e3d 3833 93bd
00000030: 1862 8dbc a591 db3a cd4e 9c3d 4ab2 cf3c
00000040: 904e 7b3d d433 cebb af25 3c3d f197 a8bc
00000050: e606 5c3d 5aae 463d aad5 453d 1c15 85bd
00000060: 5a94 a33d 6d6a 90bb f4d5 7cbd 6a88 9cbd
00000070: 22b4 8c3d a76c 573d a2e9 a83c faf0 0bbc
00000080: 3c0d 88bc 7351 713d 5a93 76bd d2b2 92bc
00000090: 6518 553c a5c8 b33d 4805 9b3c 60f6 a2bd
000000a0: c566 d7bc 7788 82bd b46a 83bd 3028 f93b
000000b0: 76dc c33d d9c6 feba c896 133c 9cee b7bb
000000c0: d440 16bc d1d2 29bd 52ee 393d 4b0f 4bbb
000000d0: f219 863d f016 59bd 8931 403b 2f54 823d
000000e0: ff63 ea3b 2fb3 26ba c0e3 bc3d 1b47 82bc
000000f0: 10a0 b4bd b230 29bd ebe0 50bd 3604 d13d
00000100: 4e68 9dbd 7e42 893d 2e23 8bbd 8514 b93d
00000110: 0e10 113d b329 0cbd 0446 f13c f8a6 2abd
00000120: 477e eabb a9b6 293d 7a8d 803d b52e d5bc
00000130: cf74 95bc e7de 4dbc e481 393d a02d aebc
00000140: e63a 053d a6fb d2bb b825 ca3d 4055 60bd
00000150: f003 69bc 4531 07bd 70d9 333d b8b7 17bd
00000160: 21e8 47bd 6a1f 823d 7b7a 39bd 5e0a 7bbd
00000170: 08e8 8a3d 3534 7ebd 11ed 613c 8474 7ebd
00000180: cd8a efb9 4777 6f3d 687e a03d c0a1 d23d
00000190: 0874 8b3c 9421 b5bd 60a7 063d 3e8d 2d3a
000001a0: d34e 84bd 567a 23bd 12bb 093d e304 bebc
000001b0: 6ac9 e8bc 441a 393d 3db4 b7bd ff36 b13b
000001c0: ed09 e23c 66ba 34bd 1df7 383d 0570 c23c
000001d0: d436 b93c 3039 c93d 1154 86bd c1ee d13c
000001e0: ecf8 55bc 0871 213d 4bb0 f13c 281c c8bd
000001f0: c09f b5bc 3468 cebc e992 63bd 368b 34bb
00000200: baed adbd 55fd c03c d577 99bd 2503 77bc
00000210: c9b7 a83d 8463 f43b 0347 183d 7b39 90bd
00000220: 619a b03d 4526 253d ae54 53bd 8c49 96bd
00000230: 3cfc c33d 771c 9e3c 3bd9 943d 5471 bebd
00000240: 469f 57bb 93e9 1c3d b79b a33d c5d5 973b
00000250: 4a2d bebc df6e b2bc 12d0 b73d ee30 babd
00000260: 0362 a53d 6f8a e8bc 20fd 763d e97b ab3d
00000270: fe36 e33c 75ff c43b b701 903d 25d8 163d
00000280: 6d6a c73d e669 9fbb 385f b93d edd8 ab3d
00000290: e0dd c1bc f679 30bc 1b92 97bd c3e3 f9bc
000002a0: 9410 2abd f3a9 0dbd bfe0 a93c b37f b3bd
000002b0: c964 90bd a393 b9bd c81b 733d 263e ad3c
000002c0: 9a1a aabd cc5e 80bd d8c3 c43d 97e8 3b3d
000002d0: d426 ccbd 9c99 753d 238d 77bd 6aca a93d
000002e0: 2c99 91bd 4b45 dabb b76e 2c3d d88d a73c
000002f0: a315 41bd d316 59bd 1e5a a53c 3e81 bdbd
00000300: 678b 423d 8979 b4bc b942 0b3c 5299 a93b
00000310: 4824 08bd 0b6d 7fbd be0e 48bd 2088 80bc
00000320: 5f4e 9f3c 36d1 87bd 21ed 803d 0146 7c3d
00000330: cf81 ffbc 6941 cc3d a259 b03c fe26 0ebb
00000340: 7b39 c83c 75b3 9a3d fb05 abbb c262 65bc
00000350: ed9b 67bd d8a8 773d 90c3 cabc 7529 443d
00000360: 1541 8f3d d4f8 793c ae7a e1bc 5dfa ebbc
00000370: b805 82bd 698e a23d f071 03bd 3628 81bd
00000380: 7d86 60bd b091 aabd c698 183d ab49 c7bc
00000390: 52ac ce3d 97d1 94bc 224e 283d e65d 443d
000003a0: f5ff 613d 454f 163c be4e 90bd 6088 283d
000003b0: 6342 013d d600 7fbd 04e3 62bc ea18 7e3d
000003c0: cacb 8d3d f01a 183d 86e8 49bc 07b2 da3d
000003d0: 203c 673d f7f5 a53d 8515 8abd dc23 9fbc
000003e0: d299 9b3d 800d d03c 48aa 743d c637 1dbd
000003f0: c991 a73c 2794 f63c e0c8 b83c 5c99 e9bb
0.036187287 0.04083018 0.003724125 -0.03410826 0.009384924 0.09501202 0.025626874 0.0500821
-0.07536332 -0.096918546 0.050436027 -0.071875036 -0.017258689 0.001675178 0.076322176 0.02535357
0.06135422 -0.0062927995 0.045934375 -0.020580264 0.053717516 0.04850612 0.04829947 -0.06498167
0.0798728 -0.004407218 -0.06172748 -0.076432064 0.06870295 0.052593853 0.020619217 -0.00854134
-0.016607873 0.058915567 -0.06019912 -0.017907534 0.013006304 0.08778504 0.018923417 -0.079571486
-0.026294122 -0.06373685 -0.064168364 0.0076036677 0.09563534 -0.0019437923 0.009008117 -0.0056131613
-0.00917073 -0.041460816 0.045393296 -0.0030984457 0.065479174 -0.05300039 0.00293264 0.06363713
0.0071530337 -0.0006359098 0.09223127 -0.015903046 -0.08819592 -0.041306205 -0.05099575 0.10205881
-0.0768591 0.067021355 -0.06793819 0.09037117 0.0354157 -0.034219455 0.029452331 -0.04166314
-0.0071561667 0.041433964 0.062769845 -0.026023248 -0.018244175 -0.012565351 0.04528989 -0.02126199
0.032526873 -0.0064386902 0.098704755 -0.0547688 -0.01422213 -0.03300597 0.043908536 -0.037040442
-0.04880536 0.06353648 -0.045282822 -0.061289184 0.06782538 -0.062061507 0.013789431 -0.062122837
-0.00045689047 0.05846336 0.0783661 0.102847576 0.017023101 -0.08844295 0.032874465 0.0006620473
-0.06460347 -0.03991159 0.03362567 -0.02319569 -0.028416354 0.045191064 -0.089699246 0.0054081674
0.027592624 -0.044123076 0.04515754 0.023735056 0.022609152 0.09825361 -0.06559003 0.025626542
-0.013059836 0.039414436 0.029503008 -0.097709954 -0.022170901 -0.025196172 -0.055560026 -0.0027548796
-0.08492608 0.023558298 -0.07493559 -0.015076433 0.08238179 0.0074581522 0.037177097 -0.070422135
0.086231954 0.0403197 -0.05159443 -0.07338247 0.09569594 0.019300682 0.07267996 -0.092989594
-0.003290133 0.03830869 0.079886846 0.0046336376 -0.023214955 -0.021781383 0.08975233 -0.09091364
0.08075335 -0.028386323 0.060299993 0.08373243 0.027736183 0.006011898 0.07031577 0.036827225
0.09737096 -0.004864919 0.09051365 0.08390985 -0.023665369 -0.010771265 -0.07400914 -0.030504113
-0.041519716 -0.034585904 0.02073705 -0.08764591 -0.07050473 -0.090613626 0.059352666 0.021147799
-0.08305855 -0.06268081 0.09607667 0.04587611 -0.099683434 0.059960946 -0.060437333 0.082905605
-0.07109293 -0.0066610924 0.042097773 0.020453379 -0.047139775 -0.053000282 0.020184573 -0.092531666
0.047496226 -0.022030609 0.008499795 0.005175748 -0.033237725 -0.06235985 -0.048842184 -0.01568991
0.01944655 -0.06631701 0.06295229 0.0615902 -0.031189827 0.099734135 0.021527115 -0.0021690722
0.024441471 0.0755376 -0.005219219 -0.0140005965 -0.056545187 0.060463756 -0.024751455 0.0478911
0.06994835 0.015257079 -0.027524319 -0.028805906 -0.06348747 0.07937319 -0.03209108 -0.06306498
-0.054815758 -0.08328569 0.03725507 -0.02432712 0.10091461 -0.018166346 0.04109014 0.04794111
0.05517574 0.009174173 -0.07046269 0.041145682 0.031557452 -0.062256657 -0.01384807 0.06203548
0.06923635 0.037135065 -0.012323504 0.10678487 0.056453824 0.08103555 -0.06742386 -0.019426279
0.07597698 0.025397062 0.059732705 -0.038383268 0.020455258 0.030099941 0.022556722 -0.0071288776

lstm.weight_ih_l1 f4 [400, 100]
00000000: ca33 003d 4aa0 af3d f3ad 4c3d 85a4 c53c
00000010: 61b7 293d 129b 373d 4210 21bd 2f67 06bd
00000020: c380 5cbd cc46 e3bc 77dc c53b c3b8 a7bc
00000030: 87c2 ec3c a0cf 983d 07d7 c33d 5f6b 15bc
00000040: 26e5 a93d 48d4 71bd 5af3 c5bd 52e5 83bd
00000050: 4fcc c0bc fc8c 113d 51c7 aa3d 2d0b 2fbd
00000060: afee 01bd 8966 b4bd 034c a53c e08d b63c
00000070: 5a36 523d 18e2 e7bc e5c2 51bd f7a0 f4bb
00000080: 10e1 2b3d db13 8a3c 7b92 bebd 2f5f a13d
00000090: 9896 c8bd 4109 5c3c 5530 81bd 8797 dd3c
000000a0: ddc9 b2bd 8852 58bd 26c2 1a3d 8935 20bc
000000b0: a355 4dbd e9d7 a9bd 8204 883d 1ca5 e03c
000000c0: 36eb ebbc a49b ebbc 157e 6bbb b290 10bc
000000d0: 1b73 683c 82a9 91bb 027b 82bc c6a3 c23d
000000e0: bf5f 413c 920e 72bd 4017 1bbd 6121 493d
000000f0: 10a3 523d a9c4 2abd 8f1a 8dbd 9372 0d3c
00000100: 34ab 73bc 91bd e53b 49e6 b43d 83cc b0bd
00000110: e9e9 8c3d 9f6f ac3d 0b3c b5bd ef9e b0bc
00000120: c09b 923d 54ec c83a 1cc7 773d f26d 3c3d
00000130: 823d 58bd 4ef4 5ebd e8dc bc3d 9f1e d5bc
00000140: cdc2 bf3d 3e3d 7b3c 42d0 373c 5d32 873d
00000150: 518a 8abd 9c52 07bc 9585 9c3b ffef 95bc
00000160: b1d5 10bd 1d40 afbb 0fec 9ebd 15fd dfbc
00000170: 25a2 11bd e89a 4a3d 48ec 51bc af9a 51bd
00000180: 3716 bcbd 1616 b0bd 84cc ae3d 7cdb c23d
00000190: f6b2 a53d 7efc ab3d c55d cabc bc90 afbc
000001a0: 1e94 823d 224e ffbc d284 913b 32b2 953d
000001b0: e036 b2bd b9f2 bebd 4116 79bd de9b b3bd
000001c0: 4ff5 423d 7aa4 303b 6f8a e93b 17cf bbbd
000001d0: 4790 96bc c7df 893d 7573 2d3d d912 94bd
000001e0: b344 393d 6023 d639 a028 6b3d 9ebb c23c
000001f0: ff1e 993c 0825 413d 0c26 bb3d c3a2 6d3d
00000200: f188 95bc e9a9 863d 6fb7 923c abb7 a53d
00000210: 52b4 2e3d 3a46 81bd 1d2d 71bd ff3c bdbc
00000220: 9116 913c 3301 363d a95b c63d f975 ba3d
00000230: d0be a9bd d19e c3bd 99b7 263c a157 28bd
00000240: 75a1 913d cfad b9bd 558c babd 82ac abbd
00000250: 210b 9b3d c773 823d 6291 37bd 9a6e b5bc
00000260: c157 a0bb 87a5 923d a054 9a3c 9f83 50bd
00000270: e5de 953d 7f4c 563d 8acc 283c 8eba 57bd
00000280: cd2e b63d ef77 923d f715 16bc 00b5 7d3d
00000290: f8a9 56bc 6a38 a2bc 4192 b1bd ce27 413c
000002a0: 85eb 3f3d a13f 98bc c302 573c f1a6 c5bd
000002b0: 2140 423d 9864 61bc cc01 b13d 0827 893d
000002c0: e96d a13d e0bc 4d3d b446 ec3b 2704 8abc
000002d0: d6d4 b5bd 4c51 b23d f014 80bd 39da 43bc
000002e0: 89b5 7bbc d63e d83c 3592 c43c 01ff abbb
000002f0: 98f0 2c3d 0c1f 3bbd 498d 4cbd bc8d ac3d
00000300: 4751 83bd 89c7 293d f0c2 a7bd b981 4dbd
00000310: 8aaa 963b 7ac4 ab3c bc34 1ebb 84ad 963a
00000320: 855f 193d 76a5 b8bd f5cd 9a3d 514a cdbc
00000330: 7322 90bc fd59 7e3d b569 c2bd f3d6 4bbd
00000340: d68f cc3d 789c 4fbc fb81 963c 6859 46bd
00000350: 213c 923d 097b b8bd 47df 71bd f584 293d
00000360: 0077 18bd 676a c7bc 052e 063d 7c9e b63d
00000370: 323e aebd 1ade 3a3d 2291 8b3d 2472 54bd
00000380: 8c37 c23d 6614 0d3d 81d8 a9bb 1b32 41bd
00000390: 1f91 813d ed09 21bc 4efc f73b 3000 72bc
000003a0: 3037 eabc 8ea7 533d 1acf 873d 4dcc c7bd
000003b0: a943 c3bd 51d8 923d c9a2 853d d649 7ebd
000003c0: 98e3 75bd 3d83 c3bd d207 a0bb 2d1c 4e3d
000003d0: 411d 693d e83f ccbb 42c4 573d 3890 f8bc
000003e0: 3a3d 8abd 8bc6 7abd 636f 94bd 3bfb 45bd
000003f0: 7dc9 4c3d 8e29 2cbd 9562 5cbd 49d2 353d
0.03129939 0.085754946 0.04997058 0.0241263 0.04143465 0.04482562 -0.039322145 -0.032813247
-0.053833734 -0.02774372 0.0060382443 -0.020473843 0.028901352 0.07461476 0.095624976 -0.009119838
0.0829566 -0.059040338 -0.09665556 -0.06440224 -0.023534922 0.035534844 0.08338798 -0.042735267
-0.031721767 -0.088086195 0.020177847 0.022284448 0.051321365 -0.028306052 -0.051211257 -0.0074654776
0.041962683 0.016855171 -0.09305283 0.07879483 -0.097943485 0.013429941 -0.06308047 0.027049793
-0.087299086 -0.052813083 0.03778281 -0.009778389 -0.050130498 -0.08293135 0.06641485 0.02742248
-0.02879868 -0.028760739 -0.0035933305 -0.008823561 0.0141875995 -0.0044452557 -0.015927795 0.095038936
0.011802613 -0.059095927 -0.03786397 0.0491041 0.05142504 -0.041691456 -0.06889831 0.008633274
-0.014872361 0.0070111235 0.08832986 -0.086327575 0.06880552 0.084197275 -0.08849343 -0.02156016
0.07158613 0.001532922 0.06049262 0.04600329 -0.052793033 -0.054432206 0.09221822 -0.026015578
0.09363327 0.0153344255 0.011219086 0.06601403 -0.06764663 -0.008259442 0.0047766664 -0.018302916
-0.035360042 -0.005348219 -0.07759868 -0.027342359 -0.035555024 0.049464136 -0.0128126815 -0.05117291
-0.09183925 -0.085979626 0.08535102 0.095145196 0.08090775 0.083977684 -0.024702916 -0.02143132
0.06375907 -0.031165186 0.0044408822 0.07309379 -0.08701873 -0.093236394 -0.06081224 -0.08769964
0.047597226 0.0026953504 0.0071270983 -0.09170359 -0.018379344 0.06732135 0.042346437 -0.072301574
0.045231532 0.00040843617 0.05741179 0.023771103 0.018691538 0.047154456 0.09138116 0.05801655
-0.018253775 0.065753765 0.017909734 0.080916725 0.042652436 -0.06312223 -0.058880914 -0.023100374
0.017710956 0.044434737 0.096854515 0.09104533 -0.08288348 -0.09551776 0.010175609 -0.041099194
0.071108736 -0.090663545 -0.091087975 -0.08382513 0.07570482 0.06369739 -0.044816382 -0.022147465
-0.0048932736 0.07160478 0.01883918 -0.050906774 0.073179044 0.052319046 0.010302672 -0.052668147
0.08895645 0.07151782 -0.00916051 0.061940193 -0.013102047 -0.019802291 -0.08670474 0.011789275
0.04685547 -0.018585028 0.013123217 -0.09650982 0.04742444 -0.013756894 0.08642921 0.06696898
0.07882292 0.050228953 0.007210577 -0.016847683 -0.08878486 0.087069124 -0.062539935 -0.011953884
-0.015363106 0.02639715 0.023995498 -0.0052489047 0.042221636 -0.045683905 -0.049939428 0.08425471
-0.06411987 0.041450057 -0.08191478 -0.05017254 0.0045979666 0.02096771 -0.002414032 0.0011495803
0.03744461 -0.09015934 0.075588144 -0.02505985 -0.017594552 0.06209754 -0.09492818 -0.04976554
0.09988372 -0.012671582 0.018372526 -0.04842511 0.07140375 -0.09007842 -0.059050824 0.041386563
-0.037222862 -0.024342729 0.03275873 0.08916947 -0.085079566 0.04562197 0.06814791 -0.051866665
0.09483251 0.03444328 -0.00518328 -0.047166925 0.06326508 -0.009829027 0.007567919 -0.0147705525
-0.028590769 0.051673464 0.06631298 -0.09755764 -0.095343895 0.07170165 0.065251894 -0.062082134
-0.060031503 -0.09546516 -0.0048837448 0.05031984 0.056912664 -0.006233204 0.0526774 -0.030342206
-0.06749959 -0.0612245 -0.07247808 -0.048335295 0.04999684 -0.042031817 -0.053804953 0.044389997

lstm.weight_hh_l1 f4 [400, 100]
00000000: 0ce9 5fbd ecca 39bd ec22 f2bb aea1 493d
00000010: 4f4f a1bd 6218 b13d 980b 863c a13d 86bd
00000020: 9b9a 1bbb 81b6 0bbd 139c 28bd 799d 0d3c
00000030: 1f9c 263d 7bc8 e93c d6ca c2bc 64f7 8239
00000040: 2143 69bd 94b7 22bb d6fb 943c 800b 13bc
00000050: c762 943c aaf7 e7bc 82c0 ab3c 8ec5 833c
00000060: 76f2 f5bc 9400 653d 09df 303d fab2 4abc
00000070: 1dfb 41bd 6b49 35bd 7155 a8bd 4a4f ad3d
00000080: 21ab bd3d 5092 8cbd 2da4 cdbb 4c06 afbc
00000090: 87a6 7abd ee05 713d 9951 5e3d ce76 9ebd
000000a0: 25e9 f9bc b005 b8ba 74b4 fabc 076d feba
000000b0: ad63 87bd 22c8 843d 9369 0e3d 8dfd 24bc
000000c0: a473 08bd 9e6b 6abd bf0b 30bc cebe 42bd
000000d0: 8b86 883d 606a 96bd 0c7d 99bd 0586 9f3b
000000e0: 3f1f 09bd 745d 11bc 7967 313d 5f40 3abd
000000f0: d5ae 833b 0ee5 943d a998 903d 5147 8dbd
00000100: 5029 50bd 5777 80bc 7b30 1ebd 671d a9bd
00000110: bfcd b23d 7a28 963d 9a92 1b3d 2eb9 8ebd
00000120: f146 c33d 5cce b5bc af17 79bd 985d b7bb
00000130: 0c07 e73c 8bc9 183b bd28 60bd d564 13bd
00000140: 4e16 cc3a 3d61 d73c dd3e b13d 8bdd 82bd
00000150: 2da0 483d 8243 c23d b2d6 c63d 418d cbbd
00000160: 0a7f b03c 652b ca3d 23a1 75bd f688 3fbd
00000170: 6b92 d43c 1970 233d 29d3 7bbd 8197 6e3b
00000180: d65a 6abc 02b1 99bd 98a8 6abb d42e 303c
00000190: 3075 2ebd a936 35bd 1683 b53d 239b 133d
000001a0: 7458 713d 63fb 6f3d f6ba 923d ac49 aebd
000001b0: 9743 1c3d 6671 edbb 4631 293d daa4 2cbd
000001c0: e101 afbd 5687 113d 726a 2dbd 7fee a93d
000001d0: bb09 8bbd 35e6 f0bb 4c56 ae3d 2f8b 73bd
000001e0: 5044 b53d d970 9cbd 37ac 203d 1e2c 8ebd
000001f0: cf4f 953c 58bd 74bc bc3e bd3c 1574 1c3d
00000200: 788e be3d ffac 6fbd 6bf5 b5bd d4b8 03bd
00000210: 26e8 28bd 21c9 f03c eca4 76bd b76b 08bd
00000220: b63c 6b3d 606b 19bd 3aa7 6cbd d28b 6c3d
00000230: a269 5bbd b7ef a83d 7ceb 343d 7148 0a3b
00000240: a6d4 343d 9212 4e3c 884c d03c c74a 553d
00000250: 0105 b03d cd37 533d bb1a 7e3d edcd 903c
00000260: bc69 833d 2297 2c3d af2f 273d 3150 b7bc
00000270: ffe0 a7bd 194d 033d f6c8 70bd 5033 6a3d
00000280: ce58 9cbd 21d7 76bd 2598 05bd 6cbe 36bd
00000290: 3e91 abbd 2b23 86bd 8875 a7bd 45a7 94bd
000002a0: 7a8c 50bd 93ae 3eb8 fc52 b53d d429 af3d
000002b0: 0b0d 173d b045 88bd 55cf 99bd 2485 c4bd
000002c0: 2832 a53c 33e1 febc 3bb2 de3b 423f ab3c
000002d0: f56a 9b3d 461d 92bd d679 953c cf30 ef3c
000002e0: 5b90 673d 448b a13d 8dad 11bc 22fe 293d
000002f0: 6c2e 0f3d d501 303c 56c4 5fbd fe71 583c
00000300: 4b37 7c3d 745f dd3c f81d 833d 7e53 ed3c
00000310: 7bf2 c63d 700f 5c3d 83fa bc3d f44d c3bd
00000320: a17a 68bc a247 17bd 7e6c a1bd a81a e7bc
00000330: c539 39bd 39f2 5dbc ecb0 a53d d8dd b4bd
00000340: e73d 77bd de40 d1bc e105 5cbb a74d b23c
00000350: 9954 b73d 50de 893c 7b59 bd3d ddfc 133d
00000360: 77ac 7d3d 6bf2 8f3d 4026 81bd e57b b63d
00000370: 090c 40bc 91c1 39bd 6ce1 7a3d b011 9d3d
00000380: faca 1bbc 8df5 963c d3ac 7bbd 0b8d bdbd
00000390: 8ac5 e8bc d9d5 b23d 2e0c 573d c1cd be3d
000003a0: a462 bcbc cdfa 0e3d 672f c33c e1b2 923d
000003b0: 3ff6 8cbd 0614 893c 73d7 3d3d dcb9 c63b
000003c0: 4d78 073d 5f44 9b3d fac3 c13c de73 03bd
000003d0: 0777 84bd 49ef 983d 7dc3 113d 1306 ea3b
000003e0: 26c4 0abd cd90 bbbc 568e 5d3c c198 57bd
000003f0: 007c 8fbd d5f6 ab3d c595 c9bd 0425 aabd
-0.05466561 -0.045359537 -0.007389417 0.049226455 -0.07876455 0.08647229 0.01636295 -0.065547235
-0.0023743275 -0.034109596 -0.04116447 0.008643501 0.040676232 0.02853798 -0.02377836 0.00024979853
-0.056948785 -0.002482866 0.018186491 -0.00897491 0.018113507 -0.028316338 0.020965818 0.016085412
-0.030022841 0.055908754 0.043181453 -0.012371773 -0.04735862 -0.04425947 -0.08219422 0.08462389
0.09261156 -0.068638444 -0.006275675 -0.021365307 -0.06119397 0.058843546 0.054277036 -0.07737504
-0.03050668 -0.0014039781 -0.030603625 -0.0019411155 -0.066108085 0.06483485 0.034768652 -0.010070217
-0.03331341 -0.057231538 -0.010744988 -0.047545247 0.06666287 -0.07344508 -0.07494554 0.0048682713
-0.033477064 -0.008872379 0.04331157 -0.045471545 0.0040186443 0.07270251 0.070603676 -0.06898368
-0.05082065 -0.015681906 -0.038620453 -0.08257561 0.08730649 0.07331939 0.037981607 -0.06968914
0.095350154 -0.022193126 -0.060813602 -0.005595874 0.028201602 0.0023313488 -0.05472635 -0.035984833
0.0015570612 0.026291484 0.08654568 -0.06389912 0.04898088 0.09485532 0.09708919 -0.099390514
0.021544952 0.09871558 -0.059968125 -0.046761476 0.025948724 0.039901827 -0.061480675 0.0036406221
-0.014303884 -0.07504465 -0.0035806056 0.010753352 -0.042592227 -0.04424158 0.08862893 0.03603662
0.058922246 0.05858935 0.07164566 -0.085101455 0.038150396 -0.007246184 0.041306756 -0.042149402
-0.0854528 0.035529457 -0.042337842 0.08297443 -0.06788965 -0.0073516616 0.085125536 -0.059458908
0.0885092 -0.076387115 0.039226737 -0.069420084 0.018226532 -0.014937721 0.023101203 0.038196642
0.093045175 -0.05851459 -0.088847004 -0.032158688 -0.04123702 0.02939278 -0.060215876 -0.03330585
0.057430945 -0.037455916 -0.057776667 0.05775053 -0.053567536 0.08248847 0.044169888 0.0021100307
0.04414811 0.01257767 0.025427118 0.052073266 0.085947044 0.051566888 0.06203721 0.017676318
0.064166516 0.04213632 0.04081696 -0.022377105 -0.081972115 0.032055948 -0.0587854 0.05717784
-0.07634126 -0.060263757 -0.0326158 -0.044615194 -0.08377312 -0.065496765 -0.08176714 -0.07258467
-0.05091522 -4.5462115e-05 0.08853719 0.085529 0.036877673 -0.06653917 -0.075102486 -0.09595707
0.020165518 -0.031113243 0.006796149 0.020904187 0.0758876 -0.0713449 0.018246572 0.029198078
0.056534152 0.07887891 -0.008891475 0.041502126 0.03495638 0.010742624 -0.0546306 0.013210772
0.06157617 0.027023055 0.064022005 0.028970476 0.09714218 0.05372566 0.09227469 -0.09536353
-0.014189393 -0.03693355 -0.07882021 -0.028210953 -0.04522111 -0.01354652 0.08090386 -0.08831376
-0.06036177 -0.025543626 -0.003357284 0.021765543 0.089516826 0.01682964 0.09245583 0.03612982
0.061932053 0.070286594 -0.06306124 0.0891035 -0.011721619 -0.045350615 0.061250135 0.07669389
-0.009508843 0.018427635 -0.061444115 -0.092554174 -0.028414506 0.087321945 0.05250185 0.09316588
-0.022996254 0.03490715 0.023826314 0.07163025 -0.06882905 0.01673318 0.046348047 0.0060646366
0.033073712 0.075814 0.02365302 -0.03209292 -0.06468015 0.07467515 0.035586823 0.0071418374
-0.033878468 -0.022896195 0.013522705 -0.05263591 -0.07006073 0.08396689 -0.098430194 -0.083078414

lstm.bias_ih_l1 f4 [400]
00000000: ebbc 8e3d a420 443c be5e aebd e5d4 e6bc
00000010: 4801 ec3b 1410 6bbd 0cad c4bc f4ce fe3c
00000020: 8a1a 543c 9805 2ebd a60f 4c3d b76f 7abd
00000030: 7b2d b0bd 3930 4e3d 4190 713d 165a b1bd
00000040: 489e bcbd 2b8a 39bd c006 733d 5fbf 013d
00000050: a6ed 9fbd 5b66 203d 5d58 bebc 3499 a9bd
00000060: a03a 0cbd 3d57 11bd 7395 e63c 403a b8bd
00000070: 0aee 90bd af9d a2bd e6b5 7e3d 785a 9ebd
00000080: e13e b9bd e564 0bbc 78c2 22bc 1546 05bd
00000090: 2b66 9a3d 65ad 67bc 42da 283d b833 24bd
000000a0: 336c b4bd c609 c5bc ae27 0c3d 9f7f 653d
000000b0: 981e 07bb 9493 f13b c6b8 153d 084a 99bd
000000c0: 301c 81bd 5526 bc3d f155 aabc c3fa 08bd
000000d0: 4d74 3bbc 9df7 9fbd 35a2 533d 1dd0 cc3d
000000e0: 5b71 edbc 00ea 273c 5602 febc 3338 d9bc
000000f0: 63b5 173d 9f27 bbbd 9b86 8ebd d240 acbd
00000100: c3a3 143d 50cc ca3b 6468 0c3c 343d aabc
00000110: 7dfb 9e3d a14f a3bc f60d 90bd 21b5 a03d
00000120: e413 58bd d356 1d3c 25d5 4cbd e289 64bd
00000130: 07ca b73d 5314 643c 67d8 593c cb9e e53c
00000140: 5ee8 ac3d a01b 54bd a60a 1abd 07cd 20bd
00000150: cf91 94bd ce56 07bc e0a0 893d 9ee2 943d
00000160: b487 95bc 2b67 2b3d 23e2 b1bc 4764 9d3d
00000170: 3a30 74bc 58e2 b1bd e128 be3d d39f 4ebd
00000180: f2a1 13bd 7070 86b9 be27 99b9 d783 8c3d
00000190: 3d7e a6bc d14b b5bd 5b41 30bd 897a 803d
000001a0: 4adf dabc 08e0 98bd db26 bbbc dbbf e6bc
000001b0: c817 b63d f9d8 983d 831d 393d d3ad 333c
000001c0: b465 84bd de58 703d 8a3f bfbb 1388 993c
000001d0: eeac a939 31e3 483d c27c 303d d7f8 3e3d
000001e0: 958b 8fbc 9351 c1bd 7409 b13c 39cc b93d
000001f0: e654 d63c 140b b33d 703c 54bd 4488 bb3d
00000200: 1811 f1ba b5c2 9fbd 7140 a03b a4c2 873d
00000210: 2512 953d 8097 fdbc 4cda 9bbd b7d6 1539
00000220: d7b7 08bd 7e33 98bc 0a10 c53d 7ae5 be3c
00000230: 21f9 8fbd a0d9 f2bc 9766 c83b 4c89 963d
00000240: 190f 5e3d 2119 cc3c 1fde 0b3d 9450 b73d
00000250: 2ba2 853b 9b5f 03bd 1f6a b73d c207 093c
00000260: f7b9 69bd 9a51 2c3d 7f2e 883d a2c1 aebc
00000270: 1d4b 4bbd 3b42 b839 2928 853c 23d0 983d
00000280: 60f9 01bd c8cf d33b f982 fbbc c1df c1bd
00000290: 9c78 2fbd d226 03bd f1fb a5bd 11e7 aabd
000002a0: a243 993c c0cf 8abc 49f3 943c 4ccc 053d
000002b0: cea5 f6bc e9c0 fa3c 8439 183d 7cdf 2f3d
000002c0: 633c 75bd 721c 39bd 3296 803c dc94 87bd
000002d0: 19a2 fd3c 1bc5 a8bd 7d01 98bd 732a b9bd
000002e0: 4cf7 86bd 94c9 46bd 776a 4d3d 25fa a3bb
000002f0: 0f0e 823c f0df 3ebd ecf1 7bbd 0b31 a5bd
00000300: e456 c5bd 7e6a e1bb 140a ff3c 0804 9bbd
00000310: 2e3b d4bb cdeb a7bd 418c 853d 11bb 06bd
00000320: 7918 e73c 278d f8bc cd0e 603d b58f 29bb
00000330: bef2 44bc a3fc 4b3d 27d4 cbbc 5cbc 87bc
00000340: bdaa 333d 4a9f b9bc eb00 2bbd 05dc c23c
00000350: b434 7fbc ed81 c4bc 4f9b 62b9 017c 2e3d
00000360: ad68 a83d 8e8c 2d3d 4292 c2bb b3c3 14bc
00000370: 3f92 5ebd 3da9 7cbc 5e74 ddbb c284 37bd
00000380: 9a1b 5b3d 0eee abbd 6e24 a03c dd62 2b3c
00000390: 5f40 83bd 25ee 423c 677a aa3d 748d 4cbd
000003a0: 751b 4abc d94c 3a3c b70a 98bc 8ab6 18bd
000003b0: d1ff a93b a218 503c 44cc 3d3c c7f4 94bd
000003c0: 47ad 7ebc c885 29bd a161 ab3c 7f8e 85bc
000003d0: 8fd3 a93c 0144 163c 04a7 883c 7689 38bc
000003e0: a9a4 1a3c 4071 9e3d e4f6 063d 9b58 fabc
000003f0: e011 09bd de57 403d 5cac cfbc 5107 2cbd
0.06969627 0.011970673 -0.085141644 -0.028177688 0.007202301 -0.05738838 -0.024008296 0.031104542
0.0129457805 -0.042485803 0.04981961 -0.061141696 -0.08602425 0.050338957 0.058975462 -0.08659761
-0.09209877 -0.045297783 0.05933261 0.031676646 -0.07809 0.039160114 -0.023235494 -0.08281174
-0.034235597 -0.035483588 0.028147435 -0.08995485 -0.07076652 -0.07940232 0.06218519 -0.07732099
-0.09045196 -0.008507942 -0.00993406 -0.03253754 0.07539018 -0.014140462 0.041223772 -0.040088385
-0.088097 -0.024052512 0.03421753 0.056029912 -0.00206176 0.007372329 0.036553167 -0.074848235
-0.063042045 0.09186999 -0.020792933 -0.03344227 -0.0114413025 -0.078109 0.051668365 0.10000632
-0.028984716 0.010248661 -0.031006973 -0.026516056 0.03703822 -0.091384165 -0.06959268 -0.08410801
0.036288988 0.0061889067 0.008569811 -0.020781137 0.07762811 -0.019935431 -0.07033913 0.078470476
-0.052753344 0.00960322 -0.050007958 -0.055795558 0.089740805 0.013920861 0.013296223 0.02802982
0.08442758 -0.051784158 -0.03760781 -0.03925803 -0.07254373 -0.008260442 0.067201376 0.07269786
-0.018253185 0.041846436 -0.021714276 0.07685142 -0.014904076 -0.0868575 0.09285141 -0.05044539
-0.036043115 -0.00025642244 -0.00029212044 0.06861084 -0.020323867 -0.088523515 -0.043031078 0.06273372
-0.0267178 -0.074646056 -0.022845676 -0.028167656 0.08891255 0.07463259 0.04519416 0.010966736
-0.06464711 0.0586785 -0.005836432 0.018741643 0.00032363035 0.04904479 0.04308773 0.04662403
-0.017522613 -0.09439387 0.021610953 0.090721555 0.02616353 0.08742347 -0.05181545 0.0915685
-0.0018391935 -0.07800809 0.0048904945 0.06628922 0.072788514 -0.03095603 -0.07609996 0.00014289735
-0.03337845 -0.01857924 0.096222 0.023302782 -0.070299394 -0.029644787 0.0061157453 0.07350406
0.054213617 0.024914326 0.034147378 0.08950916 0.00407817 -0.0320736 0.08955788 0.008363666
-0.057062116 0.04207001 0.066494934 -0.021332566 -0.04963218 0.0003514456 0.016254501 0.07461574
-0.031731963 0.0064639784 -0.030702101 -0.09466506 -0.04283963 -0.032019444 -0.08104695 -0.08344854
0.018709008 -0.016944766 0.018182414 0.032665536 -0.030108359 0.030609565 0.037164226 0.04293774
-0.059872042 -0.045193143 0.015696619 -0.066201895 0.030961083 -0.0824072 -0.07422159 -0.090413
-0.06590137 -0.048532084 0.05015036 -0.005004185 0.015875844 -0.046600282 -0.06151001 -0.08065995
-0.09635714 -0.00687915 0.031132735 -0.07569128 -0.0064767813 -0.08199272 0.06520892 -0.032893244
0.028209912 -0.030340744 0.054701615 -0.002587301 -0.012020765 0.04980148 -0.024881436 -0.016569309
0.043864 -0.022658963 -0.041748922 0.023786554 -0.01557653 -0.023987735 -0.00021610897 0.042598728
0.0822309 0.04237037 -0.0059378454 -0.009079861 -0.05433869 -0.015421209 -0.006758257 -0.044804342
0.05349312 -0.08395015 0.019548621 0.010460583 -0.06408762 0.011897598 0.08324128 -0.049939588
-0.012335648 0.011370861 -0.018559797 -0.037283458 0.0051879664 0.012701185 0.011584345 -0.0727325
-0.015544242 -0.04138735 0.020920577 -0.016303299 0.020730762 0.009171487 0.016681202 -0.011263242
0.009438672 0.077364445 0.032950297 -0.030559829 -0.033464313 0.046958797 -0.025350742 -0.041999165
