KGs/forte_family/GRU_{'hidden_dim': 100, 'n_layers': 2}_.pt (torch_old, 439039 bytes, 16 tensors)

gru.weight_ih_l0 f4 [300, 40]
00000000: 5f4b 82bd e171 ca3d 0a7f c63d e6e2 2e3c
00000010: 69ab 213d c39d c23d 2dbd a73d 0283 aabd
00000020: e813 193d 7c41 993d 45fc 8a3d d123 c1bd
00000030: 5f7d aa3c f6d3 67bc 62b9 193d 035f 503d
00000040: fa36 a0bd 8468 12bc b2a0 383d c493 98bd
00000050: 015f 2ebd 7525 58bd 2895 8fbd a378 963d
00000060: 6350 e0bb 160a 4b3d b68a a73d 042d 853d
00000070: a051 b6bd c7fe 7cbd 5bd9 34bd b3ba 03bd
00000080: f7ea 2ebd 1341 843d 2b87 863b 7a06 54bd
00000090: 8531 433d e96a c3bd 3549 54bc f4ce 093d
000000a0: 8b87 cc3b feaf 753d 75db b73d d02f a53c
000000b0: 99dc 07bc c7af 513d 474c e0bc 6219 8d3d
000000c0: 6895 673d 694c b3bd 525d 05bd 754d a63d
000000d0: 558d cc3d cc16 523d ef39 e03c efe2 e3bc
000000e0: 67bf 0a3d 3b95 ca3d 0b40 aebd 229a 2b3d
000000f0: 9942 0c3d 43bc 36bd 326c 90bd 7c9b 2f3b
00000100: fd37 13bd 4b41 843d 247d 433d db0a 8e3d
00000110: f233 e8bc 5756 67bd b233 a93d a6dc 353a
00000120: bef8 653d 07d1 c23d c8ea bcbd 491e d6bc
00000130: ff8a 193c 0324 9ebb 969a 45bd d90a 2e3c
00000140: 6c7e 6abd c3af 983d 62e6 c0bc 79d5 82bc
00000150: bc65 983c a2a2 c9bd 7149 4bbc b9fd 80bd
00000160: 1598 893d d45c bf3d 0f74 533d cfcf 7abd
00000170: 8ca4 c8bd 386a 803d 200a 163d fcd4 023d
00000180: 2328 6dbd 230d 04bc 6c80 3b3d e7b6 3c3d
00000190: 8638 b63d e799 acbd 04f6 99bd 87d2 733c
000001a0: 8d78 62bc e2c4 80bd 9059 933d 0510 80bd
000001b0: a39b 143d 50f4 40bd 4149 a3bd a7f4 48bc
000001c0: 3a5c b3bd 8c68 a83c 4f1f 97bd a1c7 d43c
000001d0: fc8e a3bd c1cc b2bc 0178 8abd b769 10bd
000001e0: 9b97 b4bb 045c 60bd aa18 3fbd eabb b53d
000001f0: 3f5b b43d 1a3b aabd 2595 4b3d b90c c1bd
00000200: b0e6 98ba b27d 97bd 5d76 01bb 69f6 89bd
00000210: 2cbb 803d b66a 043c 9cec e2bb 41bc a7bb
00000220: bf58 cbbd 8cb6 95bc 8fc7 a43d c5b2 0fbc
00000230: de3c bf3c b87c 8b3c 1fc9 533d b098 673c
00000240: 3052 43bd 9dc1 183d a56a 0a3d 6dbb 593d
00000250: d1af 9d3d 7171 bb3d 929c f43c be84 ff3c
00000260: 0a24 143d f703 fbbc 9e8d 90bd 03b3 913d
00000270: f899 38bc a115 bcbd 0fd0 163d cca1 823d
00000280: d04d b4bd 4b22 993c 6758 8e3d ab16 993d
00000290: d36e f0bc 4f70 d93c ea0c ca3d b76a c23c
000002a0: c734 b9bd c3bf 3f3c 022f b8bc c095 46bd
000002b0: 257b 233d 4e21 bfbd edca d5bc f843 513d
000002c0: 688c 133d 27c3 fbbc 805a 72bc a6fe 5abd
000002d0: 14f6 bdbd e2ad b6bd c84e 903d 506e a63b
000002e0: b0a0 9a3d 6e4a 853d 9c38 8b3d 6bca 5c3d
000002f0: e92a 8b3d f6aa bb3d f5d9 323b 8477 c03d
00000300: bfc6 74bd 5634 c73d 37ca 9abd 38b4 9ebd
00000310: ef04 93bd 94b8 62bd 1b52 813d c0a3 b1bb
00000320: 67b7 c93d ccc3 ca3d 2722 483d a019 a33d
00000330: f087 50bd 6678 a53d 508f 213d 3ce1 4d3d
00000340: 4c88 b83d 9906 8239 ef1d 8e3d 062e b23c
00000350: 146c 1d3d c3bb 6e3d fdf6 bbbd 675c b53a
00000360: cbf2 78bd 2a85 b73d df68 a63d 02c5 313d
00000370: 724b af3d 5187 ae3c fe92 acbc f5c9 58bc
00000380: 3f66 a83d dbd3 23bc 310f bdbd 894c bcbd
00000390: a91e d5bc 14bf 013d c566 c93c 03ed 5c3d
000003a0: c24e 69bd 7ff7 63bd 0478 823d 257f 673d
000003b0: 1770 643d 3c2d b1bd dfe7 5dbc d946 12bc
000003c0: 1864 6a3d 89f9 a53d f997 973d eeb2 0b3d
000003d0: e324 af3d 8074 30bd c3f3 82bd 081d 353c
000003e0: d24e a9bd 0f84 4fbd 06fa 97bd f3c5 ac3d
000003f0: b7e5 3abd f0d5 bbbc bc06 f13c 362c c23d
-0.06362032 0.09885002 0.096921995 0.010674214 0.03947011 0.09502747 0.08190379 -0.08325769
0.0373725 0.07483193 0.06786398 -0.094306596 0.020811735 -0.0141496565 0.03753031 0.05087186
-0.07822986 -0.008936051 0.045075126 -0.07450059 -0.04257107 -0.052770097 -0.07010871 0.073472284
-0.0068455203 0.049570166 0.08180754 0.06502727 -0.089022875 -0.061766412 -0.0441526 -0.032160472
-0.04270455 0.064577244 0.0041054687 -0.05176399 0.047654647 -0.09541876 -0.012956907 0.03364463
0.006241744 0.059982292 0.08977405 0.0201644 -0.008292341 0.051193025 -0.027380122 0.06889607
0.05653897 -0.087548085 -0.0325597 0.081202425 0.099878944 0.051291272 0.027371375 -0.027818171
0.03387394 0.09891745 -0.08508309 0.04189504 0.0342432 -0.044613134 -0.070518866 0.0026795557
-0.035942066 0.06457766 0.047726765 0.06935664 -0.028345082 -0.056478824 0.08261813 0.0006937481
0.056145422 0.09512525 -0.092244685 -0.026137488 0.009371518 -0.0048260703 -0.048243128 0.0106227035
-0.05724947 0.07455399 -0.023547355 -0.015970932 0.018603198 -0.09845473 -0.0124076465 -0.06298394
0.067184605 0.093438774 0.051624354 -0.061233338 -0.0979701 0.062702596 0.03663075 0.0319414
-0.057899605 -0.008059773 0.04577677 0.046072867 0.088975 -0.08427792 -0.07517627 0.014881737
-0.013822687 -0.062875524 0.07194817 -0.062530555 0.03628124 -0.047107995 -0.079729564 -0.012265361
-0.08757825 0.020557664 -0.073790185 0.025974097 -0.079862565 -0.02182615 -0.0676117 -0.035257068
-0.005511237 -0.054775253 -0.04665438 0.088737324 0.08806466 -0.08312054 0.049702782 -0.09426255
-0.001166543 -0.07397021 -0.0019754388 -0.06736452 0.062857 0.0080820825 -0.0069251787 -0.005118877
-0.09929036 -0.018275522 0.08045875 -0.008770649 0.023344453 0.017027244 0.051705476 0.014135525
-0.047685802 0.03729402 0.03379311 0.05315726 0.0769955 0.091524966 0.029859815 0.031191226
0.036167182 -0.030641539 -0.07058261 0.07114222 -0.011267178 -0.09183813 0.036819514 0.063785166
-0.08803904 0.01869311 0.06950455 0.07475027 -0.02934972 0.02654281 0.098657444 0.023732526
-0.090432696 0.011703434 -0.022483353 -0.048482656 0.03991236 -0.09332524 -0.02609774 0.05109021
0.036022574 -0.030732704 -0.014792085 -0.053465508 -0.09275451 -0.08919884 0.07046276 0.0050790682
0.0755018 0.06508337 0.06797907 0.05390398 0.06795294 0.091634676 0.0027290557 0.09397796
-0.05975985 0.09726779 -0.07558101 -0.07749218 -0.071786754 -0.05535181 0.063144885 -0.005421132
0.09849434 0.099006265 0.048860695 0.07963872 -0.05091089 0.08079605 0.039443314 0.05026363
0.090103716 0.00024800448 0.06939303 0.021750461 0.03843315 0.058284532 -0.09177969 0.0013836742
-0.06077842 0.08960946 0.08125471 0.043400772 0.08559312 0.021304758 -0.021066185 -0.013231744
0.08222627 -0.009999241 -0.09231413 -0.091942854 -0.026015596 0.031676367 0.024585137 0.05393697
-0.056959875 -0.055655953 0.063705474 0.05651774 0.05577096 -0.08651206 -0.013544052 -0.008928024
0.057224363 0.08104236 0.07402033 0.034106188 0.085519575 -0.043079853 -0.0639415 0.011054285
-0.08266987 -0.05066305 -0.07420735 0.08436193 -0.04562923 -0.022929162 0.029422157 0.09481089

gru.weight_hh_l0 f4 [300, 100]
00000000: 337b 8fbd ea6a a13c 6089 0ebd 5e9b 8a3d
00000010: aca5 a4bd 030c 0abd 1bee b53d 83c2 46bd
00000020: 2a3f bfbb 3295 d63c f937 d3bb d9fa 3c3d
00000030: f6be 3a3d 7fa5 a1bd 11ea 873d 3c10 b73d
00000040: 3c94 0f3d 7f3f af3b a55c 963d 7eae 06bb
00000050: d071 b23d 99eb e3bb 0c86 3abd 53ff 34bd
00000060: 1f42 0ebc d2c6 703c 8e57 8fbd cc5f 79bd
00000070: 75f3 8ebd d472 933d e3b8 b43d 4a27 9bbd
00000080: 848b 8cbc 995e 413d 32e6 b3bd cd81 cb3d
00000090: 6516 ab3d a446 e23c ab7c cdbc 321c aebd
000000a0: 3729 1a3d bc06 8e3d f6aa 8bbd 48fa 4fbd
000000b0: 16fc 4cbd f35d 6e3c 208b c73d a513 a3bd
000000c0: 7ba7 aabd b3b2 a5bd fe5c b73d f825 dcbc
000000d0: 518d 9fbd e2bc 833c 716f c3bd a5f0 93bd
000000e0: fb88 da3c 0e18 cc3d d1dd 713c 0e46 cf3b
000000f0: 1996 a5bd c604 40bc c42d 663d 8e92 a73d
00000100: 8e9e 1fbd b1f2 b13d 350c 80bd 664d c53d
00000110: 29d3 a23d 8f25 0abd 3079 62bd fbb2 d83c
00000120: 308f 893d 8777 d03b dce4 be3d 3ffd 143d
00000130: 6cc5 a1bc d59b 53bd 8f83 2fbd 54e3 803c
00000140: d1f9 29bc ef9f ffbc 8303 703d 0bbe 35bd
00000150: 639d 4f3c 4171 62bc eeb0 b5bd bb21 8d3d
00000160: a665 cc3d 9c76 15bb 2992 90bd a88e 56bd
00000170: c875 adbd 5f93 c13d 0263 5fbd 6a82 bcbd
00000180: 5e4a 45bc ddef 253d 4479 1dbd b773 8e3d
00000190: e719 9ebd b156 89bd fb99 42bd 8cc9 afbd
000001a0: 7e2f ba3d d068 713d 1612 d23b cc7b 0f3d
000001b0: 9ee5 64bd 66e4 983d bddd 253d de5e 37bd
000001c0: e466 45bd 433d 8fbd b5a6 22bd a6e7 13bd
000001d0: 9ce8 97bd f20c 183d 175f f43c d552 8bbd
000001e0: e9d7 88bd 7341 4d3d 8ae9 4b3d bfe2 de3c
000001f0: c89b 993c 470c 843c d8ce b23d b84f a13d
00000200: ea80 083d 49c5 063d 8a21 e0bc 1abe 403d
00000210: 39a0 b2bd 1dbf 393c 0fc4 edbc ad4f a4bd
00000220: 62cf a6bd 0fb1 cc3d 220d 99bd 5287 f438
00000230: 825f 703d 38df c7bd 9796 c93c 4646 2b3b
00000240: d635 abbd 69e2 ba3d 0923 a9bc 5ec3 913d
00000250: b8d6 acbd ea35 21bd 0b57 edbb 18a0 6bbc
00000260: 350c c1bb 936b 29bd e27c 3fbb 6681 3f3b
00000270: 62b4 8b3d 3a3e d43c aa1e a23d 88b3 1bbc
00000280: 845d cd3c 3f81 10bd 2c9b 55bd a4c1 5b3d
00000290: 1173 91bb bf48 eabb 4861 36bd 604b c2bc
000002a0: ca40 ab3d 3a94 d43c bac0 b0bd 6532 80bd
000002b0: eb3c 243c eb25 68bd 4ac2 a3bd b446 ac3d
000002c0: 84c3 a9bd 5c4d b6bd f30b c13d e2ce 833d
000002d0: 0cdb 60bd 85c8 1b3d c568 d5bc 0f26 943d
000002e0: 5466 e9bc 51ad c2bd ef7e a9bc e1fb 803d
000002f0: e322 5ebd bb47 013b e92b b73c ba06 66bc
00000300: 1b3f 2dbd 38ae bbbd cd6c 3f3d 789e ae3c
00000310: a120 07bd ac51 43bd 6765 91bd 2fbe a5bb
00000320: a622 e0bc 46d1 23bd cfa7 5e39 be1d 43bd
00000330: ca8e b63c 72ab 243d 3587 ffb8 39b6 403d
00000340: 8802 c93d 9d9c b5bd 5c48 afbc 7c86 eebc
00000350: c917 8abd e876 873d 01de 183d 50e0 abbb
00000360: 8e1c 6ebd cc0b 8f3c c3a6 953d b785 7e3d
00000370: 5939 0b3d 5d1d eabc 2499 0bbd 4f2a 49bd
00000380: f057 87bd 0970 babb 9528 0ebd 986d a83d
00000390: a08d 93bd 6d0b a9bd 40da b53d 18ed 5fbd
000003a0: 154d 733d 5bcf 1e3d f94f 3bbc cbed 9f3d
000003b0: e56e 853b caac 3ebd e218 903c 69fd 3b3d
000003c0: aa25 783d 428b 5ebb d34f 3b3d 4cbb 723d
000003d0: 6030 5cbc daea 49bd 9eda cbbd 75d6 973d
000003e0: 204c c9bc 821a 803b 3f7a 163d f0ad 413c
000003f0: d4ef c7bd 163f 693d 6fdd 9abd 1a77 513d
-0.0700592 0.0197043 -0.03479898 0.06767915 -0.08039412 -0.03370286 0.08883306 -0.048525345
-0.005836387 0.026194189 -0.0064458814 0.046137664 0.04559227 -0.07892894 0.066364415 0.08938643
0.035053477 0.0053481455 0.07341889 -0.0020550783 0.08713114 -0.0069555757 -0.045537993 -0.04418881
-0.008682757 0.01469584 -0.069991216 -0.060882375 -0.069800295 0.07199636 0.08824327 -0.07575853
-0.01715637 0.047209356 -0.08784141 0.09936867 0.08353881 0.027621575 -0.02508386 -0.085014716
0.03763696 0.06934878 -0.068197176 -0.050775796 -0.050045095 0.014548766 0.09743333 -0.07962731
-0.083327256 -0.08090725 0.08953284 -0.026873574 -0.07790626 0.016081277 -0.0954274 -0.07223634
0.026676646 0.099655256 0.014762358 0.00632549 -0.080852695 -0.011719888 0.05619599 0.0818225
-0.03896957 0.08688868 -0.06252328 0.09633903 0.07950432 -0.033727225 -0.055291355 0.026452532
0.06716764 0.006361905 0.09320995 0.036374327 -0.019747458 -0.051662285 -0.042850073 0.015733398
-0.010374502 -0.031204192 0.0585971 -0.044370692 0.012671801 -0.013820947 -0.08871637 0.06891199
0.099803254 -0.0022806292 -0.07059128 -0.05238214 -0.084697306 0.09451937 -0.05453778 -0.09204562
-0.012041656 0.040511955 -0.038445726 0.069556646 -0.07719784 -0.06705988 -0.04751013 -0.08583364
0.0909109 0.058937848 0.0064108474 0.03503017 -0.055883043 0.074654385 0.04049467 -0.044768207
-0.048193827 -0.069941066 -0.039709765 -0.03610959 -0.074174136 0.03712172 0.029830499 -0.06802908
-0.066818066 0.050111245 0.049783267 0.02720773 0.01875104 0.016119136 0.087308586 0.07876533
0.033326067 0.03290299 -0.027359743 0.047056295 -0.08721966 0.011337069 -0.029024152 -0.080230094
-0.08145024 0.09994709 -0.07473208 0.00011660032 0.058684833 -0.097593725 0.02460794 0.0026134416
-0.08359878 0.091252156 -0.020646589 0.071173415 -0.08439392 -0.039358057 -0.0072430423 -0.014381431
-0.005891348 -0.041362356 -0.0029218723 0.0029221415 0.06821515 0.025908578 0.07916005 -0.009503253
0.025069006 -0.03527951 -0.052149937 0.053651467 -0.004438766 -0.0071497853 -0.04452637 -0.023717582
0.08361967 0.025949586 -0.0863051 -0.06259612 0.01002429 -0.056676786 -0.07996042 0.08411923
-0.08289245 -0.08901474 0.09426107 0.06435944 -0.0548964 0.038033027 -0.026050935 0.072338216
-0.028491177 -0.09505714 -0.02069041 0.06298042 -0.05423249 0.0019726593 0.022359805 -0.01403969
-0.04229651 -0.09164089 0.04673462 0.021315798 -0.0329901 -0.04768531 -0.07099419 -0.005058072
-0.027360272 -0.0399945 0.00021234083 -0.047635786 0.022284884 0.040202565 -0.00012184532 0.04704878
0.09814936 -0.08867762 -0.021396808 -0.029116862 -0.06742818 0.066144764 0.037321094 -0.005245246
-0.0581327 0.01746168 0.07307198 0.06213924 0.033990238 -0.028578455 -0.034081593 -0.049112614
-0.066085696 -0.005689625 -0.03470667 0.08224028 -0.07204747 -0.082541324 0.088795185 -0.05466947
0.059399683 0.03877197 -0.011432641 0.07809027 0.0040720575 -0.046551503 0.01758999 0.045895968
0.060582794 -0.0033957516 0.045730423 0.05926065 -0.013439268 -0.049296238 -0.09953807 0.07413951
-0.024572432 0.00390941 0.036737677 0.011821255 -0.097625405 0.05694493 -0.07561766 0.051138975

gru.bias_ih_l0 f4 [300]
00000000: 8d3c 283d e727 913d 510e 9cbd 0f37 c4bc
00000010: 4d61 3f3c 37a9 d53c ac21 55bd 96ed c53c
00000020: b461 373d 7885 91bd bf26 dcbc c272 443c
00000030: e42b 1e3d bc88 8bbc 3f76 653d 1894 dabc
00000040: 0c11 d13c a487 a03c 3449 67bc 82f9 54bd
00000050: 99a3 983c 3fe7 1c3d 20f6 48bd a914 b1bd
00000060: 6283 c43d a442 65bd bd8b 1fbd f69f 513d
00000070: fe28 92bb 8980 e13c fcbb 06bc c8f2 c03d
00000080: c186 5bbd 0ecf aebd 46f7 043d 412a c53d
00000090: cabe 8abd 4844 2e3d f65e 9bbd b166 9a3d
000000a0: d4b8 b03c 4df0 543d 2cf4 c53d 4f54 d7bb
000000b0: 7af8 86b9 d470 a13d 6ac2 5f3d 3cbf 973d
000000c0: 4893 913d d21a 3b3d 1ca1 833d e559 913c
000000d0: 704f 983d 80ba 13bd 3157 ea3c 997d cbbd
000000e0: d393 46bd bb67 4f3d 55bf a7bd 6ec9 733d
000000f0: a78d 743d 12ac a4bc e7ae 46bd 0634 b0bd
00000100: e004 7ebc 1467 c7bb a2e6 2d3c 8f99 abbc
00000110: 5075 9ebc 09e7 25bc c2f8 0c3d 2b92 90bd
00000120: 7a73 c5bc 3bf5 b1bc 0cd0 a03d 332a 203b
00000130: f1e4 45bd 251a e0bc 10f2 8e3d 950d b1bc
00000140: f094 9b3c 8945 c2bd 6ec5 513c fd23 23bd
00000150: 6987 86bd 07ea 8fbd 3b1c 16bd cd76 db3c
00000160: af43 a63d 86a5 9cbd 4f7e 893d 66c9 c23d
00000170: c4a7 3bbd 2904 3b3b 7005 5ebd c051 a63d
00000180: 927b 23bd 2b96 443d 303a 553c c8d1 a7bd
00000190: 2e27 8d3d ada3 c73d a904 823d ceb3 703d
000001a0: 891d cc3d 48ce 68bb 9501 69bd 49d9 8f3c
000001b0: a6c5 3ebd 5a35 a63d 7a8f 9d3d c143 8a3d
000001c0: 2da8 153d 160c 48bc 4946 b2bc 803a 06bd
000001d0: 266e a0bd 1379 b4bd 8a8f c1bd c4ea a6bd
000001e0: 6d24 75bd 9c94 3a3c 9fc8 f33c daf0 a23d
000001f0: 0187 29bd 4937 943d 3c3f 99bc 9225 2abc
00000200: faf8 87bb 2a3e f1bc 7ade 7abd 0569 01bd
00000210: a512 af3d 4a2a 89bd 0863 aabb 04f6 653d
00000220: f6cc c5bd 3683 973d fc8c 74bd 7791 793d
00000230: 3118 0d3d 1afb 553d a61c c63d 2c9c 373c
00000240: 6ad7 633d 25fd a03c 4b95 74bc a719 c43d
00000250: dbfa 5e3d f359 b7bc 40e9 ffba dcd2 74bc
00000260: a06a 243d 401d 9f3d 450f 203d dccb b4bd
00000270: ff58 873d d817 bfbd b728 14bd c08a 2a3d
00000280: 6e41 55bd 6014 a2bb b3b9 f43c 8e5c cabd
00000290: 780a 8abc af1e 57bc af86 453d 929b 99bd
000002a0: 06f7 483d c46e ab3d bdee a4bd 40d7 0b3d
000002b0: 6f74 c9bd 89f3 2ebd f40f 5ebd 44eb 9abd
000002c0: a472 2e3d 701e c53d a24b bb3d 1f18 5e3d
000002d0: 4b80 9dbd 56fc 683d bf42 03bd 8811 a3bd
000002e0: 1181 ac3d 6451 c53c 53b8 173d cf47 113d
000002f0: 9418 afbd 8263 853c 49de 423d 217d 2f3d
00000300: 7b0d 993d c7ca 6bbd 8ea9 c83d 0d8e 83bd
00000310: 354e 7abd d704 c7bc 4b4a 9bbc a200 673d
00000320: 0055 45bd 8416 b5bd 5ac5 be3d f5da 42bd
00000330: 88ab 753d 12c2 583c e702 a43d 252a fcbc
00000340: 18ba f63c c2f3 cabc e091 55bb 1dbb a13d
00000350: 12ca 8cbd fbca 24bd fcef a6bd 40a6 80bd
00000360: cb6b 9c3b a30c 333c b65c 183d cbff c3bc
00000370: 4b14 623d 2591 c0bd 6b47 703c 51dd 873d
00000380: 5bc3 b4bd 60c0 893d 40b5 ca3d 8c9b 113d
00000390: f0d8 9bbc 995f 9fbc c237 18ba f132 bf3d
000003a0: 900d cf3c 7489 39bd c092 ec3a 3f39 96bc
000003b0: 621a 143d a503 97bc de20 18bb 0501 853d
000003c0: bfca 9dbd 52b8 553d 4013 65bd 75d5 b8bd
000003d0: 0914 26bd 6866 46bc 4899 b4bd ddb9 3bbd
000003e0: 61fd e8bc cac2 8a3d 67c8 a6bd 139e b13d
000003f0: 5927 29bc 4d3e 323d ed6b a0bd 7e6e a0bc
0.04107337 0.07087689 -0.07619918 -0.023952035 0.011680913 0.026081664 -0.052034065 0.024161141
0.04477091 -0.07105535 -0.026873944 0.011990251 0.038616076 -0.017032973 0.05602097 -0.026681945
0.025520824 0.019595928 -0.014116574 -0.05199576 0.018632697 0.03830647 -0.049062848 -0.08646519
0.09595372 -0.055971757 -0.038951624 0.05117794 -0.004460453 0.02752711 -0.00822353 0.09421307
-0.05359531 -0.08535586 0.03246238 0.096272 -0.067746714 0.042545587 -0.07586472 0.07539118
0.021572508 0.05198698 0.09665713 -0.0065713297 -0.000257436 0.078828484 0.054628767 0.07409522
0.0710817 0.045679875 0.064272135 0.01774306 0.074370265 -0.036066532 0.02860603 -0.09936065
-0.04848082 0.050636034 -0.081907906 0.05951827 0.059705403 -0.02010158 -0.048506644 -0.08603673
-0.015504092 -0.006085286 0.010614069 -0.020947246 -0.019343048 -0.010125884 0.03441692 -0.07059129
-0.024102915 -0.02172338 0.07852182 0.0024439215 -0.04831404 -0.027356217 0.069797635 -0.021612922
0.018991917 -0.09485919 0.012803419 -0.039829243 -0.06568796 -0.07027059 -0.036648016 0.026790047
0.08118378 -0.076487586 0.067135446 0.0951107 -0.04581429 0.0028536415 -0.054204404 0.08121061
-0.039912768 0.047994774 0.013014361 -0.081943095 0.068922386 0.097480156 0.06348545 0.058765225
0.09966571 -0.0035523344 -0.056886274 0.017559664 -0.04657521 0.08115645 0.076933816 0.06751204
0.036537338 -0.012209913 -0.02176203 -0.032770634 -0.07833509 -0.088121556 -0.09451206 -0.08150247
-0.05984919 0.01138797 0.02975875 0.07956095 -0.041388515 0.07237107 -0.01870691 -0.010384934
-0.0041495534 -0.029448587 -0.061247326 -0.031594295 0.08548478 -0.06697519 -0.0051997937 0.056142822
-0.09658234 0.073980734 -0.059704766 0.06092974 0.0344469 0.052241422 0.09673433 0.011206668
0.055625357 0.019651959 -0.014928172 0.09575205 0.054438453 -0.022381758 -0.001952447 -0.014942851
0.040140748 0.07769251 0.039077062 -0.088279456 0.066087715 -0.0933072 -0.03617164 0.04163623
-0.05206435 -0.0049462765 0.029873705 -0.09880935 -0.016850695 -0.013129874 0.048224147 -0.07500376
0.049063705 0.08370736 -0.08053348 0.034140825 -0.09836661 -0.042712722 -0.054214433 -0.075644046
0.0425898 0.09624946 0.09145285 0.054222222 -0.076904856 0.05688127 -0.032046076 -0.07962328
0.08423055 0.024086662 0.03704102 0.035468873 -0.0854961 0.0162828 0.04757527 0.04284394
0.07473274 -0.05756643 0.09797965 -0.064235784 -0.06110974 -0.0242943 -0.018956324 0.056397088
-0.048176765 -0.08842185 0.093149856 -0.047572095 0.059978038 0.013229864 0.08008366 -0.030781815
0.030118033 -0.024774436 -0.003258817 0.07897017 -0.06874479 -0.04023264 -0.08151242 -0.0628171
0.004773592 0.010928306 0.03719779 -0.023925683 0.055195134 -0.09402684 0.014665465 0.0663401
-0.088263236 0.06726146 0.09897852 0.03554873 -0.019024342 -0.019454764 -0.00058066484 0.09335888
0.025275022 -0.0452971 0.0018049106 -0.018337844 0.036157973 -0.018434355 -0.002321295 0.06494335
-0.077046864 0.052177735 -0.05592656 -0.09025089 -0.04054645 -0.0121093765 -0.088182986 -0.04583155
-0.028441133 0.06775434 -0.081436925 0.086727284 -0.010324323 0.043516446 -0.07833085 -0.019583937

gru.bias_hh_l0 f4 [300]
00000000: 2047 48bd 8595 a63d cefb c03d 776e 5bbd
00000010: fe92 a5bd 91e8 623d 098e 6d3d 915c cabd
00000020: 5f88 0cbc 1fab c3bd 2735 cc3d f6f0 ad3d
00000030: 1382 ba3d 5c8e d0bc 1e86 993d d419 6e3d
00000040: d2e4 373d cd1d c03d 4900 c83d 9f23 b5bd
00000050: 0def 14bd a0bf c0bd e6d0 913c 69cc 9e3d
00000060: bf88 59bd 4412 67bd 6e95 e83c 5f0a 6dbd
00000070: 07f4 53bd a9ad 47bc d387 5b3d 0b78 bf3c
00000080: cd4d b83d 7927 8bbd 8f2d b8bd 5026 b0bd
00000090: ace4 c9bd 62f8 a0bd c984 b43d b259 43bd
000000a0: 4cf4 913c 95b4 77bd 984d aabc b79e 16bd
000000b0: 77a3 c2bc 3fac 5e3d 4e5d 3e3d 5a1f 933d
000000c0: 8a57 bd3d 36ae df3b 2eff 96bc 6972 b0bd
000000d0: 3d81 a7bd 69b5 48bd c37b 733c fd32 b53d
000000e0: 722d a3bd 93a4 b7bd df4a bfbd ae5a 4d3d
000000f0: 4753 bf3d 3ea1 463d c2ba 88bd a047 49bd
00000100: f863 4cb9 9fb5 123d 1ef0 66bc e0c5 89b9
00000110: a1de 06bd 5b01 bdbd 9b88 9abd 49ad 3b3d
00000120: 5ccd 82bd 571c b7bc 822a 663d f388 48bc
00000130: 3ee1 c1bd 15bd b03d e0af 9c3b 5831 2cbd
00000140: e2c7 27bd 4034 3dbd b883 e739 ae9d 873c
00000150: 48e6 4dbc 54b6 4bbd d6f5 973d 679e 46bc
00000160: 2e52 943c c2e8 6dbd 5f11 82bd 55aa b4bd
00000170: ab7d b93d 4288 953d 663b afbc 2d95 7dbb
00000180: 5a50 ac3d b38d a8bd 3525 83bd 3a94 02bc
00000190: 9c48 a33b d64b 7bbd 571f b1bd 5266 2c3d
000001a0: 8d50 83bd 91f0 b13d 2934 85ba 249f a5bd
000001b0: 63ee bbbd 51fd 8abd a060 42bd 919f 833c
000001c0: d0d8 60bd be89 453d ca4c 103d 3e6e 703d
000001d0: d32d 50bd f9c5 483d 2546 05bd 7566 c0bd
000001e0: beef a8bd fede 0ebd ed9f 8bbd 4d39 a5bd
000001f0: 0c6b a83c c9ff af3c a8c4 343d 2c61 b0bc
00000200: 4ac1 e1bb 38ab 1dbd 785d 84bc 9907 843d
00000210: bf8e 723c 44c9 803d e6d1 a63d ef89 8abd
00000220: 0ec1 9cbd 3b59 c3bd 27bf 8d3d 7efb 21bd
00000230: ab82 e8bc 4f25 95bd 089b 9f3d 79fd e2bb
00000240: f497 973d 19a4 ef3c 0108 b4bd 3481 bfbd
00000250: 616f 9d3d 157e f63c 3e73 6c3d a40e 4c3c
00000260: 3bbb 973d f1fa 203d 4c0c 4dbd 120e d03c
00000270: 84f6 bbbd cd4c c83c 924c 833d d55f 893d
00000280: c5d6 b8bc abe7 94bc bf2d 84bd 398c c63b
00000290: 1ba3 983d c4d1 64bd f0b9 c83c 5082 e7bc
000002a0: 46a7 713d cc60 8e3d 4a5c f3bb 1d53 a53b
000002b0: 5ad7 343d 75d4 723d e5f2 a7bd c7d9 48bc
000002c0: 3604 90bb 4638 913c 4825 a6bd 4717 04bd
000002d0: 999a 2e3d 6896 9b3d bc24 b63d 54ee b63d
000002e0: b288 b3bc c24c 07bc 08de aebd 5838 c13d
000002f0: 3b6b 923b b35d 703d f4c5 c6bc 4946 bc3d
00000300: c31f b13d 358f 673d a3e9 c3bd de08 9d3d
00000310: e170 bbbc b47d c83d 89ec 7bbd c2cd 5a3d
00000320: 9b56 4cbc 0241 95bd 91d2 a03d 341f b8bd
00000330: f39d 253d 3b04 5c3d f61e 3d3d 5a89 a3bd
00000340: 2e0e 4b3d 0e4b 27bd 60ea 52bc d3b2 613d
00000350: 1a75 1e3c 2140 63bc 2da0 61bc 5ad3 bf3c
00000360: 0f32 c73d c301 0b3d 373b b63d f302 8c3d
00000370: dfa7 cc3d e813 653d 7ba5 7dbd 66a1 9abd
00000380: 74ea 2dbd 22ce 673c 1884 bfbc 3aef 493d
00000390: 0ee7 51bd 3d47 26bd 0941 20bd 16e9 c53c
000003a0: 0766 c4bd 625f a53c 6b43 81bd 7016 a0bd
000003b0: 2c7f 903c bde7 d9bc 7a1f a43d f376 adbd
000003c0: 607d 5b3d 2793 723d 62c2 57bd 6400 e93c
000003d0: 03e8 813c 6fcd 48bd 43eb 88bd 85b6 37bc
000003e0: ca94 333d 4183 c9bd b4fb bdbc 3921 d33c
000003f0: a7ef b0bd 2747 993d 24bb 493d e777 853c
-0.048895955 0.08133987 0.09423028 -0.053572144 -0.08084677 0.055397574 0.057996783 -0.09880937
-0.008577435 -0.09554123 0.099710755 0.08493225 0.09106841 -0.025458507 0.07496284 0.0581301
0.044895954 0.09380684 0.097656794 -0.08844685 -0.03636079 -0.094115496 0.017799806 0.07753832
-0.053108927 -0.056413904 0.028391566 -0.05787122 -0.051746394 -0.0121874 0.05359633 0.02337267
0.08999214 -0.06794638 -0.089930646 -0.086010575 -0.09858069 -0.07859875 0.08814389 -0.047692962
0.017816685 -0.06047495 -0.020788953 -0.036772456 -0.023759587 0.054363485 0.0464757 0.07183714
0.092452124 0.0068261875 -0.018432226 -0.08615572 -0.08178947 -0.04900113 0.01486105 0.08847616
-0.079676524 -0.08966937 -0.093404524 0.050135307 0.09342056 0.048493616 -0.06676246 -0.049140573
-0.00019492197 0.03581774 -0.014095334 -0.00026278105 -0.03292716 -0.09228774 -0.07545587 0.045819554
-0.063868254 -0.02235238 0.056192882 -0.0122396825 -0.0946679 0.086298145 0.004781708 -0.042039245
-0.040962107 -0.046192408 0.00044157892 0.01655468 -0.01256711 -0.04973443 0.07419936 -0.012122727
0.018105593 -0.058083303 -0.063509695 -0.08821551 0.090571724 0.0730138 -0.021390628 -0.0038693652
0.08413763 -0.08230152 -0.06403581 -0.00796991 0.004983021 -0.06135162 -0.08648556 0.042089768
-0.06411848 0.086884625 -0.001016264 -0.08086994 -0.09176328 -0.067865975 -0.04745543 0.016067298
-0.05489427 0.048227064 0.03522948 0.058698885 -0.05082495 0.049016926 -0.0325376 -0.09394542
-0.08248852 -0.03488063 -0.06817613 -0.0806757 0.020558856 0.021484273 0.04413286 -0.02153071
-0.006889497 -0.038493365 -0.01615785 0.06446762 0.014804541 0.06288388 0.08145504 -0.0676459
-0.0765401 -0.09538504 0.06921225 -0.039546482 -0.02838262 -0.07282507 0.07793242 -0.006927189
0.0740203 0.029253053 -0.08790589 -0.093508154 0.076872595 0.030089417 0.05772709 0.0124546625
0.07408758 0.039301816 -0.050060555 0.025397334 -0.091778785 0.024450684 0.06411089 0.06707732
-0.022563348 -0.018176874 -0.06454038 0.0060591963 0.07452985 -0.05586411 0.024502724 -0.02826038
0.058997415 0.06952056 -0.007426773 0.0050453083 0.044150688 0.059284646 -0.08200625 -0.012258953
-0.0043950332 0.017727029 -0.081125796 -0.03224876 0.042627905 0.07597047 0.08893725 0.08932176
-0.021915767 -0.008258047 -0.08538443 0.09434575 0.0044683493 0.05868311 -0.024264313 0.09193093
0.08648636 0.056533057 -0.09566047 0.07667707 -0.022880973 0.09789601 -0.061504874 0.053418882
-0.01247182 -0.0728779 0.07852662 -0.089903265 0.040433835 0.053714972 0.046172105 -0.07985182
0.04957407 -0.040843062 -0.012873262 0.05510218 0.009671474 -0.01387027 -0.013771099 0.02341621
0.09726345 0.033937227 0.08898013 0.068365 0.09992956 0.055927187 -0.061925393 -0.075503156
-0.04245992 0.014148267 -0.023378417 0.04930041 -0.05124574 -0.040595282 -0.039124522 0.024158996
-0.09589773 0.020187084 -0.06311687 -0.078167796 0.017638765 -0.02659976 0.08013816 -0.084699534
0.053586364 0.059222367 -0.052675612 0.02844257 0.015857702 -0.04902404 -0.066854976 -0.01121295
0.04384307 -0.09839488 -0.02319131 0.025772678 -0.0863946 0.07484274 0.049250737 0.016292525

gru.weight_ih_l1 f4 [300, 100]
00000000: 79d7 22bd 4021 acbd d85c ab3c 2dd0 593d
00000010: 00e5 fdbc 0532 2dbc 0a62 23bd d38f 813d
00000020: 7f09 973d 547e 89bd c0ac 49bd 6986 2ebc
00000030: 9aba ca3c 4da7 e23c 8b69 a3bc 4e6f 14bd
00000040: a10f aabd 530d b6bd 8cc5 26bd dcd8 453c
00000050: c837 893d 517b 1ebc 6305 543d 5eb1 8e3c
00000060: dcfe b7bd e339 bb3d feb1 86bd 7980 dc3b
00000070: 6404 26bd 8e93 0a3d ac14 853d 1106 b9bd
00000080: 7258 c4bd ac60 5a3d d11f d5ba 3725 03bc
00000090: 9292 af3c 2cc7 53bd 5fd7 abbd 9338 803d
000000a0: bab2 14bc 3e01 b8bd 56ed b73d cf46 ca3d
000000b0: 24a9 d73c a144 bfbd 6fd9 9d3d 4a93 9dbd
000000c0: 2962 12bd 41cf 9d3b 58c2 c6bb bfac 5e3d
000000d0: b44c 233d 3fa8 233d 76f2 8ebd 4eaa 9e3d
000000e0: c812 853d 2a47 ac3c 83ec 7a3c 7915 8a3c
000000f0: 50c2 0ebc 557f 2abd 56db 0abd 530a 953d
00000100: 67c2 1dbd 0962 cb3d 6cd3 25bd 8a30 7aba
00000110: 9412 bebd ee92 673d c01f 85bd 8ec5 47bd
00000120: 2902 80bc c62b 9c3d 3519 a7bc 6b8c cabd
00000130: 1bc6 da3c 645a bfbc 9ff2 e8bb 8825 923d
00000140: 024a 44bd c724 afbc 98f5 b93c 7daf d7b7
00000150: bcf0 97bc 2c89 4e3d eef2 25bd 3609 82bd
00000160: 3a0c cdbc 6062 08b9 7116 41bd a1fc c1bd
00000170: 1694 88bc f4b0 883b a051 afbd f5d7 22bc
00000180: e17c 913d 4ec8 0a3d a710 eabc e8ab 89bd
00000190: 5402 abbd 017e 91bb e191 bc3c 5dd7 4abc
000001a0: 34f3 8fbb 12b3 a43d 0d8b 92bd 90d6 c03d
000001b0: 261f a5bd e905 2c3d d6b8 2c3d 37d1 7d3d
000001c0: 3ff0 c73d 7503 92bd 2827 b53d 7163 a8bd
000001d0: 1155 093c 58c5 713d d8cd 263d b5dc 8a3d
000001e0: 572a eabc 4275 bb3d 527a b33d 8c54 dbbc
000001f0: 2d7f 933d 2f47 243d 5058 9bbd 09d8 c13d
00000200: 4d40 bbbd 3a31 19bd b7b1 923d 250d 473d
00000210: 9605 f93c b571 a4bd 7394 f23c d32b 3cbd
00000220: 622c cebc 97db 5bbc 3d53 333d 5c93 83bd
00000230: a034 493d 3dc9 00bd fa66 8fbd 8103 3c3c
00000240: 2949 78bd 57f2 b63d 71c1 bfbd b9ea f43c
00000250: 91d4 d33c 188a 8ebd 335f 573c 4314 e6bc
00000260: 12a3 ccbc 1e19 96bd dba2 293d 9300 893c
00000270: 8ea6 bc3c 8f60 73bd 2bcf e7bc 8cc0 34bd
00000280: 3bc1 fabb 67ff afbc 5af0 80bd c674 e9bc
00000290: 247d 26bd 6182 a9bc e8b9 b5bd 57da a2bc
000002a0: fb17 063d ddc2 863d e824 ebbc 1d51 853d
000002b0: 74cd 8b3d 612e 123c 3696 b13d 49cb 823d
000002c0: 089c c43d 3b13 383d dd4d 2cbd 0b07 92bd
000002d0: 4498 89bc 229f 8cbd b4ad a83d 1e2c 503d
000002e0: 307e d0bc 6dec 2c3d a312 173d 7507 9b3d
000002f0: 3135 963c 8c9e 503c d620 adbd 4960 44bd
00000300: e9ab 353d 01cc 1dbd 72a1 833d a950 3bbd
00000310: 0843 a1bc ea9f 923d c337 0b3c 443e 61bc
00000320: aba7 cb3d 7864 063d 53ad 0d3d bd3d 703d
00000330: b5b3 1abd 1a94 8fbb 9ae7 af3d 5a83 deb9
00000340: 132f 713b 97f7 70bd dc6f 6d3d 8898 c4bd
00000350: ccbb bcbd b515 85bc 1af2 a43d 3c98 15bd
00000360: 75b0 93bc f5e3 94b9 48d5 6dbc 8adc b2bd
00000370: a4b9 b0bd 0af7 953d 4663 6d3d 04f4 b2bd
00000380: 2096 993c 8827 9b3c 8494 a2bc ab81 afbd
00000390: 0af9 233d 37f6 5abc d23c a7bc 61ae f03c
000003a0: 71d9 45bd 4d3f 03bd 8667 27bd 4f16 85bd
000003b0: 79e1 e63c 06de 54bd 7a86 bb3d b12f 893d
000003c0: bb1f af3d fd6d 09ba 88b6 a2bd 68f9 8a3d
000003d0: 3e7d b53d b4e3 9c3d 7593 86bd bb1d c7bd
000003e0: 6956 933d 2573 923d b722 bc3d 7966 6fbd
000003f0: 793b 2bbd 59d5 8c3c 31ba ad3c 2e83 4fbc
-0.039756272 -0.084047794 0.020918295 0.053177048 -0.030992985 -0.010571008 -0.03988842 0.063262604
0.07374858 -0.06713548 -0.049237013 -0.010652163 0.024747182 0.027667666 -0.019947788 -0.03623896
-0.08303762 -0.0888926 -0.04071574 0.012075629 0.067000926 -0.009672956 0.05176295 0.01741856
-0.089841574 0.091419004 -0.06576918 0.0067291823 -0.04053153 0.033832125 0.064980835 -0.0903436
-0.09587182 0.05331485 -0.0016260092 -0.008004478 0.021432195 -0.051703617 -0.08390688 0.06260791
-0.009075815 -0.08984612 0.08980815 0.09876787 0.02632577 -0.09339262 0.07707488 -0.07694109
-0.035738144 0.0048159664 -0.006065648 0.054363962 0.03986807 0.039955374 -0.069798395 0.07747327
0.06497723 0.021030027 0.015315178 0.016855942 -0.00871332 -0.04162534 -0.03390058 0.0727736
-0.038515475 0.09930808 -0.04048483 -0.0009543976 -0.09280887 0.056536607 -0.065001965 -0.048772387
-0.01562603 0.076255366 -0.020397762 -0.09890064 0.026705792 -0.023358531 -0.007109001 0.07136065
-0.04792214 -0.021379841 0.022700116 -2.5711715e-05 -0.018547408 0.050423786 -0.04051488 -0.06349413
-0.025030244 -0.00013006618 -0.047140542 -0.09472013 -0.016672175 0.004171485 -0.085604906 -0.0099391835
0.07103897 0.03388243 -0.028572394 -0.06722242 -0.083500534 -0.0044400697 0.02301878 -0.012380448
-0.0043930057 0.080419675 -0.07155428 0.094159245 -0.08062582 0.041997824 0.04216846 0.0619671
0.0976262 -0.071295656 0.08845359 -0.08222092 0.008382098 0.059026092 0.04072365 0.06780378
-0.028584642 0.091532245 0.08763565 -0.026773714 0.07201991 0.04010695 -0.07585204 0.094650336
-0.09143124 -0.03740046 0.07162803 0.04859652 0.030398171 -0.080295004 0.029611802 -0.04594023
-0.025167648 -0.0134190535 0.043780554 -0.06424591 0.049122453 -0.031441916 -0.07002063 0.011475445
-0.060616646 0.089329414 -0.09363068 0.02989708 0.025858195 -0.06959933 0.013145256 -0.028085833
-0.024980102 -0.073290095 0.041415077 0.016723907 0.023028638 -0.059418257 -0.028297028 -0.04412894
-0.0076524294 -0.02148409 -0.062958434 -0.028498065 -0.040646687 -0.020692052 -0.088733494 -0.019879503
0.032737713 0.06580136 -0.028704122 0.06509612 0.068262964 0.00892219 0.086712286 0.0638643
0.09600073 0.044940215 -0.042066444 -0.071302496 -0.016796239 -0.0686629 0.08236256 0.050823323
-0.025450796 0.04221766 0.036883008 0.07569782 0.01833591 0.012733113 -0.084535286 -0.047943387
0.0443534 -0.03852463 0.064272776 -0.04573122 -0.019685283 0.071594074 0.008497181 -0.013747755
0.099440895 0.03281066 0.034589123 0.05865263 -0.03776904 -0.0043816688 0.08589096 -0.00042441004
0.003680174 -0.05882987 0.057968006 -0.095994055 -0.09215507 -0.016245702 0.0805399 -0.036522135
-0.018028477 -0.000283986 -0.014516182 -0.08733471 -0.08629158 0.073225096 0.057956003 -0.087379485
0.018748343 0.018939748 -0.019846208 -0.08569654 0.040032424 -0.013364366 -0.020414744 0.029380025
-0.04830307 -0.03204279 -0.040870212 -0.06498396 0.028183686 -0.05196955 0.09156509 0.066985495
0.08550974 -0.0005242525 -0.07944971 0.06785852 0.08861779 0.076606184 -0.06571094 -0.097224675
0.07194216 0.07150868 0.09186309 -0.058447335 -0.041804764 0.017191576 0.021206947 -0.012665553

gru.weight_hh_l1 f4 [300, 100]
00000000: 08af 363d cc6f c63d 70d5 8bbc 4d8a 13bd
00000010: 297e c13d 6d68 3c39 4669 90bd 1f20 8abd
00000020: 379c 533b 4d7e a53c 2228 463d 3d3d 913c
00000030: 156a 4d3a 75b9 b4bd b45a bfbd 0c7c f2bc
00000040: f52b 9e3d 75d1 ad3d 0772 9e3d 16aa 98bd
00000050: 0d4a 34bd f00c 923d 5f2e 8bbd 5ebe 4e3d
00000060: 5cdf 5d3d 4228 81bd ea4c cbbd e842 bcbd
00000070: f0e4 73bc c500 e6bc 335c 8a3d 78e6 0b3d
00000080: 317b 4a3c 98d0 9ebb 003c 3b3d 97a3 8b3d
00000090: 8e6e cabd f83d adbd c1c4 a93d 9720 c1bd
000000a0: ba9e 77bc 5606 0f3c 05d3 68bd 8707 9a3c
000000b0: b8b5 f43c 7c54 143b 6462 5dbd 4061 cd3b
000000c0: 60c0 463d 247b 8b3d 7933 38bd 2dc8 7cbd
000000d0: 747f 873b ecfb c23d 029b 743d 6817 843c
000000e0: 4510 6dbc 6b2f 043d 0947 abbd f39a 80bc
000000f0: a5c6 abbd 7758 b5bc 7a43 4d3d 7734 353d
00000100: 9ccf 2f3d dcde 743d d8fa 0ebd 61c6 183b
00000110: 9c59 153c b077 b4bd e134 b53d fa61 89bd
00000120: 9475 39bd 4ef4 97bd 8c37 d2bc f319 503d
00000130: 8809 873c c96d 953d 8f1b d1bc 574b 573d
00000140: 6321 9f3d c906 23bc 5bdb 88bd 1d71 00bb
00000150: 4a4b 0f3c 815e d9bc c606 8c3d cc42 1e3c
00000160: 7e37 15bd 4947 a33d 3e58 0339 0200 a2bc
00000170: eab5 88bd b12f 253d 7717 a3bd 822a 573d
00000180: 8328 6d3d abb6 4bbd 5fc4 303d 2630 b83c
00000190: 4645 3b3c 3fd0 b4bd b9cf 9c3d 9797 c43d
000001a0: 6573 a43d 4cb1 a23d 3b3a b7bb 621b 33bd
000001b0: 34fd 713d 6669 563d 494b acbd 973a b63d
000001c0: 3841 203d c3a2 ad3c 62e7 81bd 6448 2c3d
000001d0: faf9 76bd 5f04 b13d 9b63 72bc 7255 f7bc
000001e0: 143b 80bc b335 093d 64bf ae3c a320 c93b
000001f0: 5eeb 88bd 54f4 cabd 4f83 88bc 25e0 723c
00000200: 4c7b 61bd fbe0 4a3c 89a1 9f3d e483 593c
00000210: 6c35 c13d d92d 713d 7a0b 19bd 5ccc e2bc
00000220: 2a05 613c 8256 98bd 3f1d 833c 158f 2f3d
00000230: 0d15 d2bc 2df6 073d 21cd 19bd 9e36 813d
00000240: 20c1 c03d f6e9 873d fe1d 5c3d 71e0 92bd
00000250: 86c1 713c 3861 28bd 9cb5 473d 12c1 c3bc
00000260: bade 1b3d 0405 48bc e5db a7bd e1a1 c83d
00000270: 594f c9bb 9568 10bd 11db 60bd f8e5 25bd
00000280: b719 a13d ee1e 3a3d 8d72 a63d eda3 1e3c
00000290: 34d4 52bd 145e 8a3d ae79 8a3d 03cf 4d3d
000002a0: 9eaa 443b b91c 9bbd 5f28 36bc 0d57 84bc
000002b0: 587f 4e3d 8742 613d 4578 a53d 64fc 7b3d
000002c0: c046 853d d104 733c 092c 74bd 5a00 343d
000002d0: 9857 bc3d 7943 743d 70a6 a0bc 9717 163d
000002e0: d2fe 643d 7a3f 663d 2e15 bb3d f123 2a3d
000002f0: 8cf6 253b 0eda 52bd 5f0c ee3c cff7 3bbd
00000300: 9e1f 1b3d 402e 1ebd e37d 86bc 47d9 3dbd
00000310: a73f 82bd cd4a 053d 737e 82bd a529 11bd
00000320: 97dd 62bc c395 85bd 4f8a bebb d64a 94bd
00000330: 078b 79bc 4dc9 0d3d 2b2f f63b e236 26bd
00000340: 5d7b 313d 7a9f 8a3d 57ca 1fbd 8f2d 303d
00000350: be49 bbbd 2ef4 a13d 17f9 373c 54ac 7cbd
00000360: ad75 6bbd ecd0 873d 1947 753d 3f71 c0bc
00000370: 7f27 86bc 0d3a b0bd 7d13 a3bd 0c11 c5bd
00000380: d133 cabd 82e2 71bd 2828 ecbc 8b11 09bc
00000390: 2254 2d3d 2c94 c13d 87be 7e3d 2bae 0fbd
000003a0: 04e1 923c 196c 043d 73b5 ad3c 8a2b 2abd
000003b0: a75e 773d 664c 83bd 779d 803d 23c7 88bd
000003c0: efba b63d 14cd 063d be35 bebd 5d8b a63d
000003d0: 65a8 af3c 1f26 7f3d 3548 9abd cac8 55bd
000003e0: a398 173d 389c 54bd 9f60 a9bd b835 93bd
000003f0: 49d4 eabc 7b47 983d 122c 62bd ee08 593d
0.044600517 0.09689292 -0.017069548 -0.036020566 0.09447891 0.00017967979 -0.07051329 -0.06744408
0.0032289156 0.020201826 0.048378117 0.017729396 0.0007835937 -0.088244356 -0.09343472 -0.029600166
0.07723228 0.084872164 0.07736593 -0.07454316 -0.044015933 0.07131374 -0.06795954 0.050474517
0.05416809 -0.06306507 -0.099267796 -0.09192449 -0.014886126 -0.028076539 0.06755867 0.03415534
0.012358473 -0.0048466437 0.045711517 0.06818312 -0.09884368 -0.08459085 0.08289481 -0.09430044
-0.015113527 0.008729538 -0.05684187 0.018802417 0.029871807 0.0022633364 -0.05404891 0.0062676966
0.048523307 0.068105966 -0.044970963 -0.06171434 0.0041350666 0.095207065 0.05971814 0.016124442
-0.014469211 0.032271784 -0.08363158 -0.015698886 -0.08387498 -0.02213691 0.05011318 0.044239487
0.0429226 0.059782848 -0.034907192 0.0023311602 0.009115603 -0.08811891 0.088479765 -0.06708141
-0.045278147 -0.07419644 -0.025661252 0.050805997 0.016484037 0.072963305 -0.025525836 0.052562084
0.0777004 -0.009950348 -0.06682464 -0.001959867 0.008745978 -0.02653432 0.068372294 0.00965948
-0.036429875 0.07972581 0.00012526006 -0.019775394 -0.06675322 0.040328685 -0.0796346 0.052530773
0.057899963 -0.049734753 0.043156024 0.022483896 0.01143009 -0.08828782 0.076568075 0.09599226
0.08029822 0.07943973 -0.0055916584 -0.043727286 0.059079364 0.05234661 -0.08412797 0.08897894
0.039124697 0.021195775 -0.06342961 0.042061225 -0.06029699 0.08643412 -0.014794256 -0.03019211
-0.01565317 0.033498477 0.021331497 0.006137924 -0.06685518 -0.09909883 -0.016664175 0.014823948
-0.055049226 0.012382741 0.07794482 0.013276074 0.094340175 0.058881614 -0.03736446 -0.027685337
0.013734141 -0.07438375 0.016005157 0.042861063 -0.025644803 0.033193756 -0.03754914 0.063092455
0.09411836 0.066364214 0.05373954 -0.07171715 0.014755612 -0.04110834 0.04875718 -0.023895774
0.038054205 -0.012208227 -0.081962384 0.09796501 -0.006143492 -0.035255987 -0.054896418 -0.04050252
0.07866233 0.045439653 0.081273176 0.009682638 -0.051471904 0.06756225 0.0676149 0.05024625
0.0030008922 -0.07573838 -0.011118024 -0.01615479 0.050414413 0.054995086 0.0807958 0.061519995
0.06507635 0.014832691 -0.059612308 0.043945648 0.09196395 0.05963466 -0.019610614 0.03664359
0.055907078 0.05621288 0.09134899 0.041538183 0.0025323955 -0.051477484 0.029058633 -0.045890626
0.03787195 -0.038618326 -0.01641745 -0.04634979 -0.06359797 0.03254204 -0.063717745 -0.035440106
-0.013846776 -0.065227054 -0.0058148275 -0.07240836 -0.015230901 0.034615804 0.007512947 -0.040579684
0.04333054 0.06768699 -0.039011326 0.043012198 -0.091449246 0.07907902 0.011228821 -0.061687782
-0.05748527 0.066316456 0.059882257 -0.0234915 -0.016376255 -0.08604822 -0.079627015 -0.09622392
-0.098731644 -0.059053905 -0.028827742 -0.008365999 0.042316563 0.0945209 0.06219342 -0.03507821
0.017929561 0.032329652 0.021204686 -0.04154543 0.060393002 -0.06411056 0.06280034 -0.06678607
0.089223735 0.03291042 -0.09287594 0.0813205 0.021442601 0.062292214 -0.07533304 -0.05219344
0.0370108 -0.051906794 -0.08270382 -0.071879804 -0.028665679 0.07435509 -0.05521781 0.05298703

gru.bias_ih_l1 f4 [300]
00000000: df6e 023c 1a6e 263d af17 b13d 52c5 b3bd
00000010: c30d ea3c 6731 38bd 729e 373c 3b9b 923d
00000020: d944 0b3d 6a13 7ebd 64ed 343d e598 64bd
00000030: 0c7a 91bd 324b 86bd ad89 acbc 09ff 81bd
00000040: b86a 01bb 647a d6ba 62ed 8a3d b9e5 26bd
00000050: f857 1d3c 38dc 653d 0b65 a8bd 2ccf c93d
00000060: ab85 2f3d b594 43bd f9b1 293d 3eb9 69bd
00000070: 33aa 4bbb cb09 b2bd 03df cf3c 622d a93d
00000080: 0d0a 183d 02ea 6dbd dbe2 c33b 3047 58bd
00000090: 9afc 00bd 7eb7 5b3c ffa4 9dbd 3e62 b93d
000000a0: 3819 32bd a7bc dab9 720b 8f3d a141 dfb9
000000b0: 3433 aa3d b3b3 2d3c 71fd 93bd b37d 743d
000000c0: 7cb2 62bb e99a 813d 3934 89bc 3cf0 b1bd
000000d0: b59b b7bc 95b4 19bd bc72 ab3b 9048 9abd
000000e0: 1142 c83d 6f2d 8cbc 185a 20bd c70e 2f3d
000000f0: 56d6 babd 3dad 36bc b508 91bd 69fd c6ba
00000100: 36f3 463d 3df0 c7bd 4424 113d c121 bfbd
00000110: 91f6 9cbd 8869 bb3d 1137 a5bd 5044 abbd
00000120: 8da4 a23c 1679 3d3d a64d c93c e7f3 a23d
00000130: 0d53 c5bd 50a0 9a3d 60cc 5d3d b3a7 36bb
00000140: 8331 b8bd f0c7 41bd 3808 2ebd d204 50bc
00000150: 10bf d83c 4649 87bc 1c72 b73c 602c b73c
00000160: 7034 653d 7240 4abd 3fec 99bd 105f bf3d
00000170: 2a0b 243d 58eb 4f3d 093c 983d aa07 5fbc
00000180: 67a4 d73c fe20 353c 11d8 64bd c734 99bb
00000190: 2010 51bd 84c9 4abd e165 85b9 aa60 babd
000001a0: 0c00 23bc 344f 543d e5ec 693d 6184 8f3d
000001b0: b226 16bc 6620 5a3d adda 4dbd 24bb 67bd
000001c0: d146 bebd 5e9e 02bd 8d0d 563d c402 d73c
000001d0: 7a73 8bbd e52e 533c 70e1 8c3d 174b d33b
000001e0: 4e8c 06bb d34d 15bc 53fa 9cbc 698f b8bd
000001f0: ab13 b13d 8bed aebd 1b79 19bd 1e83 9c3c
00000200: 4d0f d43c d6a2 c8bd 5bcf 083d 80a9 863d
00000210: 8b35 893d 2d86 5fbd e91a 52bd 39e3 b5bd
00000220: 753e cc3d b7c9 a6bd 0b24 9fbd 3993 203c
00000230: 1399 b63c 5f8a e53c 539d 813d c8f3 d9bb
00000240: b14a 81bc 266a 833d 2514 c9bd 0472 adbd
00000250: ecab 34bc 03fb 2fbc 6c16 8ebd 2f3f f83c
00000260: a9d2 383d 2864 dc3c ea4c 89bd c429 23bd
00000270: 253d 8abd 13bc aebd eb36 a53d bc8d 0d3d
00000280: 5ef8 90bd 3bcf b5bc 5805 8abc db0a 883d
00000290: 6ff0 62bc 2786 ca3d 6bd0 263b ca02 bc3d
000002a0: 1bcc 823d 228c 263d 6db7 a3bb a466 61bc
000002b0: 0a30 2d3d 8d53 a63d 0723 b6bd b30c 19bd
000002c0: 1463 c73d c720 973c e16e 5e3d 6d88 753d
000002d0: 6d14 443c 7af2 f938 4813 333d f968 9b3d
000002e0: af82 913d 9e1d dcbb 3cde f33c 6191 3c3d
000002f0: 78a5 663d 6f3c 563d 4dcb 62bd 7729 e9bc
00000300: 933a a8bd 6bf4 943d 6822 6e3d 7544 acbd
00000310: 5937 07bd 520c 7fbd 0463 87bd cad5 99bd
00000320: 9c7d 6cbd b215 a3bc d77e dbbc f8ff 5abd
00000330: 6919 113c d0c7 8e3d 6a68 bfbc 115e 713d
00000340: e6de 453d 0311 be3d 4424 90bd 9938 adbd
00000350: b4bf 743d 0b32 c9bd b4bb a2bd e517 93bd
00000360: 99bc 833d ebd5 13bb 71b4 a4bc 4681 93bd
00000370: 0be5 8fbd 8d6e 943d 0c1f 87bc 8aec c13c
00000380: 434d 933d 53e8 1ebd aecf 9d3b 7357 b03d
00000390: dba9 99bc 1a44 2ebd 4177 4dbd 3bd3 473d
000003a0: 5f89 35bd 1f27 18bb 17f5 c1bc a04a 7bbd
000003b0: 8676 ec3b b625 51bd 0541 ca3d ed0b 40bd
000003c0: e9cd 31bd 513a b03d 0f9a aebd be3a ad3d
000003d0: ea6b 21bc 6235 60bd af0b 53bd 5fc7 3bbd
000003e0: b204 aa3c 1ca1 5bbd 0578 61bd 50ae 933c
000003f0: 2ca1 0bbd e805 d4bc bcbd 46bd 477b ccbd
0.007961004 0.040632345 0.086470954 -0.0877787 0.028571015 -0.04496899 0.01120721 0.07158514
0.034001205 -0.062030233 0.044171706 -0.055809874 -0.07103357 -0.06557311 -0.021061743 -0.06347472
-0.0019747447 -0.001636338 0.067835584 -0.040746424 0.009603493 0.05611822 -0.082223974 0.09853968
0.042852085 -0.04774924 0.041429494 -0.057061426 -0.0031076788 -0.08693274 0.025374895 0.08260609
0.03711896 -0.058084495 0.005977971 -0.052802265 -0.0314909 0.013410447 -0.07697486 0.09051941
-0.04348108 -0.00041720757 0.06984605 -0.00042582772 0.083105475 0.010601926 -0.072260745 0.05969019
-0.0034591248 0.06328375 -0.016748535 -0.08688399 -0.022413114 -0.037525732 0.0052321833 -0.075333714
0.09778226 -0.017111508 -0.03914842 0.042738702 -0.091229126 -0.011149702 -0.07081739 -0.0015181723
0.048571788 -0.09762619 0.035434976 -0.0933261 -0.07664216 0.09150988 -0.08067144 -0.08362639
0.019853855 0.046258055 0.024573158 0.07956677 -0.09634981 0.075501084 0.054149985 -0.0027870953
-0.089938186 -0.047309816 -0.042488307 -0.012696462 0.026458293 -0.016514432 0.022393279 0.022360027
0.05595821 -0.049377866 -0.075157635 0.093443036 0.04004971 0.05076155 0.07433326 -0.013612667
0.02632351 0.011055229 -0.05587012 -0.004675481 -0.05104077 -0.049508587 -0.00025443643 -0.091004685
-0.009948742 0.051833346 0.057110686 0.07007671 -0.009164499 0.053253554 -0.050257374 -0.056574956
-0.09290851 -0.031889312 0.052259017 0.026246436 -0.06809135 0.0128895985 0.06878936 0.0064481604
-0.0020530405 -0.009112793 -0.019162333 -0.09011728 0.086463295 -0.085414015 -0.03746901 0.01910549
0.025886202 -0.097966835 0.033400875 0.06575298 0.06699666 -0.05457132 -0.051295195 -0.0888123
0.0997285 -0.08143943 -0.077705465 0.009800726 0.022289788 0.028020082 0.06328835 -0.0066513754
-0.015782686 0.064167306 -0.098182954 -0.084690124 -0.0110273175 -0.010740998 -0.069378704 0.030303566
0.045122776 0.026903227 -0.06704123 -0.039834753 -0.06749944 -0.08531966 0.080671154 0.034558997
-0.07078622 -0.022193542 -0.016848251 0.066426955 -0.013851269 0.09888869 0.0025453817 0.091802195
0.06386586 0.040660985 -0.0049962313 -0.013757382 0.04228214 0.08121405 -0.088934 -0.037365627
0.097356945 0.018448247 0.05430496 0.05994456 0.0119677605 0.0001191841 0.04371956 0.07588381
0.07105004 -0.006717398 0.029769056 0.04603708 0.056310147 0.052303728 -0.055369664 -0.028462155
-0.08214297 0.072731815 0.05813828 -0.08411495 -0.033011768 -0.06226761 -0.066106826 -0.0751148
-0.057736978 -0.019907806 -0.02679388 -0.053466767 0.008856156 0.06971705 -0.023365218 0.0589276
0.048308276 0.092805885 -0.07038167 -0.08458061 0.059753135 -0.09823998 -0.07945958 -0.07182292
0.064324565 -0.0022557925 -0.020105572 -0.07202391 -0.07026108 0.072476484 -0.016494296 0.02367236
0.07192471 -0.03879578 0.004816017 0.086104296 -0.018757751 -0.042545415 -0.050162558 0.04878543
-0.04432046 -0.0023216677 -0.023676438 -0.061350465 0.0072162775 -0.051061355 0.09875683 -0.046886373
-0.04340926 0.08604873 -0.08525478 0.0845847 -0.009852389 -0.05473841 -0.051524814 -0.045844432
0.020754192 -0.053620443 -0.0550461 0.018027455 -0.034089252 -0.025881723 -0.04852079 -0.09984451
