KGs/mutagenesis/model weights/CNN_{_in_height_ 201, _inp_width_ 40, _kernel_h_ 11, _kernel_w_ 5, _out_size_ 4}_.pt (torch, 266288 bytes, 12 tensors)

conv2d.0.weight f4 [4, 1, 11, 5]
0	0xbdfa18e5	-0.122117795
1	0x3e010a27	0.12601529
2	0x3cb37324	0.02190549
3	0x3cd3e5b4	0.025866367
4	0xbd9e3a4c	-0.07725963
5	0xbce60a5c	-0.028081112
6	0x3df5185b	0.11967536
7	0x3e03e7d0	0.12881398
8	0xbccd092c	-0.025028788
9	0xbd2832d9	-0.041064117
10	0x3d876e0c	0.06612787
11	0x3dde3c55	0.10851351
12	0xba3c38f7	-0.0007180119
13	0x3cdddc0a	0.027082462
14	0xbd403fe9	-0.04693595
15	0x3d8211db	0.06351062
16	0x3db04b08	0.08608061
17	0xbd7d756f	-0.06187957
18	0xbd6316af	-0.055441555
19	0xbded7df4	-0.11596289
20	0x3d2a86ea	0.04163257
21	0xbcbab653	-0.022792017
22	0xbdcd5ab9	-0.100270696
23	0xbda427f0	-0.0801543
24	0xbdda0a3a	-0.10646482
25	0x3de56d15	0.11202446
26	0xbd9c12ba	-0.07620759
27	0xbdb21a48	-0.08696419
28	0xbdaa19e3	-0.08305719
29	0x3d6614ed	0.0561723
30	0x3c1ed98f	0.009695425
31	0xbd2d392e	-0.04229086
32	0x3c4046d9	0.011735641
33	0xbd48348a	-0.04887823
34	0x3bebb9ab	0.007193764
35	0x3cf11db8	0.029433116
36	0x3de58028	0.112060845
37	0xbdeb796f	-0.11497771
38	0x3c0da9d0	0.0086464435
39	0xbdad9b31	-0.08476866
40	0x3ccb1728	0.024791315
41	0x3d9ed65c	0.077557296
42	0xbda6c944	-0.08143857
43	0xbccebba6	-0.025235962
44	0x3bc48d47	0.005998287
45	0xbb7a923d	-0.0038234137
46	0xbbe39741	-0.006945521
47	0x3da5b3a7	0.080909066
48	0x3d5f4d92	0.054517336
49	0xbd70a655	-0.058752377
50	0xbdab404f	-0.08361875
51	0xbc53be35	-0.012923767
52	0x3cf0f7ce	0.029415037
53	0x3d7d72da	0.06187711
54	0x3dbfd6ec	0.09367165
55	0x3df212be	0.11819981
56	0xbcb16602	-0.021655086
57	0x3def5739	0.11686558
58	0x3dad6d0a	0.08468063
59	0xbcb6b43f	-0.022302745
60	0xbddf6a30	-0.109089255
61	0x3de2e83e	0.11079453
62	0xbd28951d	-0.04115783
63	0x3d2b023d	0.04175018
64	0x3d3a9d6f	0.045560297
65	0xbd4a7aa1	-0.049433354
66	0xbd2d39ef	-0.042291578
67	0x3de9fb06	0.11424832
68	0x3d8cc2f3	0.06873121
69	0x3c866c54	0.016409077
70	0x3d18a289	0.03726438
71	0xbd73d80c	-0.05953221
72	0xbd7acf2f	-0.061232742
73	0x3dd82257	0.10553425
74	0x3df464d0	0.11933291
75	0x3d51b6d8	0.051199764
76	0x3c2b5a7b	0.010458584
77	0x3d2d05e7	0.042241957
78	0xbd930e46	-0.07180457
79	0x3b1a16a7	0.0023512037
80	0x3d8b55da	0.06803484
81	0x3dfb2017	0.1226198
82	0xbd90b8f1	-0.07066525
83	0xbdd01f58	-0.10162228
84	0xbde3a0cd	-0.11114655
85	0xbdf58078	-0.11987394
86	0x3dc93239	0.09824032
87	0x3de32cab	0.11092504
88	0xbcc772fb	-0.02434682
89	0x3d98e27b	0.07465073
90	0xbdb5024d	-0.088383295
91	0xbd955cb3	-0.072930716
92	0xbc3cfa5e	-0.011534302
93	0xbd754427	-0.05987945
94	0xbd4b0f3a	-0.049575068
95	0xbddebd10	-0.108759046
96	0xbd7d9504	-0.06190969
97	0xbdf95ae6	-0.121755406
98	0x3dd65b55	0.10466639
99	0xbddd1c9b	-0.10796472
100	0x3dde0898	0.10841483
101	0xbdeb7402	-0.11496736
102	0xbcfbcaf1	-0.030736418
103	0x3d33724a	0.043810166
104	0x3de70856	0.11280887
105	0xbdb72e03	-0.08944323
106	0x3dc8a707	0.09797483
107	0x3df87a85	0.12132744
108	0x3dc1ea40	0.09468508
109	0xbd8eb71a	-0.069685176
110	0x3cdc1668	0.026866153
111	0x3dc996d9	0.09843225
112	0xbd86bacf	-0.065786
113	0x3d8d955e	0.06913255
114	0xbd9c017f	-0.07617473
115	0xbe097801	-0.13424684
116	0xbd394617	-0.04523286
117	0x3d8025d1	0.06257213
118	0x3dee83da	0.116462424
119	0x3cae46ec	0.021274053
120	0x3d4223b4	0.04739733
121	0x3d84b73d	0.064802624
122	0x3db9dc8e	0.090752706
123	0x3dd09cc3	0.1018615
124	0xbdbb39aa	-0.09141858
125	0x3d8769e4	0.06611994
126	0xbd8f0468	-0.06983262
127	0x3d826e1e	0.063686594
128	0xbdd05b62	-0.1017368
129	0xbd9f3062	-0.077729
130	0x3ddc586e	0.10759054
131	0xbe02d71c	-0.1277737
132	0x3c9e3ff2	0.0193176
133	0xbc17fd78	-0.00927674
134	0x3c993d20	0.018705904
135	0xbe05b5c4	-0.1305762
136	0x3e00426c	0.12525338
137	0xbd9ccfd9	-0.07656831
138	0xbd960da2	-0.07326819
139	0xbd7bcaf4	-0.061472848
140	0xbad370e9	-0.0016131672
141	0x3d715a4b	0.058924
142	0xbe0c29b8	-0.1368779
143	0x3cf6aae9	0.030110793
144	0xbd02f0b0	-0.03196782
145	0xbcd076bf	-0.025447248
146	0x3c7d419b	0.015457536
147	0xbd06f238	-0.03294584
148	0x3dc4e792	0.09614481
149	0x3dba49e0	0.09096122
150	0xbe0b5165	-0.13605268
151	0x3df12d99	0.11776275
152	0x3cab935f	0.020944295
153	0x3d7d9d0a	0.061917342
154	0xbdac489d	-0.084122874
155	0xbdd97725	-0.10618428
156	0xbcd7b273	-0.026330208
157	0x3e0e3404	0.1388703
158	0x3d70096d	0.05860274
159	0x3deac4f1	0.11463345
160	0xbcc1110a	-0.023567695
161	0x3de9db43	0.11418774
162	0x3d5dae32	0.054121204
163	0x3e0a295c	0.1349234
164	0xbd16c4d3	-0.0368088
165	0x3e1d4e4c	0.15361899
166	0xbdb3e218	-0.08783358
167	0x3df48114	0.11938682
168	0x3d50694a	0.05088166
169	0xbd68ef06	-0.056868576
170	0x3de2f663	0.11082151
171	0x3cbebd1c	0.023283534
172	0xbd295776	-0.041343175
173	0x3cb503c2	0.022096518
174	0xbde7668d	-0.11298857
175	0xbdd740eb	-0.10510429
176	0x3df4271c	0.11921522
177	0x3dd613fc	0.104530305
178	0xbdddfa17	-0.108387165
179	0x3dc37d02	0.09545328
180	0x3dd6d1f9	0.10489268
181	0x3cce38f0	0.025173634
182	0x3ce2894e	0.027653363
183	0xbe0ea1aa	-0.13928857
184	0xbd33dc67	-0.043911364
185	0xbdbe3a1d	-0.09288428
186	0x3df0415a	0.11731215
187	0x3cf26c67	0.029592706
188	0x3dc6d94f	0.09709417
189	0x3d87664e	0.0661131
190	0x3d882ab0	0.06648767
191	0x3dc78aed	0.09743295
192	0xbcf83236	-0.03029738
193	0xbd251444	-0.04030253
194	0xbd5020ac	-0.05081241
195	0x3d03518f	0.032060202
196	0xbd914ff0	-0.07095325
197	0x3df0abe9	0.11751539
198	0x3df952f0	0.12174022
199	0x3d1dc984	0.03852226
200	0x3d406bfc	0.046977982
201	0xbdbc9071	-0.092072375
202	0x3afe993b	0.0019424328
203	0xbd008262	-0.031374343
204	0xbdc55f92	-0.09637369
205	0x3e0b2ada	0.13590565
206	0xbd8e8eb6	-0.06960814
207	0xbdeb7dd2	-0.11498608
208	0xbcc33c85	-0.023832569
209	0x3e001902	0.1250954
210	0x3cfe04d0	0.031008154
211	0x3d8e2376	0.069403574
212	0xbde3c3e1	-0.11121345
213	0x3ccc0166	0.02490301
214	0x3d18d23f	0.03730988
215	0xbdd85217	-0.105625324
216	0xbbadd421	-0.0053048288
217	0xbceb546e	-0.028726783
218	0x3b035d95	0.0020044793
219	0xbd5bdbeb	-0.053676527

conv2d.0.bias f4 [4]
0	0x3da4b3ee	0.08042131
1	0x3dd919a0	0.10600591
2	0x3dba7478	0.09104246
3	0x3d8eb41e	0.069679484

conv2d.2.weight f4 [2, 4, 9, 3]
0	0x3ce6fc35	0.028196434
1	0x3ce8ac9f	0.028402625
2	0x3d7c04c2	0.061527975
3	0x3ccc9782	0.024974588
4	0xbd7c4b4b	-0.061595242
5	0x3dc4456e	0.09583555
6	0x3dae6665	0.08515624
7	0xbd369e37	-0.04458448
8	0x3d464e5b	0.04841457
9	0xbddd9b90	-0.10820687
10	0x3da9cfb4	0.08291569
11	0x3bd6ee18	0.0065591447
12	0xbd7b3b3e	-0.061335795
13	0x3cbda68d	0.023150707
14	0x3a4eccb9	0.00078887824
15	0x3cf94963	0.030430501
16	0x3d37a28e	0.04483276
17	0xbd86661b	-0.06562444
18	0x3d5e6fdd	0.0543059
19	0x3dbabbbd	0.091178395
20	0x3d8bef28	0.06832725
21	0xbd8f189a	-0.06987114
22	0x3da449f7	0.0802192
23	0xbd437cee	-0.047726564
24	0xbd220ba8	-0.039561898
25	0x3d80dfe4	0.06292704
26	0xbda65a16	-0.08122651
27	0x3cce4ade	0.025182184
28	0xbd154042	-0.036438234
29	0xbd1550c7	-0.03645399
30	0x3d0554ab	0.03255145
31	0xbcf7b9ca	-0.030239958
32	0xbd4c92b1	-0.049944583
33	0x3db4f906	0.0883656
34	0x3d4160ad	0.047211338
35	0xbaf2e631	-0.0018531737
36	0xbd9afc44	-0.07567647
37	0x3cb7a044	0.022415288
38	0x3b67a7fa	0.0035347925
39	0x3c2aa57a	0.010415429
40	0xbbfff960	-0.0078117102
41	0x3d6edb3c	0.058314547
42	0xbd0791a3	-0.033097874
43	0x3cd615b5	0.026133398
44	0xbba89fe4	-0.0051460136
45	0xbcbd0aaf	-0.023076383
46	0x3d30a2bd	0.04312395
47	0x3c448aee	0.011996014
48	0x3d76cb84	0.06025268
49	0xbdb84956	-0.08998363
50	0x3d1be50f	0.038060244
51	0xbc051560	-0.008122772
52	0x3d803657	0.062603645
53	0xbd28fda8	-0.04125753
54	0x3d88e05f	0.066834204
55	0x3d61a580	0.055089474
56	0x3c244610	0.01002647
57	0xbd355506	-0.044270538
58	0x3d77d7a9	0.060508404
59	0x3af74eb0	0.0018868055
60	0xbcfd9ee8	-0.030959561
61	0x3cb37041	0.021904113
62	0xbd339f36	-0.043853007
63	0x3bac808c	0.0052643474
64	0x3b9849b1	0.0046474566
65	0x3d83b74b	0.06431445
66	0xbcc668ba	-0.02421986
67	0x3dbc5ee3	0.09197786
68	0x3d192ceb	0.037396353
69	0xbc3d701f	-0.011562376
70	0x3cf15ab3	0.029462194
71	0xbd215cab	-0.039395016
72	0xbc446490	-0.011986867
73	0x3d5cada3	0.05387653
74	0x3d96b345	0.07358412
75	0xbab03195	-0.0013442511
76	0xbd4c8838	-0.049934596
77	0x3dbed336	0.09317629
78	0x3d63ddcb	0.05563144
79	0x3d383945	0.04497649
80	0xbd969666	-0.07352905
81	0x3da7ad24	0.08187321
82	0x3d3c019f	0.045899983
83	0xbd48329a	-0.048876382
84	0x3db3c6cf	0.08778154
85	0xbdca86b9	-0.098889776
86	0x3ce13c55	0.027494589
87	0x3d685603	0.056722652
88	0xbd4e28bf	-0.050331827
89	0x3db5b347	0.08872085
90	0x3d80b934	0.06285325
91	0x3d107f8d	0.035277892
92	0xbb1d1eae	-0.0023974585
93	0xbc395d1b	-0.011313702
94	0xbd1973de	-0.037464015
95	0x3d776d24	0.06040682
96	0x3cd215fb	0.025645247
97	0x3d9e2e5f	0.07723688
98	0x3da184bc	0.07886645
99	0xbd676124	-0.056489125
100	0x3b18ada1	0.002329685
101	0x3d1d0b95	0.038341124
102	0xbd953c54	-0.07286897
103	0x3dac399b	0.08409425
104	0x3d5111dc	0.051042423
105	0x3dc7a18d	0.0974761
106	0xbca4e373	-0.020127987
107	0xbb935cf6	-0.004497166
108	0x3cf056b6	0.029338222
109	0x3c3d7b75	0.011565079
110	0xbd62082a	-0.055183567
111	0xbd895674	-0.06705943
112	0x3d10bbde	0.035335414
113	0x3d8a8b60	0.06764865
114	0xbd095ce9	-0.03353587
115	0xbcbf9b17	-0.023389382
116	0x3d2e916b	0.04261915
117	0x3d17267b	0.036901932
118	0x3d921a6e	0.07133947
119	0x3d262810	0.04056555
120	0xbd703c97	-0.058651533
121	0xbc850623	-0.016238278
122	0x3cfddd55	0.030989328
123	0x3b117450	0.0022194572
124	0x3daa098f	0.083026044
125	0x3ce6f1fc	0.028191559
126	0xbc8da0fa	-0.017288674
127	0x3d5235ca	0.05132083
128	0xbc7766a4	-0.015100155
129	0x3d88963d	0.06669281
130	0xbd975cae	-0.07390724
131	0x3d085e80	0.033293247
132	0xbd9d5f9f	-0.07684254
133	0x3d8bae5d	0.068203665
134	0x3db03280	0.08603382
135	0xbd7c284f	-0.06156188
136	0x3daafa08	0.08348471
137	0x3d733e32	0.059385486
138	0x3cadbf60	0.021209419
139	0x3c77db85	0.015128021
140	0xbd88e492	-0.06684221
141	0x3dae002f	0.08496129
142	0xbd9c6d63	-0.07638051
143	0x3cbecb53	0.023290312
144	0x3d614b6c	0.05500357
145	0x3d9e76e3	0.077375196
146	0xbd4b8dea	-0.049695887
147	0x3d8a6967	0.06758385
148	0xbd9893cf	-0.07450067
149	0xbd8411ad	-0.06448684
150	0x3d8c9e0a	0.06866081
151	0xbd5e1e14	-0.054227903
152	0xbc885d87	-0.01664616
153	0x3c9097f0	0.017650574
154	0xbc2f7b69	-0.010710576
155	0xbca112d6	-0.019662302
156	0xbd125581	-0.035726074
157	0x3d731a0e	0.05935102
158	0x3d6addb5	0.057340343
159	0xbc1c4d0c	-0.009539854
160	0x3dc81837	0.097702436
161	0xbd96fdc9	-0.073726244
162	0x3d9902a9	0.074712105
163	0xbd85377b	-0.06504723
164	0xbdd952f3	-0.106115244
165	0x3c386b23	0.011256012
166	0xbbbfa942	-0.0058490345
167	0xbd3dabf0	-0.04630655
168	0x3d44ed97	0.048078146
169	0xbd842041	-0.064514644
170	0x3da2ab2e	0.07942806
171	0x3dc2409c	0.094849795
172	0x3ceaa246	0.028641831
173	0x3c0a8bbe	0.008456169
174	0xbc54db17	-0.012991688
175	0x3cae7eb7	0.021300657
176	0x3ce57cbd	0.028013581
177	0x3dd51932	0.10405196
178	0xbd012ee1	-0.031538848
179	0x3da08019	0.07836933
180	0x3dccd5c3	0.10001709
181	0xbb8b65df	-0.0042540873
182	0x3c491ada	0.012274468
183	0xbb937d89	-0.004501049
184	0x3d97c637	0.07410853
185	0xbd076279	-0.033052895
186	0x3cf57efb	0.029967776
187	0x3d64865d	0.0557922
188	0x3d1cbe31	0.03826732
189	0x3c97a688	0.018512025
190	0x3d87f19d	0.06637881
191	0x3d309efe	0.043120377
192	0x3da47ecf	0.08031999
193	0x3c0d6fa9	0.008632579
194	0x3d65e5a2	0.056127198
195	0xbcc84d6c	-0.02445098
196	0x3d953af1	0.07286633
197	0x3b455cd9	0.0030115156
198	0xbd6cc334	-0.057803348
199	0xbd6430b4	-0.05571051
200	0x3dec8fcc	0.115508646
201	0xbc807e2f	-0.015685169
202	0xbcbeb4e6	-0.023279618
203	0xbd1d628a	-0.038424052
204	0xbce80b81	-0.028325798
205	0x3ac273e9	0.0014835569
206	0x3b702340	0.0036642104
207	0xbc40f32f	-0.0117767295
208	0xbd82982a	-0.06376679
209	0x3d41e695	0.04733904
210	0xbd55f555	-0.05223592
211	0x3cbe6bd8	0.023244783
212	0x3d049d45	0.032376546
213	0xbc72e1e6	-0.014824366
214	0x3d09af62	0.033614524
215	0xbd1bfbba	-0.038081862

conv2d.2.bias f4 [2]
0	0x3d9d5067	0.07681351
1	0x3c53a440	0.012917578

fc.0.weight f4 [50, 1292]
0	0x3cc5fdb2	0.024168823
1	0xbc6d3bf4	-0.014479626
2	0xbbc6a2e1	-0.006061897
3	0xbb638d4c	-0.003472167
4	0x3cd46f50	0.025931984
5	0x3c22753e	0.009915648
6	0x3cc204a9	0.023683863
7	0x3afc37e4	0.0019242731
8	0xbc883150	-0.016625077
9	0xbcafd5b8	-0.021464214
10	0x3ae0a6d4	0.0017139562
11	0xbc88f7fc	-0.01671981
12	0xbcb130f4	-0.021629788
13	0xbc941d3f	-0.018080352
14	0x3bd6e762	0.0065583447
15	0xbbff1040	-0.0077839196
16	0x3ce054df	0.02738422
17	0xbcbc02cf	-0.022950558
18	0xbbc6a828	-0.0060625263
19	0xbb989611	-0.004656561
20	0xb9733f84	-0.00023197947
21	0xbc7dd1fd	-0.01549196
22	0x3b920977	0.0044566947
23	0xbcb74142	-0.022369985
24	0x3b533588	0.0032227952
25	0x3b4184fc	0.0029528728
26	0xbc321fed	-0.0108718695
27	0x3ca92f17	0.020652337
28	0xba369f45	-0.0006966482
29	0x3ce5afd3	0.028037941
30	0xbbef1486	-0.0072961478
31	0x3bcbd9f0	0.0062210485
32	0xbcde0b06	-0.027104866
33	0xbcc391a7	-0.023873163
34	0x3c529e91	0.012855188
35	0xbc8514c7	-0.016245259
36	0x3c4e6df7	0.01259946
37	0xbbbf18eb	-0.005831828
38	0x3c214131	0.009842203
39	0x3c532ffe	0.01288986
40	0xbcbdd464	-0.023172565
41	0x3cbf210b	0.023331186
42	0x3cce0c07	0.02515222
43	0x3cbf3869	0.023342328
44	0xbc1189d1	-0.008882956
45	0x3c5a669e	0.01333013
46	0x3ba27682	0.004957975
47	0x3b9e6609	0.004833941
48	0xbcd57c24	-0.026060171
49	0x3c719b34	0.014746476
50	0x3c9ed9b2	0.019390915
51	0x3cc56ee7	0.024100734
52	0xbb3960d2	-0.002828647
53	0xbb9a95a6	-0.0047175465
54	0xbc1dd6bf	-0.009633719
55	0x3ba67784	0.0050801653
56	0xbc0a6c47	-0.008448667
57	0x3c08784e	0.008329464
58	0x3c887bde	0.016660627
59	0x3ca88e3b	0.020575633
60	0xbc9f9fb7	-0.019485338
61	0xbba2e56f	-0.0049711983
62	0x3cbae514	0.022814311
63	0x3b99eed9	0.0046976623
64	0x3c98c489	0.018648403
65	0xbc2cb71e	-0.010541705
66	0x3b87b711	0.0041416963
67	0xbc9052cb	-0.017617604
68	0xbcda6be3	-0.026662773
69	0x393ae2b7	0.000178228
70	0x3cadbe89	0.021209018
71	0xbc95877e	-0.018253084
72	0x3c534f64	0.012897346
73	0xbb965cd7	-0.004588704
74	0x3b93f901	0.0045157676
75	0x3c34d365	0.0110367285
76	0xbac204dc	-0.0014802474
77	0x3c8192e2	0.01581711
78	0xbcdf4a02	-0.02725697
79	0x3cdc673a	0.026904691
80	0xbca98acc	-0.020696066
81	0xbcd9ae68	-0.026572421
82	0xbb47b894	-0.0030475007
83	0xbb3354b9	-0.002736373
84	0xbc47d324	-0.012196336
85	0x3cb41171	0.021980973
86	0x3c94d8d5	0.0181698
87	0xbcabef98	-0.02098827
88	0xbb3352c7	-0.0027362572
89	0xbca2daf3	-0.019879794
90	0x3bdda347	0.006763849
91	0xbcd0221a	-0.025406886
92	0x3c6ac825	0.014329945
93	0x3cc12ab0	0.023579925
94	0xbc12a66e	-0.008950813
95	0xbc07b755	-0.008283456
96	0x3c176563	0.009240481
97	0x3b9ebe87	0.00484449
98	0x3c5d9a29	0.013525524
99	0xbcdaabea	-0.026693303
100	0xbc98c2a7	-0.018647505
101	0xbc00841d	-0.007843998
102	0x3cd11516	0.02552275
103	0xbcc6e324	-0.024278231
104	0xbafed9b5	-0.0019443544
105	0x3a64e4fe	0.0008731632
106	0xbcc9537c	-0.024575941
107	0x3cb15ce3	0.021650737
108	0x3cbe9ab9	0.023267137
109	0xbbede87e	-0.0072603812
110	0x3cce8a81	0.025212528
111	0xbc864fcb	-0.01639547
112	0xbbed80b8	-0.0072480105
113	0x3cac5e63	0.0210411
114	0x3c907a65	0.017636487
115	0xbc6d0e80	-0.014468789
116	0x3ce8b73a	0.028407682
117	0x39a58afa	0.00031574798
118	0x3c7e4bed	0.015521032
119	0x3c8ab1af	0.01693043
120	0xb9e867a4	-0.00044327707
121	0x3c76224f	0.015022828
122	0xbb8928d4	-0.0041857753
123	0x3b634fa7	0.0034684928
124	0xbcd159ac	-0.025555454
125	0xbc8abf22	-0.016936842
126	0x3c12c202	0.008957388
127	0x3bdcd547	0.006739292
128	0x3cbcca03	0.023045545
129	0xbbfe7996	-0.007765959
130	0xbc99a151	-0.01875368
131	0x3c486f1b	0.012233521
132	0xbcb25795	-0.021770278
133	0xbc859507	-0.016306413
134	0x3cca04a6	0.02466042
135	0x3c34ef27	0.0110433465
136	0x3c129a39	0.008947902
137	0xbc978e89	-0.018500583
138	0xbbc347f5	-0.0059595057
139	0xbc3e3e6e	-0.011611564
140	0x3c6e55f4	0.01454686
141	0x3caabfbb	0.020843377
142	0x3c65de4f	0.014030053
143	0x3c803e1e	0.01565462
144	0xb9eb1b96	-0.00044843246
145	0xbbc1c186	-0.0059129624
146	0xbc46242a	-0.012093583
147	0xbc8a6749	-0.016894953
148	0x3ccbf0c4	0.02489508
149	0x3c36782e	0.0111370515
150	0x3cbe6706	0.023242485
151	0xbc107c48	-0.008818693
152	0xbc994ee4	-0.018714376
153	0xbcb5d06d	-0.022194112
154	0xbbb50fcb	-0.0055255643
155	0x3cc9ea2b	0.024647793
156	0xbc7a0214	-0.0152592845
157	0x3b5af681	0.0033411088
158	0x3c7cbe1d	0.015426186
159	0xbc591c70	-0.013251409
160	0x3b21fe28	0.002471814
161	0x3ba5ec30	0.005063556
162	0x3ad95e82	0.0016583952
163	0xbcbaf85a	-0.022823501
164	0x3cefc79b	0.029269984
165	0x3a9e2ec5	0.0012068382
166	0xbbe1b7f8	-0.006888386
167	0x3b88cb46	0.0041746227
168	0x3b9c410f	0.004768498
169	0xbc5bbee8	-0.013412215
170	0x3cca8e58	0.024726078
171	0xbc7d292a	-0.015451709
172	0xbc54a8dd	-0.012979713
173	0x3ca666d5	0.020312706
174	0x3cb53e70	0.0221245
175	0x3b0c37c6	0.0021395548
176	0xbc96dedc	-0.018416815
177	0xbcd8d281	-0.026467564
178	0x3c4b30ee	0.012401802
179	0xbc5448a2	-0.01295677
180	0xbca3db17	-0.020001931
181	0xbb644f8d	-0.0034837455
182	0xbc80986b	-0.015697679
183	0x3b9fcb00	0.0048764944
184	0xbc154044	-0.00910956
185	0x3aee0622	0.0018159787
186	0xbcb712d8	-0.022347853
187	0x3c3d40fb	0.011551137
188	0xbccdff1f	-0.025146065
189	0x3c007846	0.007841175
190	0x3cd40fb7	0.0258864
191	0xbb3c9fbf	-0.002878174
192	0x3cd86c45	0.026418814
193	0xbc9a8489	-0.018862026
194	0xbc0f3ce5	-0.008742546
195	0x38054e89	3.1782813e-05
196	0x3c2ed8ae	0.010671778
197	0xbbba0ab8	-0.0056775473
198	0xbc5b02c6	-0.01336736
199	0x3caf13b2	0.021371696
200	0x3bcc36c5	0.006232115
201	0x3c50822e	0.01272635
202	0xbc98fee6	-0.018676233
203	0xbc0fa9ea	-0.008768538
204	0xbbfdb8d1	-0.007742979
205	0x3c053880	0.008131146
206	0x3c74683f	0.014917432
207	0x3cdadba9	0.02671607
208	0x3cbe2c1c	0.023214392
209	0x3cdb5e7e	0.026778456
210	0x3c65e6d7	0.014032087
211	0xbcddd93a	-0.02708112
212	0x3cce5a20	0.02518946
213	0xbce75b33	-0.02824173
214	0xbab342ae	-0.0013676488
215	0x3c8d814a	0.017273564
216	0x3c89172d	0.016734684
217	0x3bf73081	0.007543624
218	0x3c11e5c2	0.008904876
219	0x3c5199ed	0.012793046
220	0xbcc66b14	-0.02422098
221	0xbc77c2e3	-0.015122148
222	0x3b46b012	0.0030317348
223	0xbc397aba	-0.011320764
224	0x3c55f703	0.01305938
225	0x3ca14e19	0.01969056
226	0xbbd759fb	-0.006572006
227	0x3ce2c020	0.027679503
228	0x3ccc867c	0.02496647
229	0xbc4e1d94	-0.012580294
230	0x3c4f134e	0.01263888
231	0x3cc546e6	0.024081659
232	0xbb52c5aa	-0.0032161274
233	0xbbb5af8c	-0.0055446085
234	0xbb513cc2	-0.0031927084
235	0xbcc5b461	-0.024133863
236	0xb9efb1fe	-0.00045718247
237	0xbbdf9bf6	-0.006824012
238	0xbcdd4d30	-0.027014345
239	0xbcabf000	-0.020988464
240	0x3c69e91d	0.01427677
241	0xbce4edf1	-0.02794549
242	0x3c59cbfc	0.013293263
243	0x3cb411c7	0.021981133
244	0x3c9fd1a9	0.019509153
245	0xbc1bb2b3	-0.009503054
246	0xbc25095d	-0.010073033
247	0xb97397ba	-0.00023230808
248	0xb951727a	-0.00019974439
249	0xbc8b4974	-0.017002799
250	0x3c708014	0.014678974
251	0xbc323d59	-0.010878884
252	0xbcd5cabc	-0.026097648
253	0x3c3fbf2c	0.011703294
254	0xbc9cdc88	-0.019148126
255	0xbca71bd4	-0.020399012

fc.0.bias f4 [50]
0	0xbce39e38	-0.027785406
1	0x3ce1b70b	0.027553102
2	0x3c68eea5	0.014217054
3	0x3a9deddd	0.0012049038
4	0x3c8b485c	0.017002277
5	0x3c4f47de	0.012651412
6	0xbc1d9739	-0.009618574
7	0xbbebd50c	-0.007197028
8	0xbc460ee4	-0.012088511
9	0xbc6ea356	-0.0145653095
10	0x3be861dc	0.007091744
11	0xbc25411d	-0.010086325
12	0xbbba22e6	-0.0056804297
13	0xbcb237c8	-0.021755114
14	0x3c5b5534	0.013387013
15	0xbbd6fcce	-0.0065608984
16	0x3c355844	0.011068407
17	0xbcafb6c8	-0.021449462
18	0xbb077ae6	-0.0020672618
19	0xbc2442f8	-0.010025732
20	0x3bd0490b	0.0063563637
21	0x3ce181b8	0.027527675
22	0xbc0e7c95	-0.008696695
23	0xbb859a68	-0.0040772445
24	0xbc6ee2af	-0.014580413
25	0x3b67af99	0.0035352467
26	0xbc9bd394	-0.019021787
27	0x3c755499	0.014973783
28	0xbcaf5d9b	-0.02140694
29	0x3bbaa60b	0.0056960634
30	0xbcba31b8	-0.022728786
31	0x3c9d8555	0.019228617
32	0xbc178b9c	-0.009249594
33	0x3ca62477	0.02028106
34	0x3c377774	0.011197913
35	0xbb44137c	-0.002991884
36	0x3b5c08b4	0.0033574523
37	0x3c99b27d	0.018761868
38	0x3c2541b6	0.0100864675
39	0xbcc7e436	-0.024400812
40	0xbcc0dc5b	-0.023542574
41	0x3c95d848	0.018291607
42	0x3c74a567	0.014932013
43	0x3c9596c1	0.018260362
44	0x3b471124	0.0030375207
45	0x3c2cb0a0	0.010540158
46	0x3b83cb6e	0.0040220534
47	0x3ce0f4b0	0.027460426
48	0x3c9f0731	0.019412609
49	0x3ca74f7f	0.020423649

fc.1.weight f4 [50]
0	0x3f7f91f8	0.99832106
1	0x3f8199d1	1.0125066
2	0x3f825d26	1.0184677
3	0x3f80147b	1.000625
4	0x3f81342f	1.009405
5	0x3f80a61d	1.0050694
6	0x3f826b26	1.0188949
7	0x3f7f5d29	0.99751526
8	0x3f807954	1.0037026
9	0x3f805204	1.0025029
10	0x3f81ecbc	1.0150371
11	0x3f80b21b	1.0054353
12	0x3f815b03	1.01059
13	0x3f800b55	1.0003458
14	0x3f8081ee	1.0039651
15	0x3f8078b2	1.0036833
16	0x3f8110da	1.0083268
17	0x3f80d537	1.0065068
18	0x3f803165	1.0015074
19	0x3f806f90	1.0034046
20	0x3f8074b9	1.0035621
21	0x3f8030e3	1.0014919
22	0x3f804c9b	1.0023378
23	0x3f80ffbb	1.0078043
24	0x3f811261	1.0083734
25	0x3f803a4a	1.0017788
26	0x3f828254	1.0196023
27	0x3f809469	1.0045291
28	0x3f7fed04	0.9997103
29	0x3f806e4a	1.0033658
30	0x3f8074eb	1.003568
31	0x3f815125	1.0102888
32	0x3f807e54	1.0038552
33	0x3f80ff25	1.0077864
34	0x3f8196af	1.012411
35	0x3f803c65	1.0018431
36	0x3f8119be	1.0085981
37	0x3f80d50c	1.0065017
38	0x3f80c915	1.0061365
39	0x3f8037dd	1.0017048
40	0x3f81208c	1.0088058
41	0x3f81f2af	1.0152186
42	0x3f800270	1.0000744
43	0x3f814e4d	1.010202
44	0x3f81b65c	1.0133777
45	0x3f80e6d9	1.0070449
46	0x3f7feb11	0.9996806
47	0x3f80e176	1.0068805
48	0x3f80bcbe	1.00576
49	0x3f81eeaa	1.015096

fc.1.bias f4 [50]
0	0xbce288b0	-0.027653068
1	0xbc91af7a	-0.017783869
2	0xbb40b40a	-0.0029404187
3	0xbc540b98	-0.012942217
4	0x3bc78152	0.006088414
5	0xbb9d900a	-0.0048084306
6	0x3bb1d617	0.005427133
7	0xbced5851	-0.028972777
8	0xbbc3b946	-0.005973014
9	0xbb714a4c	-0.0036817966
10	0xbcb2755a	-0.021784473
11	0xbbe2de55	-0.0069234767
12	0x3b6d5e6a	0.0036219605
13	0x3bc72bdd	0.006078227
14	0xbad35a2f	-0.0016124899
15	0xbbec4724	-0.007210629
16	0xbc08aef6	-0.008342495
17	0xbc6fa715	-0.014627238
18	0x3c0f7d74	0.008757938
19	0x3c2d7b53	0.010588485
20	0xbb750c1f	-0.0037391258
21	0x3c4166d9	0.011804306
22	0x3bdba806	0.0067033796
23	0xbb9c3f4b	-0.0047682873
24	0x3ac8d8e8	0.0015323432
25	0x3c50e31e	0.012749461
26	0xbbb19af1	-0.005420082
27	0xbca6ac64	-0.020345874
28	0x3c86be7e	0.016448256
29	0x3c4321cc	0.011909913
30	0x3b3a4c43	0.0028426803
31	0xbcc6c371	-0.024263116
32	0xbbf9e53a	-0.007626203
33	0xbafd8f6c	-0.0019345111
34	0x3baaa892	0.0052080834
35	0xbc5c39cb	-0.013441513
36	0xbc38e46f	-0.011284932
37	0x3c8901ab	0.016724428
38	0xbbd44b26	-0.006478685
39	0xbaef4bee	-0.0018256882
40	0xbc6a0e37	-0.014285616
41	0x3b92e3e9	0.0044827354
42	0x3cdfdd74	0.027327277
43	0x3b32095c	0.0027166223
44	0x37a3127c	1.9439722e-05
45	0xbae08efc	-0.0017132456
46	0x3bcd659f	0.0062682177
47	0x3b7016b8	0.0036634635
48	0x3bb5b11e	0.0055447957
49	0x3cb8daa7	0.022565199

fc.1.running_mean f4 [50]
0	0xbd56ba44	-0.05242373
1	0x3bbba58b	0.0057265214
2	0x3ccab853	0.024746096
3	0x3c06a666	0.008218383
4	0x3a71e2ea	0.0009227233
5	0x3cf51e26	0.029921602
6	0x3cf2d5ba	0.029642928
7	0x3e146862	0.14492944
8	0xbd3aac58	-0.045574516
9	0x3cdf15fb	0.02723216
10	0x3d4d48c9	0.05011824
11	0x3d57a1d9	0.052644584
12	0x3d5f8388	0.054568797
13	0x3c92b78a	0.017909784
14	0x3bb79b81	0.0056032543
15	0xba3815b9	-0.000702228
16	0xbba8ac7e	-0.005147516
17	0xbd4ee859	-0.050514553
18	0xbc9348a5	-0.017978976
19	0xbd2fb4e1	-0.04289711
20	0x3ca4a49f	0.020098029
21	0x3b08b89d	0.0020861991
22	0xbd998c60	-0.074974775
23	0x3c93b8d0	0.018032461
24	0x3d05ada2	0.032636292
25	0x3db977ec	0.090560764
26	0x3c27475a	0.010209883
27	0x3c433c39	0.011916214
28	0xbe5029d7	-0.2032846
29	0xbd1cd399	-0.038287733
30	0xbd83a3c7	-0.064277224
31	0xbaea204b	-0.0017862407
32	0x3d081e48	0.033232003
33	0x39db625a	0.00041844213
34	0x3d1e3799	0.03862724
35	0x3d2b9ab0	0.04189557
36	0xbd0e1636	-0.03468915
37	0x3cf1c586	0.029513132
38	0x3ce23524	0.02761323
39	0x3ca9f5f8	0.02074717
40	0x3d011030	0.03150958
41	0x3dca2f98	0.09872359
42	0xbdbe0dd5	-0.09279982
43	0xbca989dc	-0.02069562
44	0xbd57eaec	-0.052714273
45	0x3d8fa5d2	0.070140496
46	0x3e835a68	0.25654912
47	0x3ceb5b21	0.028729977
48	0x3c264e73	0.01015054
49	0x3d49c72a	0.049262203

fc.1.running_var f4 [50]
0	0x3afd1e64	0.0019311425
1	0x3ac31c61	0.0014885777
2	0x3a7555fb	0.00093588204
3	0x3a9e7c10	0.0012091417
4	0x3aac95e2	0.0013167227
5	0x3a6eb58f	0.0009106034
6	0x3a8e4de4	0.0010856953
7	0x3ae854de	0.0017725488
8	0x3ab11b11	0.0013512095
9	0x3ac3bbe4	0.0014933315
10	0x3a9d55a3	0.0012003671
11	0x3b1fe915	0.0024400402
12	0x3b0bee64	0.0021351809
13	0x3a8c3a83	0.001069859
14	0x3a861511	0.0010229667
15	0x3b365597	0.0027822012
16	0x3a739741	0.0009292253
17	0x3a9fd32c	0.0012193671
18	0x3a82241e	0.0009928977
19	0x3aed1759	0.0018088623
20	0x3afe9092	0.0019421747
21	0x3aaf595a	0.0013378069
22	0x3ae555fc	0.0017496939
23	0x3b648ca3	0.0034873865
24	0x3b0753dc	0.002064935
25	0x3a8b6d64	0.0010637459
26	0x3af88cee	0.0018962899
27	0x3a693b12	0.0008897047
28	0x3ad406f7	0.0016176392
29	0x3aa790f5	0.001278429
30	0x3aeea11b	0.0018205972
31	0x3b191db9	0.0023363663
32	0x3ae5d0fc	0.0017533596
33	0x3a8f5fe3	0.0010938611
34	0x3aa4f847	0.00125862
35	0x3adeaa61	0.0016988033
36	0x3ae274cc	0.001727724
37	0x3a90f27d	0.0011058595
38	0x3a83571f	0.0010020471
39	0x3aa07d06	0.0012244291
40	0x3ad7c260	0.0016461127
41	0x3af3e823	0.0018608611
42	0x3ad3daa1	0.0016163179
43	0x3b0cadf4	0.0021465989
44	0x3abc6fce	0.0014376582
45	0x3aa8d292	0.0012880138
46	0x3b1252e5	0.002232724
47	0x3ad77940	0.0016439334
48	0x3a86f97b	0.001029774
49	0x3b3bf300	0.0028678775

fc.2.weight f4 [4, 50]
0	0x3df73b03	0.120718025
1	0x3dff1143	0.12454464
2	0x3dbe008f	0.0927745
3	0xbb07bc8f	-0.0020711755
4	0x3b49f076	0.0030813492
5	0xbc7a04b9	-0.015259915
6	0xbcefee04	-0.0292883
7	0x3e03335f	0.12812565
8	0x3cd11a5f	0.02552527
9	0x3dc0388a	0.09385784
10	0x3e025c45	0.1273051
11	0x3d48c897	0.049019422
12	0x3d4d5af7	0.05013558
13	0x3c95a34b	0.01826634
14	0x3c8eeae8	0.017445996
15	0x3df0a95c	0.11751053
16	0x3def08ff	0.11671638
17	0x3e11146e	0.1416795
18	0xbd80e724	-0.062940866
19	0xbd99fd03	-0.07518961
20	0x3d613490	0.054981768
21	0xbe0352f9	-0.1282462
22	0xbd899bd6	-0.067191765
23	0x3d822604	0.06354907
24	0x3dc93691	0.09824861
25	0xbdcf309c	-0.101166934
26	0x3de6385b	0.11241218
27	0x3e045b08	0.1292535
28	0xbc8b86c2	-0.017032031
29	0xbd75e3e1	-0.060031775
30	0xbd592ec2	-0.053023107
31	0x3dfa8363	0.12232091
32	0x3d624765	0.05524387
33	0x3c41b9ff	0.01182413
34	0xbd9b55c8	-0.07584721
35	0x3dcdf42c	0.10056338
36	0x3dc925bb	0.0982165
37	0xbe07dbd7	-0.13267456
38	0x3d33b2b9	0.043871615
39	0xbc9d1139	-0.019173251
40	0x3dafd3a6	0.085852906
41	0x3d2d96b9	0.04238007
42	0xbe094662	-0.13405755
43	0xbd58d609	-0.052938495
44	0xbc527811	-0.012846009
45	0x3d547adb	0.051874977
46	0xbc98383b	-0.0185815
47	0xbd3f0063	-0.04663123
48	0xbc92bc92	-0.017912183
49	0xbe107dbf	-0.14110468
50	0xbe126ffa	-0.14300528
51	0x3d2836c7	0.041067865
52	0xbe3e10ed	-0.18561144
53	0xbd885a86	-0.06657891
54	0xbe192512	-0.14955547
55	0xbe2d244b	-0.16908376
56	0xbd9797b7	-0.07401984
57	0xbd871c1a	-0.06597157
58	0x3db07075	0.086151995
59	0x3e18fbc5	0.14939792
60	0x3e39f810	0.18161035
61	0x3d65fc4e	0.05614882
62	0x3e1a902c	0.1509406
63	0x3d31b5b5	0.04338618
64	0x3de01c37	0.109428816
65	0xbdc76c8d	-0.09737501
66	0xbde0e5fd	-0.10981367
67	0x3e097dc6	0.13426885
68	0xbd469d4e	-0.04848986
69	0xbc4e5a8f	-0.012594833
70	0x3d6f57f5	0.05843349
71	0xbd4122e9	-0.047152434
72	0x3df5b939	0.11998219
73	0x3ddd69ad	0.10811172
74	0x3e364f25	0.17803629
75	0x3ded8766	0.11598091
76	0x3e3573ce	0.17719957
77	0x3dd67d99	0.104731746
78	0x3d964dd0	0.0733906
79	0x3e03a20c	0.12854785
80	0x3d228b3f	0.039683577
81	0xbe229f3e	-0.15881059
82	0x3d48e900	0.04905033
83	0x3e1d6d19	0.15373649
84	0x3e436910	0.19083047
85	0x3d410362	0.047122367
86	0xbde4d621	-0.11173654
87	0xbe21bbeb	-0.15794341
88	0xbe1862ef	-0.1488149
89	0x3c79a767	0.015237666
90	0xbd77c8b3	-0.060494136
91	0x3e225a07	0.15854655
92	0x3d47917b	0.048722725
93	0xbda81788	-0.08207613
94	0x3ddbac26	0.10726194
95	0xbdc1cf3a	-0.094633535
96	0x3e0170d6	0.126407
97	0x3e073d18	0.13206899
98	0xbdf856be	-0.1212592
99	0x3d8aec63	0.067833684
100	0xbdab8fa9	-0.083770104
101	0x3e08529d	0.13312764
102	0x3dc9d725	0.09855489
103	0xbdf1d252	-0.118076935
104	0x3ddbb509	0.10727889
105	0xbdfb47fa	-0.12269588
106	0xbe4b1b14	-0.19834548
107	0xbdf65dab	-0.120295845
108	0x3d61adb5	0.0550973
109	0x3cc87c20	0.02447325
110	0xbe135f68	-0.14391863
111	0xbe02b31e	-0.1276364
112	0xbd969116	-0.07351892
113	0x3d7f4dce	0.06233006
114	0x3ce3dd99	0.027815627
115	0x3e1f82ed	0.15577288
116	0x3c06ae23	0.008220228
117	0x3e0253a1	0.12727214
118	0xbc94ac72	-0.018148635
119	0xbd88cfd8	-0.06680268
120	0xbd7ec377	-0.06219813
121	0xbd938b2e	-0.07204281
122	0xbc621fa9	-0.013801494
123	0xbe1a9e1f	-0.15099381
124	0xbcbf558d	-0.023356223
125	0x3cf5bd91	0.029997619
126	0xbe361cd7	-0.17784439
127	0xbc851dfe	-0.016249653
128	0x3e1dffaf	0.15429567
129	0x3da73a27	0.081653886
130	0xbde28513	-0.11060538
131	0x3db91780	0.090376854
132	0x3da7e072	0.081971064
133	0x3d91a2da	0.071111396
134	0xbd90d510	-0.070718884
135	0xbdccb9c5	-0.0999637
136	0x3dfabd4a	0.12243135
137	0xbd61c524	-0.05511965
138	0xbd3b9810	-0.045799315
139	0x3c9ec5a4	0.019381352
140	0xbe446cee	-0.19182178
141	0xbe0018a1	-0.12509395
142	0x3e0ebad6	0.1393846
143	0x3e0453dc	0.12922615
144	0x3e2263fb	0.15858452
145	0xbd4e1a61	-0.050318126
146	0x3d7348b2	0.0593955
147	0xbd99b381	-0.07504941
148	0x3d3f0133	0.046632003
149	0xbe3e42c3	-0.18580155
150	0xbdd5f0a5	-0.1044629
151	0xbe1cad0c	-0.15300387
152	0x3e443ece	0.19164583
153	0xbe09bc27	-0.1345068
154	0x3dfd49a6	0.12367563
155	0x3d450450	0.048099816
156	0x3e442da8	0.19158041
157	0xbe057deb	-0.13036315
158	0xbdff82ee	-0.12476145
159	0x3d2bc3fc	0.041934952
160	0xbdffe5d3	-0.12495007
161	0x3d093333	0.033496093
162	0x3e08025b	0.13282149
163	0x3db6ebab	0.08931669
164	0xbd7f4a70	-0.06232685
165	0x3d8793b6	0.066199705
166	0x3e226167	0.15857469
167	0xbdd9a448	-0.10627037
168	0x3d75783e	0.059929125
169	0x3da51a21	0.08061624
170	0x3d6e6ff5	0.05821224
171	0x3c4618fa	0.012090916
172	0xbd949baf	-0.07256257
173	0x3daf7d93	0.08568873
174	0x3e2160a1	0.15759517
175	0xbd7cf5a0	-0.061757684
176	0x3e1ea92f	0.15494226
177	0xbe08662d	-0.13320227
178	0x3df47e7c	0.119381875
179	0xbd2ca171	-0.04214615
180	0xbc8e32f5	-0.017358283
181	0xbe140185	-0.14453705
182	0xbdc0e4d7	-0.09418648
183	0xbe070d42	-0.13188651
184	0xbe033d2e	-0.12816307
185	0x3ca838dc	0.020534925
186	0xbbd90c7a	-0.006623802
187	0x3e002f45	0.12518032
188	0x3da6059d	0.081065394
189	0xbdc18c1b	-0.09450551
190	0x3da1f547	0.07908111
191	0x3e242166	0.16028365
192	0x3db8c3d4	0.09021726
193	0xbdd7eca8	-0.105431855
194	0xbe3357f0	-0.17514014
195	0x3e26451d	0.16237302
196	0xbd036daf	-0.032087024
197	0xbd431b76	-0.04763361
198	0x3dd19b1f	0.10234665
199	0x3e339624	0.17537743

fc.2.bias f4 [4]
0	0xbe5d04c4	-0.21583849
1	0x3d8f0fef	0.06985461
2	0xbdacfc82	-0.084465995
3	0xbd3784fd	-0.044804562
