KGs/mutagenesis/model weights/GRU_{_hidden_dim_ 100, _n_layers_ 2}_.pt (torch, 438753 bytes, 16 tensors)

gru.weight_ih_l0 f4 [300, 40]
00000000: 6062 9cbb 43ea 3b3d 3936 0e3c 20c1 c33d
00000010: 0a93 843d 6357 973d 7d83 a2bd fdf8 58bd
00000020: 81d5 863d c7bd 41bc 3ed6 6abd 912b bdbd
00000030: 8f59 283d 6d0c 253c a1a9 b53b 3968 3cbc
00000040: 173a 32bd 7318 9c3d fed7 63bc 2795 5ebd
00000050: 42bf e6bb b7ee bd3d efbb 9fbd 4bd5 54bc
00000060: 5ce1 c23d 28d2 653c 5b86 853d 8c03 083d
00000070: 1b64 83bd a50a b4bc 27e4 b0bc e7b7 203c
00000080: adaa ad3d fac3 9ebd 700f 58bd ab9a 7e3d
00000090: 4fa8 cd3c 0b5a b9bd 3b2b b23d 0ab1 a6bd
000000a0: 8b3a a1bd 91f8 88bd a090 ee3c 5404 e23c
000000b0: 2d5a 183c 3354 f7bc 8b04 a0bc 981e 273d
000000c0: d2ba 463d 2e49 c23d 25f6 9fbd e9f4 8f3b
000000d0: ce43 0fbd 4df9 89bd d2a7 523d eb10 233d
000000e0: 4e29 7cbd 5a44 0f3c 7781 a1bc 7cd6 563d
000000f0: 3d5d aabd 812a 85bd 1387 22bd d265 35bd
00000100: 29a5 0fbc a710 9f3c fe46 dc3c 770f ccbd
00000110: 77f3 c33d 54b9 6f3d 50bb 1dbd fea0 753d
00000120: 5c5b 42bd 21dc a03d 27c1 48bc 858c 663d
00000130: 58dc 563c 2910 76bd 9c41 97bd 1fa5 c9bd
00000140: a32e 33bc 3b01 963b 80c7 dbbb 42b8 b53b
00000150: 5c91 673d 60f8 b1bc 1ea1 173c eb71 b4bd
00000160: 7f1d 7b3d 2ae8 c23d d345 2b3d c92e 683c
00000170: c36b f3bc 16af 7ebd ddf0 b1bd af96 8dbd
00000180: 1d7a 5d3b 788d 993d 423d 05bc 2cb8 85bc
00000190: 4d9b 9a3c d19a 52bd 4474 6e3d 7d2c e23c
000001a0: 1067 8dbd 06e2 9cbd cfce b3bd 71b2 96bd
000001b0: 63f4 f43c 9c5d 6cbd 873b 55bc e457 2f3d
000001c0: 4adb d3bc 1882 36bd ca48 983d cd3e b43d
000001d0: 82d0 f53c ce0c dcbc 622e a03d 85ee bbbd
000001e0: 13de f3bb eea2 b33d 55c0 143d f914 233c
000001f0: 3f83 b6bd fef6 8fbd 4e4d 173d 804a 343d
00000200: 6e40 273c 450b b13b 8c13 573d 3242 863c
00000210: 3f42 77bd 49cc 9f3d d4d1 0dbd 1ae9 9c3d
00000220: 09d0 b73d 499d c1bd dfba adbc 5b93 1bbd
00000230: 7513 a03d 0959 c93d c804 69bc 3a52 af3b
00000240: 768f 8f3d 740b c33c c4e9 923d 4dfd 8dbd
00000250: 40c3 863c 4698 ad3d 40ae e53a 6987 4d3b
00000260: aa17 d1bc b96b 9a3d c9de 30bd ec28 453d
00000270: d7cd 66bd 3740 c9bb 48a7 a9bc 09e1 bb3d
00000280: 744f b93c 974c 363d 5a00 4ebc c66a 5fbc
00000290: 147e cb3d 8d25 413d 715a 9f3d 4216 8e3d
000002a0: d864 823d 1023 68bd 2f9b 603d 2fe0 8a3c
000002b0: 9291 113d e823 993b 54ce 69bd d460 103d
000002c0: 7f2b 8e3d b2bb f43b b4fc 9bbd bfa4 023d
000002d0: 642a 60bc 56f5 ab3d 4f19 3e3c e0a4 733d
000002e0: 3151 543b 7d81 003c e1e9 113d 5f83 be3d
000002f0: a82f 77bc 4777 40bd 8dee f23c 5a22 9b3d
00000300: be98 a9bd 7a59 1f3d 22ad 453c 98d6 443d
00000310: f5fa b73d d110 64bd 0b5d d2bc 5c8d 833d
00000320: e2cb c03d e9cb abbc b0f6 0bbd a303 23bc
00000330: 6216 c8bd f5f7 093d 3afc 8e3c 06a4 4cbd
00000340: 9063 80bd 5325 68bd f761 03bd d8d0 34bd
00000350: ebc8 4f3d 60df a5bc a06a 5e3d 02ae 5f3d
00000360: 4bc5 76bd a356 11ba d572 10bd 29df b03d
00000370: 82d6 33bc f1df 8cbd 9b86 b8bd bac5 463d
00000380: 4756 70bb a99c c7bd 9e3e 60bd a528 9b3d
00000390: 6adc 0b3d 5134 babd 29c7 4d3d c67c af3d
000003a0: 3edb c7bd 0b93 763c e4fa 0a3c 7afd be3d
000003b0: 30d7 c9bd 409e 44bd a4ef cbbd 9437 a9bd
000003c0: 6bf6 4dbd ddf1 cabd eb25 a13c 551a b8bd
000003d0: 49f0 acbc 53c7 853d 4be2 423d fa68 433d
000003e0: 1dec ec3c b5cb bbbd b63d 85bd 3f2d 9c3d
000003f0: 02ad 3e3d a078 a9bd 8a51 98bc 4fef 7dbd
-0.0047724694 0.045877706 0.00867992 0.0955832 0.06473358 0.073897146 -0.07935236 -0.05297183
0.065836914 -0.011825032 -0.057333224 -0.09236825 0.041101035 0.010073763 0.005543903 -0.011499458
-0.04351243 0.07621851 -0.013906477 -0.05434146 -0.0070418427 0.09274047 -0.07799517 -0.012990306
0.0951564 0.014027156 0.06519767 0.033206508 -0.06415578 -0.021977732 -0.021593167 0.009809471
0.084798194 -0.07752223 -0.052749097 0.06215922 0.02510467 -0.090503775 0.08699652 -0.08139236
-0.07872494 -0.06688035 0.029121697 0.027589954 0.009298843 -0.030191517 -0.019533416 0.04080066
0.04851801 0.09486614 -0.0781062 0.0043932092 -0.034976773 -0.067370035 0.051429577 0.039811056
-0.06156283 0.008744324 -0.019715054 0.052450642 -0.08318565 -0.065022476 -0.039679598 -0.044286557
-0.008767405 0.01941712 0.02688932 -0.09963887 0.095679216 0.058526352 -0.038508713 0.059967987
-0.04745041 0.07854486 -0.012253082 0.056286354 0.0131140575 -0.060074005 -0.07385561 -0.098459475
-0.010936412 0.0045777834 -0.006707132 0.005545647 0.05653511 -0.02172488 0.009254722 -0.08810791
0.061307427 0.09516938 0.041814636 0.014171311 -0.02971447 -0.062178694 -0.08688519 -0.06913506
0.003379471 0.07497686 -0.008132281 -0.016323172 0.018872881 -0.051417176 0.05821635 0.027609104
-0.06904423 -0.07660298 -0.0877968 -0.07358254 0.029901689 -0.05770646 -0.013014681 0.04280843
-0.025861401 -0.04455766 0.074357584 0.08801041 0.03000665 -0.026861575 0.07821347 -0.09176353
-0.007442245 0.08771311 0.036316235 0.009953731 -0.08911752 -0.07029532 0.036938958 0.04401636
0.010208232 0.0054029548 0.052508876 0.016388986 -0.06036591 0.07802636 -0.034623936 0.07661648
0.089752264 -0.09453828 -0.021207271 -0.037982326 0.07816211 0.09831435 -0.014222331 0.0053503783
0.07009785 0.023809172 0.071734935 -0.06933079 0.016450524 0.084763095 0.0017523244 0.0031361228
-0.02552398 0.07540078 -0.043181214 0.04813473 -0.056348648 -0.006141688 -0.020709649 0.091737814
0.022620894 0.044506636 -0.012573326 -0.013636297 0.09936157 0.04715495 0.07780922 0.06937839
0.06366891 -0.056674063 0.054835495 0.016952602 0.035539217 0.00467347 -0.057081535 0.035248592
0.0694189 0.007468664 -0.07616559 0.031895395 -0.013681982 0.083964035 0.011602714 0.05948341
0.0032397027 0.007843372 0.035623435 0.09302401 -0.015087046 -0.04698875 0.029654766 0.075749114
-0.082810864 0.03890369 0.012065204 0.048056215 0.08983413 -0.0556801 -0.025679132 0.064234465
0.094138876 -0.020971255 -0.034170806 -0.0099495975 -0.09769894 0.033683736 0.017454255 -0.049961112
-0.0626899 -0.05667622 -0.03207585 -0.04414448 0.05072872 -0.020248115 0.054300904 0.054609306
-0.060246747 -0.0005544221 -0.035265762 0.086363144 -0.010976436 -0.06878651 -0.09010049 0.04852841
-0.003667252 -0.097466774 -0.054747216 0.07576112 0.03414575 -0.0909201 0.050238762 0.085687205
-0.09758614 0.015049706 0.008482669 0.093256906 -0.09855497 -0.04800248 -0.09957817 -0.08262554
-0.05028383 -0.09909413 0.019671401 -0.089893974 -0.02111067 0.06532159 0.04757909 0.047707535
0.028921181 -0.091697134 -0.06505911 0.076258175 0.04655171 -0.082749605 -0.018593568 -0.0619958

gru.weight_hh_l0 f4 [300, 100]
00000000: ee78 a93d 7509 733c 5efe 8c3d d326 d23c
00000010: 85ac b93c 64e4 8b3d a6a9 b93d 2068 bf3d
00000020: de8a f3bc 9eb3 bf3d f133 b83d 17e1 47bd
00000030: e569 ac3d 4c72 cb3d 92b3 65bd fc2b bcbd
00000040: 53dd 75bd 73c3 a23d 49bd 283d 0549 283c
00000050: 4776 3abc d2c9 43bc 17cb 013d 810b c2ba
00000060: 1b1d 1fbd 8c5e c73d 4733 a1bb ced6 4a3d
00000070: b417 0f3d 1631 2d3d 70bd 7f3d 5dbc 8cbc
00000080: e2dd 4b3d 5e73 913d 3c72 ebbc 6d38 cbbd
00000090: 1f4e c33d d989 c03d 2752 8d3d 7bec 4cbd
000000a0: 2195 e93c cc0a a0bd ed0a 953d b127 3a3d
000000b0: d127 9fbd d18e bcbd 2334 4bbc 2362 98bb
000000c0: efed c53d 3e87 b63d 6c51 b5bb 687a 0a3d
000000d0: 6863 65bd 78e1 abbd 2a4f 21bb 1529 23bd
000000e0: 5ba8 a3bd 0306 833b d237 8d3d fb4f 1abd
000000f0: f4af 853c 7020 32bc 6085 ea3c 5e20 4d3d
00000100: 88b3 763d 47a6 ca3c 383f c3bc c169 603d
00000110: 9c14 b03d bdd0 49bd bc26 98bd 360a bbbc
00000120: b4fc acbd b451 e33b 8465 09bb 5ab1 91bd
00000130: 2646 533c 8572 843d 94e0 24bd bdfa 923d
00000140: ceb6 cbbd fb43 8dbd 5121 96bd eb47 65bd
00000150: 3aed 30bd 52f5 3c3d 9791 86bd e379 c63d
00000160: ac1e b9bc d5fe 6d3c 4a1c 99bd aa89 b83d
00000170: 588f bfbd 5d6c 3e3d 1594 42bd 9cd3 3e3d
00000180: ab50 803c 6a80 513d 63e1 b73d 278c c0bd
00000190: 9e75 c6bc 74b4 ca3c 90b7 9e3d fd96 1fbd
000001a0: 99d5 f43c 7a76 39bb 82b3 92bc a5ab c4bd
000001b0: 526a 623d 071e 75bd e8ca 78bd f00b 293d
000001c0: d2f1 9a3d 6de7 b3bd 706b 4ebd 1e38 46bd
000001d0: 2123 8f3d b248 59bd 8a7c fcbc df03 9d3b
000001e0: 4743 ba3d 454f a6bd df28 94bd a6ff 4b3c
000001f0: 6459 a23d ba15 9a3d 4c58 6fbd 9529 8d3c
00000200: 48e6 883c 6f93 c5b8 5ea8 133c f176 bf3d
00000210: 53bb a9bd d711 07bd 29bd 7a3c 9054 c8bd
00000220: 8863 6e3b 09a4 9cbc 8b39 663d 83af 56bd
00000230: fc89 21bd 12e3 be3d ad52 bdbb 050b 413c
00000240: 1781 363c 497b 8f3d aaca 9b3d 5718 2bbc
00000250: 733d 89bd 6e9b 423d e963 a4bb 34fc b23d
00000260: b8c5 6b3d a776 85bb 045a 463d 0fb0 5b3d
00000270: d8ce a03d 62fe f43c 6a36 943d 051c adbd
00000280: aee1 aebc 559a 323d dbc7 b23d 105f 8f3d
00000290: 0d05 b4bd d42b 303c c3b0 08bd 2489 96bc
000002a0: 53e6 86bd 5cbe 2a3d 8cd3 b23d 4304 923a
000002b0: c375 2cbd 7496 4c3d be4e 043c 8268 ac3c
000002c0: 6f15 a63c d8b7 50bc 79a3 343d 3a98 c5bd
000002d0: 8fbd ab3d 370b 83bb c2e0 d3bb 20a8 943d
000002e0: 17df 933d 4689 803b 9165 cd3c 3287 973d
000002f0: 0dcd 9ebd 02ab 8abd 3eee bebd caab 01bd
00000300: dce2 afbb 10e9 87bc 5814 94bd 90aa 8d3d
00000310: b4b5 2ebd 4e6d 333d dfb0 9bbd 2f1f c7bd
00000320: f8c9 1ebd 2a92 503c b7d1 353d 9541 13bd
00000330: cf5e 733d 4bdd 523d 5eb8 8dbd 21d6 6abd
00000340: 34ca 21bd 5ff6 55bd cd9d 08bc e258 813d
00000350: 566d 5f3d 3998 48bb 89b0 283b 7955 af3d
00000360: 9a72 8abd 195c 85bc a0c3 303d f10d 7fbd
00000370: dfc7 203d d2b2 6a3d 1bee a4bd 3178 89bd
00000380: 1633 293d bfd7 61bd 7586 a73c 7d3e 48bd
00000390: 3684 b8bc cfaf 173d 2ced eb3c 68f5 913d
000003a0: fb7c a0bc 9063 98bd 2f1b 30bb 994c 983c
000003b0: bb65 0e3d 1733 e53c 5789 b7bc 1d52 9a3d
000003c0: 7883 133d 8487 453d 5ef3 073d c078 29bc
000003d0: f191 ae3d 3e4f 843d 3b45 873d aa01 87bd
000003e0: 42d2 11bc cf6b 83bc b1c9 2b3d a3fe 29bb
000003f0: 3bd8 cb3d a670 6e3b ddfb 93bd 11eb 913c
0.08275019 0.014833798 0.06884454 0.025653278 0.022665272 0.068306714 0.09065561 0.09346032
-0.029729303 0.09360431 0.08994282 -0.048798647 0.08418635 0.0993391 -0.056079455 -0.09188077
-0.060025524 0.07947435 0.04119614 0.010271315 -0.011380739 -0.011949973 0.031687822 -0.0014804454
-0.038846117 0.0973483 -0.004919443 0.04952126 0.034934714 0.04228314 0.06243652 -0.017179662
0.04977215 0.07102083 -0.028740995 -0.09922872 0.09536385 0.09401292 0.06900435 -0.050030213
0.028513493 -0.07814559 0.072774746 0.04544801 -0.07771266 -0.092069276 -0.012402567 -0.0046503707
0.09664523 0.08912514 -0.005533388 0.033808142 -0.056003004 -0.08392614 -0.0024613836 -0.0398341
-0.07991096 0.0039985194 0.068954125 -0.03767393 0.016319253 -0.0108719915 0.028628051 0.050079696
0.060229808 0.02473749 -0.023833856 0.054788355 0.08597681 -0.049271334 -0.07429263 -0.022832017
-0.08446637 0.00693723 -0.002096505 -0.07113905 0.012895143 0.06467155 -0.040253237 0.07176731
-0.099469766 -0.06897732 -0.07330573 -0.05597679 -0.043194987 0.046132393 -0.06570738 0.09691217
-0.022597633 0.014526089 -0.07476099 0.09010632 -0.093535125 0.046490062 -0.047504503 0.046588525
0.015663465 0.051147856 0.08978536 -0.09401732 -0.024226006 0.02474425 0.077498555 -0.038962353
0.029887008 -0.0028299377 -0.017907862 -0.09603051 0.055277176 -0.05984309 -0.06074038 0.04127115
0.07565655 -0.08784375 -0.05039543 -0.04839336 0.06989122 -0.053047843 -0.030821104 0.0047917212
0.090948634 -0.08120588 -0.07234358 0.012451088 0.07927206 0.07523675 -0.058433816 0.017231742
0.01671137 -9.421154e-05 0.00901231 0.09348858 -0.082876824 -0.032975998 0.015303888 -0.09781754
0.0036375243 -0.019121187 0.05620722 -0.052413475 -0.039438233 0.09320654 -0.005777678 0.011782412
0.011139176 0.07005937 0.076070145 -0.010442815 -0.06701174 0.04751151 -0.005016793 0.0873951
0.057561606 -0.0040729824 0.04842569 0.0536347 0.07851952 0.029906455 0.07236941 -0.0845261
-0.021347847 0.043604214 0.08729526 0.070005536 -0.08790026 0.010752637 -0.033371698 -0.01837594
-0.065868996 0.041685447 0.087317556 0.0011140186 -0.042104494 0.04994817 0.008075414 0.021045927
0.020273892 -0.012739144 0.044101212 -0.096481755 0.08385765 -0.0039991396 -0.006466002 0.0725863
0.072202854 0.0039226143 0.025072845 0.07398833 -0.07753954 -0.067708984 -0.09322785 -0.03165797
-0.00536762 -0.016590625 -0.07230443 0.06917298 -0.042653754 0.043805413 -0.07602095 -0.09722745
-0.03876683 0.012730161 0.044389453 -0.035951216 0.05941659 0.051480573 -0.06919931 -0.057333115
-0.039499477 -0.05223691 -0.008338404 0.06315781 0.05454763 -0.003060831 0.0025739989 0.085612245
-0.0676014 -0.016279267 0.043155313 -0.062269155 0.039253112 0.057299443 -0.080532275 -0.06712378
0.041308485 -0.055137392 0.020449856 -0.04888772 -0.02252398 0.0370329 0.028799616 0.07126886
-0.019590845 -0.07440865 -0.0026871671 0.018591212 0.034764986 0.027978463 -0.022404356 0.07535193
0.03601405 0.04822494 0.033191077 -0.01034373 0.0852393 0.06460427 0.066050015 -0.06592114
-0.008900227 -0.016042618 0.041940395 -0.0025939129 0.09953352 0.0036383062 -0.072257735 0.017812284

gru.bias_ih_l0 f4 [300]
00000000: 8cef 393d 4b93 063d e0c4 a5bc 9314 b7bc
00000010: 376f a5bb 5e87 c13c 73ef a33d dd91 873d
00000020: 34b5 a33b 7fda 84bd 8634 c6bd 5811 93bd
00000030: 308d 6cbd 86f4 a2bd 3cac c1bd faf1 223d
00000040: 500d a7bd d6d6 da3c 06de e43c 3a63 6a3d
00000050: b478 c93c 56c3 913d 9832 ca3d 75cc 133d
00000060: 787d a73c 7cc3 883d fa1a 613d 32a6 7a3c
00000070: b03e 2fbc 7e79 9abc 07bb 50bc a36e adbd
00000080: ae27 fcbc c326 bdbd 98ca 08bd 84ed 203d
00000090: 8d00 663c ca02 b1bd e07d b1bd 49f6 5f3a
000000a0: a572 863d 0dc5 c73d b375 b2bd f5fc 0fbb
000000b0: 50d1 513d fb08 14bd 81c8 783d d7b4 ad3c
000000c0: 92c0 acbd dc9d 85ba 95e8 f73b 6383 543d
000000d0: a4a0 a8bd c95d 5c3d cd6d 073d 91dd a53d
000000e0: 74c6 8c3d edf4 3dbd 2697 7dbd 3ca6 573d
000000f0: 783e 48bd 8486 6dbd e043 a03d 4736 8dba
00000100: e1ce ad3c c606 bcbd 8fb6 5a3d ceae 26bc
00000110: f396 50bc 2a63 dfbc 7556 c6bd 4eb7 9fbd
00000120: c72d cbbd 4a7d 493d cabe eeba 36a8 c7bd
00000130: 804c ef3a 7fef cdbc 7014 60bd 3161 733c
00000140: e502 a6bd b7e9 9a3d b086 ae3d 7797 a4bc
00000150: d046 4bbd 043e cdbc 2cd6 c73d 71dc 85bd
00000160: ac8e 3bbd e74f 5fbd 07c1 5f3d d9b3 bfbd
00000170: dc66 b8bd ad68 553c 8178 2fbd 8996 b5bd
00000180: 88c3 873d f80d 83bd d86d 293d ce50 9ebd
00000190: 69cb edbc 9e21 663c ff2e 73bd 8a79 1cbd
000001a0: 6c77 973b 67c4 34bd 8b2d 4d3c bc3b 5d3b
000001b0: 7547 83bc b528 20bc 6f4e 953d b93b 783d
000001c0: 538b aa3d e279 b1bd 07a2 34bd 64bf f23c
000001d0: a030 5abd 721c c13c 4d68 b2bd c031 adba
000001e0: 2842 973d 60a8 3a3c 2384 3c3d 228e afbd
000001f0: ae19 6f3d 0cd9 61bd a956 93bd 3731 bdbd
00000200: 2956 52bc 7baa b73d fa28 913d 87f2 b3bd
00000210: f593 b5bd 57e2 94bd b848 a1bd 10ba c5bc
00000220: c56a 38bc 6d04 163d 7957 ecbc 2a01 21bd
00000230: 9eec edbc e522 56bc c57e da3c 1367 aabd
00000240: b537 1d3d 9090 89bd 35a2 8b3c b504 c33c
00000250: fd5f 57bd 0cc0 26bd fca9 553d 4a98 87bd
00000260: b429 13bd 4bc9 9a3d 7e1e 8c3d 3bf9 ae3d
00000270: 3644 4e3c 6425 7c3d 56fd ce3d 7747 a0bd
00000280: f113 a2bd de79 473d 5d5e 99bd 5ef2 a73d
00000290: 6df3 c2bb 9d2e cd3d 6f9d 67bd 7178 9eba
000002a0: 4d60 bbbd 9010 a3bd 47e6 e63c c7e4 a0bc
000002b0: dd00 093d 2917 2d3d 5068 8abc 619f c93d
000002c0: c3d9 8abd 6050 ab3d c2bb 703d 54dc 07bd
000002d0: 3ab1 64bd c652 febb 2567 9b3d 2b21 37bc
000002e0: e921 b43c 9988 cc3c 2179 29bd 98b0 103d
000002f0: 14a6 0f3d 166d 433d 5408 76bd 15ff bc3d
00000300: 1e3e 383d 666f bebd ec1d 823d 0da1 bf3d
00000310: ea6f 523d bfae c0bd e02b 99bd 4016 cdbd
00000320: 6348 49bd 77db a23d 1215 633d d74a 3ebd
00000330: 6f33 8bbc 88da 483d 4a62 aebd 1263 023d
00000340: 92f8 81bd 24e4 31bd 2a6c e5bc acd1 c33d
00000350: 2e22 c33d 4292 b6bd 8ad2 adbd 9a8b 633d
00000360: 90a5 053d 6bb7 7d3d 42bb 973d 8ddd 9a3d
00000370: 61a4 543d 47cc 763d 5351 57ba 1f4f 203d
00000380: 1257 a23d c554 fb3c 07dc b3bd 5fb2 bbbd
00000390: 3757 b0bd 783e b2bc a854 21bc 7f9e 1f3c
000003a0: 98d9 e83c 0b70 143a c8a4 0ebd d1d1 143c
000003b0: 5665 cebd 699b 8bbd f848 083d 5574 c23d
000003c0: 8dec 49bd 5920 4dbd 9aec 90bd bf58 1c3d
000003d0: 2143 c5bc de46 623c 3953 abbd 3974 9f3c
000003e0: ad9e b13c a334 abbc c063 dabc 7352 55bd
000003f0: fc6d 5b3c 8899 563c 8555 26bd 101c 4ebd
0.045394465 0.032855313 -0.020235479 -0.022348678 -0.0050486582 0.023624118 0.08004656 0.06619618
0.0049959663 -0.06486987 -0.09677987 -0.071810424 -0.057751834 -0.079567954 -0.09456679 0.039781548
-0.08156836 0.02671377 0.0279379 0.057223536 0.024593689 0.071173355 0.09872931 0.036083657
0.02044557 0.06677911 0.054957367 0.015298413 -0.010696098 -0.01885676 -0.012739903 -0.08468368
-0.03078064 -0.09235909 -0.033396333 0.039289013 0.014038217 -0.0864311 -0.08666587 0.0008543474
0.065648355 0.09754381 -0.087138556 -0.0021970842 0.051225007 -0.036141377 0.06073809 0.021204395
-0.08435167 -0.001019414 0.0075655677 0.051883113 -0.08233765 0.053800378 0.0330637 0.08098901
0.068737894 -0.046376158 -0.061911725 0.052648768 -0.0488877 -0.057989612 0.07825446 -0.0010773622
0.021216812 -0.091809794 0.053396758 -0.010173513 -0.012731302 -0.027268965 -0.09684459 -0.077986345
-0.09920841 0.04919175 -0.0018214819 -0.097488806 0.0018257052 -0.025138615 -0.05470699 0.014854715
-0.08106021 0.07564109 0.08521783 -0.020091755 -0.04962808 -0.025053985 0.09757647 -0.065361865
-0.04579036 -0.05451956 0.054627445 -0.09360475 -0.09003994 0.013025445 -0.04283953 -0.08866603
0.066290915 -0.06399149 0.04136452 -0.07730256 -0.029027658 0.014046101 -0.05937099 -0.038201846
0.0046223905 -0.044132616 0.012523065 0.0033757528 -0.016025284 -0.00977533 0.07290351 0.06060383
0.08327355 -0.086658254 -0.044099834 0.029632278 -0.05326903 0.023573134 -0.087113 -0.0013213679
0.07385665 0.011392683 0.046024453 -0.085720316 0.0583741 -0.055138633 -0.071942635 -0.092379026
-0.012837925 0.089680634 0.07087894 -0.08786493 -0.08866111 -0.072697334 -0.07875198 -0.024136573
-0.011255925 0.036625315 -0.028850304 -0.03930775 -0.029043492 -0.013069843 0.026671777 -0.08320441
0.038383204 -0.06717026 0.01704512 0.023805955 -0.052581776 -0.040710494 0.052164063 -0.06620844
-0.035928443 0.07557925 0.068417534 0.08543631 0.012589505 0.061559096 0.10106914 -0.07826131
-0.0791396 0.048700206 -0.074887015 0.08200525 -0.005949429 0.100186564 -0.056546625 -0.0012090338
-0.09149227 -0.079621434 0.028185977 -0.01964034 0.03344809 0.042258415 -0.016895443 0.09844852
-0.06779816 0.0836494 0.05877281 -0.033169106 -0.05583308 -0.007761332 0.07588033 -0.011177341
0.021988826 0.024967479 -0.041375283 0.035324663 0.035070494 0.047711454 -0.060066536 0.092283405
0.044981115 -0.09298591 0.063533634 0.0935689 0.05137626 -0.0940833 -0.074790716 -0.100140095
-0.0491413 0.07952016 0.055440016 -0.04645809 -0.016992299 0.049036533 -0.08514841 0.031832762
-0.06346239 -0.043430462 -0.028005678 0.09561476 0.09528004 -0.08914615 -0.08487423 0.055553056
0.032628596 0.0619425 0.074087635 0.07561789 0.051914576 0.060253408 -0.00082137174 0.039137956
0.079267636 0.03068007 -0.08782201 -0.09164881 -0.08610385 -0.021758303 -0.009846844 0.009742378
0.02842407 0.00056624477 -0.034825116 0.009083227 -0.10077922 -0.068167515 0.033272713 0.09494845
-0.049297858 -0.050079677 -0.07076378 0.038170572 -0.024079861 0.013810841 -0.08365483 0.019464599
0.021682108 -0.020899123 -0.026658893 -0.052080583 0.013392922 0.013098128 -0.0406089 -0.05031973

gru.bias_hh_l0 f4 [300]
00000000: d56c 2b3d f5c9 21bd 45c6 93bd ec74 01bc
00000010: c160 b83d 5d0e b83d 4459 40bb 6b7a 8cbd
00000020: 98c8 4a3c a0cb 8ebd 2f24 b23c 5a4d 913d
00000030: f6fc 5abd f369 aa3d aecf a9bc 99de a23d
00000040: 59e5 78bd 366d ba3c f307 873b 13fe af3d
00000050: da03 9bbd e401 793d aff3 853d 0cea f63c
00000060: 7bc1 d4bc 4a9b 233d b201 a13d 5019 463d
00000070: 7631 8bbc f958 423d 3524 423d 1bb7 933d
00000080: 3046 06bd 407e 793d 2a49 fa3c aa38 103d
00000090: 34df 3abd f12c 1b3d 190a 803d 3520 51bd
000000a0: 4e6c 52bd 6421 c93a 344f e1bc 95ed b33d
000000b0: 8d4f 763d c4a9 c73d 1326 08bb 2cd6 8b3d
000000c0: 7afd c1bd b489 c3bd f9bd 78bc 15d7 ba3c
000000d0: 5178 343d b6db 8a3d ce31 90bc 539b afbd
000000e0: 2de4 393c a527 c2bd 9449 8cbd c530 8bbd
000000f0: 94ed b63b 7b96 bdbd 3243 e43c 351a 4ebc
00000100: f625 6bbd 8088 4c3d b794 09bd fc0b 96bd
00000110: 7e03 4f3d cc63 4abc 3843 99bc 8253 f13c
00000120: 1d0c 71bd 7a4a 5e3d 605e 04bd cbe1 bb3d
00000130: 351c 303c 3227 20bd 710c b73d 5e70 2e3d
00000140: a73f bd3d ee47 58bd 7bd0 573d 48c8 873b
00000150: e9d2 c63c 708c 39bc b171 a33d 1016 b53d
00000160: 037d a83d 0082 f83c 3dbd 98bd 8709 b83c
00000170: 4ca0 a23d 9e2e ca3c 5970 c63d cd4e 38bc
00000180: e3f0 a13d a3eb 64bc 848c 633d c9f6 cb3d
00000190: 49e4 e2bc 1acd a53d d753 9dbd b3ff 973c
000001a0: 97de 443d 90ca 4e3d 8258 fb3b 9bba a13c
000001b0: 1f62 b8bd b657 ae3c 6b2b cebd cea8 af3c
000001c0: 516b d43c b7ca 763d b32d 5cbd 35cb 9e3d
000001d0: ea7a 593d d5d0 d0bc a819 153c a13f a5bd
000001e0: 26ac 823d c5e4 933c d8f0 c0bb 0ef0 acbc
000001f0: b070 b6bd 0036 b03c e048 37bd 25b5 ad3c
00000200: 6c27 0dbd b201 20bb b5bb 863d 4f14 42bd
00000210: ad44 99bd a8f1 92bd fbd7 87bc 4643 1cbd
00000220: 3864 333d 47a9 aebd 9cb2 a0bd ed3b b8bd
00000230: 2ff8 853d 3406 6fbd 02cf 593d 804c 823d
00000240: 3510 853d f6dd 623d 74ee 7abd fc4a b9bd
00000250: c64b 27bd ff6d 49bd 694c 253d 4f0c a6bd
00000260: 2a50 aabc a1a6 fcbc d51b f6bc a237 6fbc
00000270: 7bdc 54bd ec5e 6abd 0dae 023d 8407 fbbc
00000280: e623 8fbd 363e 913d 9646 aabb e7e6 2dbd
00000290: 18d5 173d 5206 56bd 36b1 c43d e480 b43c
000002a0: acd2 c33c 3223 f63c bef7 6cbc dcd9 5e3d
000002b0: b930 4abd 878a b83c eb54 963d 7d95 d9bc
000002c0: 0c54 58bd 3719 403c d3c2 d63c 6b8e 863d
000002d0: cb96 883d ca16 b03d 4fed e23c 5820 88bc
000002e0: d88e 9fbc afdf 5ebd 4eb8 3dbd 383f 673d
000002f0: 07b4 3ab8 ccb5 873d 3734 fb3c 290b 16bd
00000300: 3ca5 aebc dd5f 76bd cadb 473d b568 ccbb
00000310: 63a8 13bd a31e 0e3b 2861 fcbc 88c8 a3bd
00000320: ace2 d93c 98f7 15bc b1ea 0abd e04c 803d
00000330: 455f 8a3d b46e 213d e056 32bd dc49 d1bc
00000340: 1845 f4bc 5d97 8bbc 9125 88bd 427b 9cbc
00000350: 4a51 49bd e0d5 283c 0246 b1bd 80dc c5bd
00000360: e9ab 34bd 9987 9dbd fbb5 d2bb 3072 9ebd
00000370: 5629 1e3d 8ee7 913d 89c5 c6bd 0509 b0bd
00000380: 61d3 233d bc34 19bd ffc5 9e3d c669 04bd
00000390: c0d1 593d b73a 383c 76c0 cf3c d8bb be3d
000003a0: 964b 633d 033b a4bd c98a c0bd a319 9abc
000003b0: b496 983d 0a24 a1bd 1fe4 84bc 8bfc c43d
000003c0: 8203 c93d 1720 023d 3864 26bd 061f aa3d
000003d0: db1c c9bd 9138 943c 35aa 8e3c 5c80 9abd
000003e0: eb3f 213c f2e9 8d3d 3e6d 5cbb 9577 b6bd
000003f0: 4a69 b4ba f7cf 92bd 8c19 54bd 4351 7dbd
0.041851837 -0.03949924 -0.07215551 -0.0079014115 0.09002829 0.089871146 -0.0029350081 -0.06859287
0.012376927 -0.06972432 0.02174577 0.07094832 -0.0534639 0.083209895 -0.020728912 0.079526134
-0.060765598 0.022757154 0.0041208207 0.08593383 -0.07569094 0.06079282 0.065406196 0.0301409
-0.025971165 0.039943017 0.078616515 0.048363984 -0.016991358 0.047448132 0.04739781 0.07212659
-0.03278178 0.060911417 0.030552465 0.03521029 -0.04562302 0.037884656 0.06251926 -0.051056106
-0.05137282 0.0015345034 -0.027503587 0.087855496 0.06013446 0.09749177 -0.0020774647 0.068279594
-0.09472175 -0.09547749 -0.015182012 0.022807637 0.044060055 0.06780188 -0.017601874 -0.085745476
0.011345905 -0.09480218 -0.068499714 -0.067964114 0.0055825207 -0.092572175 0.027864072 -0.01257949
-0.05740925 0.049934864 -0.03358909 -0.073265046 0.05054044 -0.012352895 -0.01870881 0.029458765
-0.058849443 0.054270245 -0.032316566 0.09173926 0.010748913 -0.03909988 0.0893792 0.04258763
0.09240656 -0.052802972 0.052689057 0.0041437484 0.024270492 -0.011324987 0.07980669 0.08842099
0.08226969 0.030335426 -0.07457969 0.02246548 0.079407305 0.024680432 0.09689397 -0.011249256
0.079072736 -0.013972196 0.055553928 0.0995918 -0.027696745 0.08095761 -0.07682007 0.018554544
0.04806384 0.050486147 0.007670463 0.0197423 -0.0900309 0.021282058 -0.10066875 0.021442797
0.025930079 0.060251918 -0.05375452 0.077536024 0.053095736 -0.025490204 0.009100355 -0.08068777
0.06380491 0.018053422 -0.005888086 -0.02111056 -0.08908212 0.021510124 -0.044747233 0.02120454
-0.034461424 -0.0024415073 0.06578771 -0.04738265 -0.07483802 -0.071749985 -0.01658248 -0.038150094
0.043796748 -0.08528381 -0.07846567 -0.08995805 0.06541478 -0.058355525 0.053175934 0.063622475
0.06497232 0.05538746 -0.061262563 -0.09047505 -0.040843748 -0.049177166 0.040356074 -0.081078164
-0.020790178 -0.030841174 -0.030042568 -0.014600666 -0.05196808 -0.05721943 0.03190427 -0.030643232
-0.06989269 0.07091944 -0.005196403 -0.042456534 0.037068456 -0.05225212 0.09604113 0.022034116
0.023904167 0.03004608 -0.014463363 0.054406986 -0.04936287 0.022526992 0.073404156 -0.02656054
-0.05281453 0.011724762 0.026215946 0.06570133 0.066693865 0.08598097 0.027701048 -0.016616985
-0.019477293 -0.05441254 -0.046318345 0.056456774 -4.451352e-05 0.06626472 0.030664546 -0.036631737
-0.021319024 -0.060150016 0.04879359 -0.006238068 -0.036049258 0.0021685741 -0.030808046 -0.07997233
0.026597343 -0.009153269 -0.033915225 0.06264663 0.067564525 0.039412215 -0.04353988 -0.025547914
-0.029818103 -0.01703995 -0.0664779 -0.019101743 -0.04914979 0.010304898 -0.08655931 -0.09661198
-0.04410926 -0.07691879 -0.006430385 -0.07736623 0.03861364 0.07124244 -0.097056456 -0.0859547
0.03999651 -0.037403807 0.077526085 -0.032327436 0.05317855 0.011244467 0.025360327 0.09313172
0.055492006 -0.08019068 -0.09401471 -0.018811053 0.07450619 -0.07868202 -0.016222058 0.09618481
0.09815122 0.031768885 -0.04062292 0.083066985 -0.09819957 0.01809338 0.017415145 -0.07544014
0.009841899 0.06929387 -0.003363445 -0.08909527 -0.0013764289 -0.071685724 -0.051782176 -0.061845075

gru.weight_ih_l1 f4 [300, 100]
00000000: c103 4cbc a17d 3abd 8cfe 61ba 28b6 963d
00000010: 336a 2cbc 4935 3d3d 344e 80bb 9d51 c5bb
00000020: 9574 193c 4a1c 693d 694f 9e3c fcce 2fba
00000030: c6c2 00bd a9c7 f03c 9366 b13d b4dd e3bc
00000040: 6329 19bd 3049 403c bd6e a33d 2c3f 3ebd
00000050: f089 b7bd 00c7 b4bd 19ae 8b3d 7655 0cbd
00000060: 7d6f 61bd e159 f73c 2f6b 5b3c 0e38 6abc
00000070: 8f74 9ebd 945f 413c fec9 a4bd c454 51bb
00000080: b8e7 b03d 5eaf 823d f735 563c 5e6e 32bd
00000090: bae5 0dbd 2455 92bd ac54 763d 9afa a13d
000000a0: 58f8 b8bd 09e4 aebc 1980 ad3c 475e c3bd
000000b0: 0e6f 04bd 4f64 01bd 8de0 bdbd 32a1 2e3d
000000c0: 5466 85bc 4ecc 28bd 9ea7 6dbd 7411 0e3c
000000d0: cf6e 9fbd 30e0 98bd 3383 993d d54e bbbd
000000e0: c72b 403c 8766 b53c 9d10 c63d ba76 a8bc
000000f0: c082 2b3c 1c23 d6ba a317 cbbd fc99 913d
00000100: fe28 05bd f62a de3c ae96 773d 2645 b3bd
00000110: 8afc bc3d a569 d13b 3a11 22bd 09db ae3b
00000120: 73b3 7b3d 0e73 bcbd dcfd b83d 477d ba3d
00000130: 7b5e 7cbc 2cef 423c 1353 733d b44e 36bd
00000140: 0c1d aabd c5a2 c93d 3b32 0dbd 913c 9f3d
00000150: 4f19 253d b26d 59bb dab8 8d3d 41a7 c43d
00000160: 84aa 64bd 087e 9fbb eb8f 8dbb e6c6 9bbb
00000170: 29bf 6bbd 7ebb 69bd 9582 b1bb b1d3 41bd
00000180: d1fe 8a3a 5e17 c93d e762 41bd e92e 883d
00000190: 318c 983d 48bb b73d 82af b0bd 8c6b c7bd
000001a0: c2dc 4d3d 83a3 7cbd 2bc7 a83d 1d7a 983c
000001b0: deda 843c 65ee a23d a3f1 e3bc 9e9c f53b
000001c0: 1084 5abc 3d6f 4b3d e71e 5a3d 0106 4c3c
000001d0: 125d 1abd 254a 85bd 53d6 7f3d d946 563d
000001e0: 52a3 b83d 1080 5a3d c355 6fbd 971c 933d
000001f0: 91b6 e33c c5a7 b1bd ec39 8b3d 3e14 cb3d
00000200: be3f 26bc 175a 343c b378 bf3b aee9 98bd
00000210: 98fc afbd fab1 efbc 87bf 14bc 973c 933d
00000220: 4a9c 163c efeb eabc 39f3 323d 5cd9 ba3c
00000230: 550d 893d 7025 a33d 7435 2c3d 584d b6bd
00000240: 6dcc 9f3d d90b e4bc d6cb a8bd bdd3 b63d
00000250: 5751 9c3d fe2c 983a 4ffc 843d 3c90 bb3c
00000260: 2687 0fbd 5cb9 9cbd d211 0c3d 7cb6 803d
00000270: 4f4d a0bd d56e 51bd 37f4 b53d 520f babd
00000280: e6cf 86bd e9b4 92bd 4c56 583d f6b4 ae3c
00000290: c210 b8bd 155d 60bd 09f1 033d c72c 94bc
000002a0: 7d3a 14bd fef6 51bc 79c3 88bd 0da3 133c
000002b0: af60 ad3c ff25 bf3d 81af cbbd 6714 ffbc
000002c0: fb30 83bd 1e07 adbd 9ac7 5dbd 9fc0 c73d
000002d0: d5ce 083d 4edf 88bc e5e9 51bd fc99 a33d
000002e0: 2806 ce3c bee6 423d 81e4 7ebd 1e43 413d
000002f0: 338a bd3d 8c41 dbbc c5a1 a5bd 506a 68bd
00000300: ebbd 99bd 9a82 293d ae7c 71bc 9adf 9c3d
00000310: df5a 00bd 66b4 2bbb c6ba 16bc 8fb3 4d3d
00000320: d310 b83d 0175 9ebd 2e3e 5d3c c15e d6bc
00000330: f7d4 5e3d f92f 5a3d 34ae 443d 9c61 afbd
00000340: d7d1 1a3d f8cc b03d 07c2 813d 5d51 afbd
00000350: 73bf 2cbd 82a7 c73d cd0d ec3c bab9 073c
00000360: 3b8c 923d 8097 95bd 5388 27bd 1625 4a3c
00000370: 536c 333d 608d 133d 9012 be3d c63c 2c3d
00000380: 5f98 76bc ba2e 043c d1a6 843c 25af 463b
00000390: ba20 bbbd 6fad 9f3c e620 e1bb c964 9a3d
000003a0: 9d8d 6ebb d5b1 803d 7c98 6c3d 9691 eabb
000003b0: 451d afbd 2858 42bd 0ffd c1bd 7bfa 933d
000003c0: a4b7 2ebd 9f21 623d e56c 5e3d 0db2 823d
000003d0: d2bc f139 0128 c63d a235 a6bd 2337 8b3d
000003e0: 775a 2cbd 55ac 9e3d ed5e ae3d 2f8c 8e3d
000003f0: 42d1 8b3d 4d6d 84bd 2f5e c0bc f5e5 693d
-0.012452067 -0.045529965 -0.0008620999 0.07358962 -0.010523367 0.046193395 -0.0039155725 -0.006021692
0.009366174 0.056911744 0.019324975 -0.0006706563 -0.03143575 0.02939208 0.086621426 -0.027815677
-0.037392985 0.011736199 0.07980106 -0.046446964 -0.08961856 -0.08827019 0.06820316 -0.03426119
-0.055037964 0.030194225 0.013392254 -0.014295591 -0.077370755 0.011802573 -0.080463395 -0.0031941393
0.08637947 0.06381105 0.01307439 -0.043562286 -0.034642912 -0.071451455 0.060139343 0.079091266
-0.09031743 -0.02134897 0.021179246 -0.09539466 -0.032332473 -0.031589802 -0.09271345 0.042634197
-0.016284145 -0.041210465 -0.05802118 0.008671153 -0.07784807 -0.07464635 0.074957274 -0.091458954
0.011729187 0.022143615 0.096711375 -0.020564426 0.010468185 -0.0016337368 -0.09916618 0.07109448
-0.032509796 0.027120095 0.060446434 -0.087534234 0.092278555 0.0063907676 -0.03956721 0.0053361696
0.061450433 -0.092016324 0.09032795 0.09105926 -0.015403385 0.011897843 0.059405398 -0.04450865
-0.083063215 0.09845499 -0.03447173 0.07775224 0.04030734 -0.0033176956 0.06920023 0.09602214
-0.05582668 -0.004867319 -0.004320135 -0.004753935 -0.05755535 -0.057063572 -0.005417178 -0.047321025
0.0010604506 0.0981891 -0.04721346 0.066495724 0.074486144 0.08971268 -0.086272255 -0.0973731
0.05025936 -0.061679374 0.08241113 0.018612916 0.016217645 0.079556264 -0.027825182 0.007495477
-0.01333715 0.049666632 0.053252127 0.012452603 -0.037686415 -0.065082826 0.062460255 0.05231366
0.09015526 0.053344786 -0.058431398 0.071831875 0.027797015 -0.086745776 0.06798157 0.0991597
-0.010147033 0.011007807 0.005843246 -0.07466446 -0.085931 -0.02925967 -0.009078867 0.07189291
0.009192536 -0.028676955 0.043688986 0.022808723 0.06691996 0.07966125 0.042043164 -0.08901471
0.07802663 -0.02783768 -0.082420036 0.089271046 0.07632702 0.0011610088 0.064934365 0.022895925
-0.035040997 -0.07652542 0.034196682 0.06284806 -0.078272454 -0.05113109 0.08884471 -0.09084953
-0.06582622 -0.07163412 0.052816674 0.021326523 -0.08987571 -0.05477627 0.03221229 -0.018087758
-0.03618859 -0.012815235 -0.066779085 0.009011042 0.021164266 0.09333419 -0.09945584 -0.031137658
-0.06405827 -0.08448623 -0.054145433 0.097535364 0.033400375 -0.016708042 -0.05124845 0.079883546
0.02514942 0.047583334 -0.062229637 0.04718315 0.09254875 -0.026764654 -0.08087496 -0.056742013
-0.07506927 0.041384317 -0.014739199 0.07659836 -0.03133666 -0.0026200055 -0.009199804 0.05022007
0.08987584 -0.077371605 0.013503594 -0.026168229 0.054402318 0.053268407 0.048017696 -0.085635394
0.037797775 0.08632845 0.06335836 -0.08560441 -0.042174768 0.097487465 0.028815174 0.008284027
0.07155653 -0.07304287 -0.040901493 0.012337944 0.043804478 0.036023498 0.09280884 0.042050146
-0.015050977 0.008067781 0.016192826 0.0030316797 -0.091371015 0.01949188 -0.006870377 0.075387545
-0.0036400326 0.06283919 0.057762608 -0.0071584685 -0.085505046 -0.047447354 -0.09472095 0.0722551
-0.042655602 0.055207845 0.05430307 0.06381617 0.00046107784 0.09675599 -0.081156984 0.06797626
-0.04207846 0.077477135 0.085141994 0.06960332 0.06827022 -0.0646616 -0.02348241 0.05710407

gru.weight_hh_l1 f4 [300, 100]
00000000: 46db b2bb 07a0 ddbc 0f06 26bc 1d5a 9d3d
00000010: c33d 9b3d 4f90 82bc 0c8f 5abd ffa8 91bd
00000020: 80d3 b93d 0a8b 283d dcc3 ae3c b1d8 cc3d
00000030: 19c7 c4bd 0fb9 c5bc d698 2cbc 939f a2bb
00000040: 2d7b ca3d 3c34 babd 2fcb 833d e487 b33d
00000050: 9cd9 b3bd eb65 8fbd ac8b 873c dd6f 30bd
00000060: b771 dc3c 3637 893c 86d6 663d 4f07 393d
00000070: 5d0d aabc 4fda 903d c47c af3d c867 8d3d
00000080: 587b e33c d97b b5bd 64f0 37bd dad7 a13d
00000090: 4838 27bd b989 2abc c6e7 9d3d 2ab0 e33c
000000a0: 0ad8 a9bd 3fbb 0abd 26b7 ac3b a738 c43c
000000b0: 0441 a63d c9dc b63b 4fcf 80bd 496c a33d
000000c0: 03d1 4a3d c2da 983d 793b 293d c37c 1c3c
000000d0: dd81 803c 672d 8c3d 9e77 b83c 0b16 143d
000000e0: e605 803d 733a 433c bd30 993b 52ce 64bb
000000f0: 8560 4a3d 8306 2f3d 75ba 0b3d 0adb d23c
00000100: 3256 f2bc a630 0ebc bbf2 43bd 581c 5fbd
00000110: 6e57 6d3d 1b2e 77ba 996a b5bd aa37 97bd
00000120: ba5c f83c 7294 f8bc 0b73 a7bd 0c5d c73d
00000130: 88a0 81bd 92d9 47bd 452f c0bd b884 b93d
00000140: fa93 fd3c 8214 b33d f71b a83d 7517 cebc
00000150: 0ce2 bcbc fe44 59bd cf4d 753d e43e a2bd
00000160: 15d7 f5bb fd7d 57bd 3030 68bd 548f a4bd
00000170: 3fd2 b8bd 6932 a0bd aea2 523d cfd7 a83d
00000180: 560f dcbc 5ee6 edbc b118 3e3b 911f b2bd
00000190: 554a dbbc 2f14 853c a201 61bc 1b30 c9bd
000001a0: 6c1e 1c3d 0a20 463c 0e7c 8ebd 7bad 893d
000001b0: 1339 d9bc 175e 1abd 3f6d fa3c 0363 babd
000001c0: 215f 123d 1d96 adbd dc4b 21bd 2e8e 2ebd
000001d0: 2162 713d 6c00 113d 9c07 2dbd c2f8 29bc
000001e0: 4856 03bd 44c8 c93d 998f a13d 16ef a0bd
000001f0: aa3e a4bc cbde c0bd 14cd 723d 3a06 983c
00000200: eb4f 6fbd 2aa4 b73d b7fe a33d 6be1 50bd
00000210: cca1 a43d 841e a03d 26ed 9e3d 8ced ca3d
00000220: e333 273d 2cc7 553d 2989 a8bd 6072 893d
00000230: 0dd7 083d 24d4 873d 49bb ad3d b25e b0bd
00000240: d902 83bd 61dc 2bbc 1c42 cb3d 03fe 98bd
00000250: fb48 bc3c 4966 3a3d 270a c2bd 43a6 ba3d
00000260: 53b5 163d 9401 7c3d 80c9 323d c3a5 873d
00000270: d964 94bd 1815 9ebd d1f7 82bd 1d06 7c3d
00000280: 7967 66bd 83fe bcbd aaac a03d fdd8 b03d
00000290: 423c 92bd 9a4a b0bd 5263 93bd 88b3 073d
000002a0: e3b8 693d 28da 913d 3908 9e3d df9a 213d
000002b0: d7fa eabb 0e5e 55bd 9ccc 023b 95c4 36bc
000002c0: 383f c8bd bc37 903d c807 b2bd 6ea0 a63d
000002d0: 5d62 5b3d 0cdb 763d 0c32 8d3d de3e 173d
000002e0: acb7 343d 2671 133d d0e4 c5bd 8a8a 223b
000002f0: bba7 913d 9df9 abbd 9dc0 ea3c 6c89 113d
00000300: 76d2 6ebd e041 673d 186e c53d 0d43 c4bd
00000310: 7d2f bfbd 523c bc3c b9c5 7dbc ee02 ec3b
00000320: 7fd3 9bbc 3372 99bc e030 503d 05de ba3d
00000330: 6e93 0a3b ad0a 07bc 7779 813d b8e3 8fbd
00000340: 8918 a8bd a270 bd3d 3f9b c53d 2734 5bbd
00000350: eceb 963c 2924 413c 04b0 973d 5779 b3bd
00000360: 43ef afbd 2877 7a3d 9099 2e3d c51a 1c3b
00000370: e4b9 aebc a226 af3d 99d0 b93b 75da a33c
00000380: 8eb1 8d3c 60bb 04bd 9a8c a8bd 9943 593b
00000390: a4da b2bd d658 39bd 023d 80bd a5b8 a53b
000003a0: 4fcb eabc e908 a83c c705 583d ec63 81bd
000003b0: a476 52bd 7ba3 533d 7406 9ebd 1a22 aa3d
000003c0: 6fe1 423a 22da 31bd 6c3b aa3d ae90 39bd
000003d0: 7547 ca3d bd66 f23c a7ff 15bd e828 933d
000003e0: 18d5 a1bd 475b 8b3d 3588 d93c ae82 5bbd
000003f0: 0ad9 a83d 042c 9cbd 715e b63d 0261 0b3c
-0.0054582683 -0.027053846 -0.01013328 0.07683203 0.075801395 -0.015937952 -0.053359076 -0.071123116
0.090735435 0.041148223 0.021333627 0.10002268 -0.09608287 -0.024136094 -0.010534486 -0.0049628704
0.09886775 -0.09091994 0.064352386 0.087661535 -0.0878174 -0.07001861 0.016546093 -0.04307543
0.026909692 0.01674996 0.05635693 0.045172986 -0.020758325 0.07072889 0.08568719 0.0690456
0.027768776 -0.08861513 -0.04490699 0.079024985 -0.04082516 -0.010408812 0.07710223 0.027793963
-0.08293159 -0.033869978 0.0052708564 0.023952795 0.081178695 0.005580519 -0.06289541 0.07979638
0.049515735 0.074636 0.041316483 0.00955123 0.015686924 0.06844597 0.022517975 0.036153834
0.06251125 0.011915791 0.0046749995 -0.0034913016 0.049408454 0.04273082 0.034113366 0.025739212
-0.029582117 -0.008678591 -0.047838908 -0.05447039 0.057944708 -0.00094291725 -0.088582225 -0.07383664
0.030317653 -0.030344222 -0.081762396 0.09734544 -0.06329447 -0.048791476 -0.09384016 0.09058517
0.03095435 0.08744146 0.08208459 -0.02515767 -0.023057006 -0.05304431 0.059888657 -0.07922152
-0.0075024464 -0.052610386 -0.05668658 -0.0803515 -0.09024476 -0.07822115 0.051424675 0.08244287
-0.026862781 -0.029040512 0.0029006416 -0.08697427 -0.026768843 0.016244976 -0.013733299 -0.098236285
0.03811495 0.0120926 -0.06957255 0.06722542 -0.026516473 -0.037687387 0.03056967 -0.09100916
0.035735253 -0.084758975 -0.039378986 -0.042616062 0.058931474 0.035400793 -0.042243585 -0.01037425
-0.032064706 0.09852651 0.07888717 -0.07858102 -0.020049412 -0.094174944 0.05927761 0.018557657
-0.058425825 0.08966859 0.080075674 -0.050996225 0.08038673 0.078183204 0.07760076 0.0990859
0.040820967 0.0521919 -0.08229286 0.067112684 0.033408213 0.066322595 0.084829874 -0.08611812
-0.063970275 -0.010489554 0.09924719 -0.07470324 0.022984019 0.045507703 -0.09474593 0.09113743
0.036794018 0.061524943 0.043649197 0.066234134 -0.07245798 -0.07718867 -0.063949235 0.061529268
-0.056251023 -0.09228232 0.07845433 0.08635137 -0.071403995 -0.08607979 -0.07196678 0.0331302
0.057061087 0.07121688 0.07716412 0.039454337 -0.0071710157 -0.05209165 0.0019958382 -0.011155267
-0.09777683 0.070418805 -0.086928904 0.08136068 0.053560603 0.060267493 0.06894311 0.03692519
0.044120476 0.03599658 -0.09662783 0.0024801814 0.0711207 -0.08397219 0.028656298 0.035531446
-0.05830618 0.056459308 0.09640139 -0.095831014 -0.093352295 0.022977982 -0.015489035 0.0072024977
-0.019021748 -0.018731212 0.05082786 0.09124378 0.0021145004 -0.008242291 0.06321996 -0.07025856
-0.08207805 0.09249999 0.096487515 -0.053516533 0.018423043 0.011788406 0.07406619 -0.08763378
-0.085905574 0.061148793 0.042626917 0.0023819667 -0.021328874 0.085522905 0.0056706187 0.02000163
0.017296579 -0.032405257 -0.082299426 0.0033151864 -0.08733109 -0.045250736 -0.06261636 0.0050574117
-0.028661398 0.020512061 0.052739885 -0.06317887 -0.051382676 0.05166958 -0.077160746 0.083072856
0.0007434105 -0.04342092 0.08312115 -0.045303993 0.098769106 0.029590005 -0.036620762 0.071855366
-0.079019725 0.06804519 0.026554206 -0.053591423 0.08244522 -0.07625583 0.08904732 0.008507015

gru.bias_ih_l1 f4 [300]
00000000: 4877 b83c fa61 a43d 7182 4a3d ebf7 b13d
00000010: a5b7 1dbd 9d22 7fbb e47d b33c e5db c83d
00000020: 744e 0cbd 5af7 873c 21cd b33d c937 b4bd
00000030: d49c 4f3c 7916 5c3d d180 a4bd f8a9 6dbd
00000040: 8607 49bb 25bd d4bc 6f8b 6f3c 4a65 91bd
00000050: d755 9dbc 25c8 853d 8049 953d e7c5 f1bc
00000060: fcfd 5dbd 69ba c73c 0b81 9cbc 1194 6bbc
00000070: 5d41 74bd c0a3 9f3d 50be 43bd 3ed2 8fbd
00000080: 8273 5dbb 8556 91bd acd6 4ebc 2cf8 6ebd
00000090: 442f 7f3d 7468 97bd 3a96 f0bb 4e45 39bd
000000a0: 8e3d 7abc cec2 e83c b458 423d bf9c c2bd
000000b0: 1e99 4d3d ee8e a9bd 9460 2fbd 5c68 bebd
000000c0: 22c3 0ebc ccff c3bd 3836 a0bd 7adc dfbc
000000d0: 910c 55bd a4b7 383d 8cc4 aabd 6401 123c
000000e0: f06b ee3c af23 d23c 14df 853b e29b 733d
000000f0: 3336 b23d 874e b8bd d78a 99bd 5caa aebd
00000100: 4a19 bdbc d23f 933d 8a18 b1bd 3ced 3cbd
00000110: ac23 6cbd 7be6 24bd 8a6c fdbc 6add 973d
00000120: 0d45 963b a8c1 f0bc 3e8b 69ba faec 89bd
00000130: bbe4 f43c 59cd 2abd d7dc cbbd fd56 603d
00000140: 710c 073d 2a54 3ebc 6f39 a4bc 26f5 2a3d
00000150: 4eb8 9e3d fa3e 2fbd 672a 6f3d f784 a4bc
00000160: bc44 183d 9cbd 2bbd 9931 52bd 6e95 85bd
00000170: 3aa7 243d 57bb af3d de69 62bd d63f dbbc
00000180: 9bdd 9d3d e4e9 62bd 39af ac3c 69e3 c4bd
00000190: e333 71bd d791 f6bb fc5d 2bbd 49d4 5bbd
000001a0: cc33 113c ead4 853d 5c02 fabc dedb 4cbb
000001b0: 7195 3d3c 102e 75bd b074 8b3d 0854 b7bc
000001c0: d1d2 693b 6642 0dba 3bf2 a2bd 4d69 5bbd
000001d0: 0903 323d 2026 bdbd f743 92bc 2936 35bd
000001e0: 0015 533d abeb 59bc 5cb1 c43d 7dda b53d
000001f0: 2cf8 883d 53ae b13d 206b b3bd c901 87bc
00000200: 399d 483c 12a6 6fbd e5ea bfbd 5d23 6bbd
00000210: a24a b0bd f919 7cbd e3e8 a0bb d9be acbd
00000220: d242 093d 5f94 ac3d 4a61 11bd 1b3d fe3c
00000230: 6b8f 973d 1f15 963d a95a 1cbd a562 9e3d
00000240: a27b babc 763f 8cbd 6d63 983d ae15 e6bb
00000250: 73ae 8c3d f10b a7bc d62d 6b3b aed3 063d
00000260: b463 40bd 189f 993d 2b29 6839 f71b 0dbd
00000270: 5e14 5e3d 760a 4dbd f544 9bbd ae75 c1bd
00000280: 3298 a9ba 29d5 a53c 9e08 453d 9f39 be3c
00000290: 68d0 64bd 9e9c f23c 8195 403d ff10 103d
000002a0: 6f84 4cbd 9b46 75bc 0d3d a33c daf8 ef3c
000002b0: 90d2 83bd 431a b83d b3d3 d3bc 5c61 b13c
000002c0: e8a7 9fbd 3202 793d e801 ccbd 1283 6fbd
000002d0: 110d 973d a8a6 f8ba 3152 a43d 6da4 643d
000002e0: 678c c5bd 6390 6cbd 5e46 243d 48c5 cbbd
000002f0: c7d8 3bb9 9180 7bbd 937e a03d 2731 a53c
00000300: d466 ad3d 568f c63d 6e64 293d 6d59 553d
00000310: 08fc b83d 9bb6 893d 818e 87bd 273a a23d
00000320: 2743 093d f1eb db3c 33ba 843c 78f4 b7bc
00000330: 9b18 bebd 81df 50bd f958 d7bb c79f bb3c
00000340: 184c 1abd 40f3 8abd 9164 a6bc 2d16 923d
00000350: a4ae 2c3d 44d9 abbc 2795 823c 5542 c23c
00000360: 0d4a 203c 5008 93bd f0af c9bd 7662 f4bb
00000370: 3dfb d93c c840 453d c43e 54bc fbda c73d
00000380: 360e ba3b b197 17bd ac03 7abd 1ee5 a9bd
00000390: 55f6 07bd f96d 9bbd 617a a6bd db4b b03d
000003a0: 580e b43d 09f7 7c3d 3b7d f23c a1a8 bb3b
000003b0: 8059 e5bc 4044 c13d cd57 d63a 7240 12bd
000003c0: ded1 68bd 2fe1 3e3d a331 87bd 27cf 94bd
000003d0: 1f11 8a3d 5f2b bb3d e526 94bd 856d 063b
000003e0: ef0f abbd fb50 c9bc 10fb b23c babd 83bd
000003f0: 152e 8ebd 8a5a 2abd 2d46 babd 3a60 89bd
0.022517815 0.080265 0.049440805 0.08689865 -0.038505215 -0.0038930543 0.021910615 0.098075666
-0.034254506 0.016597439 0.087793596 -0.08799703 0.012671668 0.05373237 -0.08032382 -0.058023423
-0.003067465 -0.025969097 0.014620646 -0.070993975 -0.01920597 0.06532315 0.0728941 -0.029513313
-0.054197297 0.02438088 -0.019104501 -0.0143785635 -0.059632648 0.07794905 -0.047788918 -0.070225224
-0.0033790772 -0.070965804 -0.012624424 -0.058342144 0.062300935 -0.0739297 -0.007342127 -0.04523211
-0.015273465 0.028413203 0.047447875 -0.09502553 0.050194852 -0.08279215 -0.042816713 -0.09297249
-0.0087135155 -0.09570274 -0.078228414 -0.027326811 -0.052013937 0.04509701 -0.083382696 0.008911464
0.029104203 0.02565178 0.004085431 0.059474833 0.08701744 -0.08999353 -0.07497185 -0.08528587
-0.023083348 0.07189907 -0.086472586 -0.04612468 -0.057651207 -0.040258866 -0.030935545 0.07415278
0.004585868 -0.029389217 -0.00089089933 -0.06734653 0.029894223 -0.04169974 -0.09954231 0.05477046
0.03297085 -0.011616746 -0.020046918 0.041737698 0.07749997 -0.04278467 0.058390047 -0.020082934
0.037174925 -0.041928872 -0.05131683 -0.06522642 0.040198542 0.08580654 -0.055276744 -0.026763838
0.077082835 -0.055398837 0.021079646 -0.096136875 -0.058887374 -0.0075247097 -0.041837677 -0.053669248
0.008862447 0.06534751 -0.030518703 -0.003125898 0.011571274 -0.05985838 0.06809366 -0.022378936
0.0035678635 -0.0005388617 -0.07956358 -0.05356722 0.043459926 -0.092357874 -0.017854674 -0.044241104
0.0515337 -0.0133008165 0.09604141 0.08879564 0.0668796 0.08675828 -0.08760667 -0.016480343
0.012244516 -0.058507986 -0.093709745 -0.057406772 -0.08607985 -0.061548207 -0.0049105748 -0.08434839
0.03351099 0.08426737 -0.035493173 0.031034997 0.07400402 0.07328247 -0.038172398 0.07733659
-0.02276403 -0.06848042 0.07440839 -0.0070216274 0.06869211 -0.020391436 0.0035885475 0.032916717
-0.046970084 0.07501048 0.0002214058 -0.034450497 0.054218642 -0.050058804 -0.07581512 -0.09446274
-0.0012939034 0.020243244 0.04810392 0.023220835 -0.055862814 0.029615697 0.047017578 0.03517246
-0.049930986 -0.014970447 0.019926572 0.029293466 -0.06436646 0.08989384 -0.025857782 0.02165287
-0.077956975 0.06079311 -0.09961301 -0.058474608 0.07375539 -0.0018970566 0.08023489 0.05582087
-0.0964592 -0.057754885 0.04010617 -0.09949738 -0.00017914466 -0.061401907 0.07836642 0.02016504
0.084668785 0.09695308 0.041355543 0.052087236 0.09032446 0.06724282 -0.06618977 0.07921248
0.033511307 0.026845904 0.016202068 -0.022455439 -0.09282037 -0.0509944 -0.0065718857 0.022903336
-0.037670225 -0.067846775 -0.020311626 0.07133136 0.042158738 -0.020977624 0.015940262 0.02371327
0.00978328 -0.0717932 -0.098480105 -0.0074580265 0.026609058 0.048157483 -0.012954418 0.09758564
0.0056779636 -0.0370099 -0.061038658 -0.08295654 -0.033193905 -0.07589335 -0.08128811 0.08608218
0.08791798 0.06175903 0.02960073 0.0057268892 -0.027996778 0.09436846 0.0016353071 -0.03570599
-0.05684077 0.04660147 -0.06601264 -0.07266074 0.06741547 0.09139132 -0.07233981 0.0020512056
-0.083526485 -0.024574747 0.021848232 -0.06432672 -0.06942383 -0.04159025 -0.09095416 -0.06707807
