KGs/mutagenesis/model weights/LSTM_{_n_layers_ 2, _n_hidden_ 100, _input_size_ 40, _out_size_ 4}_.pt (torch, 576353 bytes, 16 tensors)

lstm.weight_ih_l0 f4 [400, 40]
000000 26 5c 54 bd 5b 2a 28 3b cd d4 d0 bc 4f a8 c9 3c
       -0.051845692 0.0025660011 -0.025492096 0.024616389
000010 3f a4 0b 3d 28 ce ec bb 5c 6e 44 bd 95 28 1a 3c
       0.034092184 -0.007226724 -0.04795681 0.00940909
000020 8f 36 33 3d 2e b1 b1 3d 4b bd 7f 3d 9a c2 91 bd
       0.043753203 0.086763725 0.062436383 -0.071171954
000030 4f e0 11 bd 68 0a ac bd 03 46 b7 3d a2 8e a5 bd
       -0.035614308 -0.08400422 0.089489006 -0.08083846
000040 41 d2 18 3d 8c de 8e bc 86 77 06 3d 6e 3e 2e bd
       0.03730989 -0.017440103 0.03282883 -0.042540006
000050 c3 f0 3d bd 1b fa 2d bd c8 4c cc 3d e1 2b 18 bd
       -0.046372186 -0.042474847 0.09975582 -0.03715122
000060 c1 8c 0e 3d 14 30 87 3b 47 68 8f 3d eb 8d 72 bb
       0.034802202 0.0041256044 0.07002311 -0.003701086
000070 bb 03 2c 3d a3 71 31 3d 92 f6 b1 bd 15 cd cd 3d
       0.041995745 0.043321263 -0.08689608 0.10048882
000080 f7 0f 8c 3b c4 2c bb bd 2a 11 a5 3d 20 36 11 3c
       0.004274364 -0.09139398 0.080599144 0.008863002
000090 ce 26 b2 bd b5 19 a8 3c ac 29 78 3d 84 7b 5b bd
       -0.08698808 0.02052007 0.060586616 -0.05358459
0000a0 a7 79 a1 3c 92 e5 b7 3d 41 05 a2 bc 09 b7 96 bd
       0.019711329 0.08979334 -0.019777896 -0.0735913
0000b0 a7 18 66 3d 70 15 a8 3d c1 e1 b6 3d ba 07 8b bd
       0.056175854 0.08207214 0.08929778 -0.06788583
0000c0 9f b5 66 3d a9 9b 75 bd df 14 83 3d 74 3c 8e bd
       0.05632555 -0.059962902 0.06400465 -0.06945124
0000d0 73 e2 8d 3c ce a8 f4 bc b4 1c 98 3a a4 b0 5c 3d
       0.017319893 -0.029865649 0.0011605234 0.053879395
0000e0 77 5a 88 3c e7 5c 98 3a 05 bc 9a 3d 71 c5 7c 3d
       0.0166447 0.0011624367 0.07555393 0.061711732
0000f0 86 21 b0 3d b3 aa 3e bd 3a da 7c 3d 71 ef c5 bd
       0.08600144 -0.04654951 0.061731555 -0.096648104
000100 c5 97 91 bd 32 c7 b3 bd ce a0 cf bc ba d1 91 bd
       -0.07109026 -0.08778228 -0.025345232 -0.0712008
000110 27 f9 0d bd 93 2b 99 bb 9e 82 ab 3d f3 11 06 bd
       -0.03466144 -0.004674384 0.083745226 -0.03273196
000120 f8 e0 c2 bd e1 30 75 3d 12 b9 8a 3d 31 a2 b5 3c
       -0.09515566 0.059861068 0.067735806 0.022172065
000130 05 e6 11 bd 95 70 a7 bd a8 9e e6 bc bf a0 10 3c
       -0.035619754 -0.0817577 -0.028151825 0.008827387
000140 cf 30 a7 bd e0 48 91 bd 95 48 63 bd ac 60 b2 bc
       -0.081636064 -0.07093978 -0.05548914 -0.021774612
000150 bc d7 8b bd b4 6f a1 3d cf c8 1c bd 8a 6b 93 bd
       -0.068282574 0.07882634 -0.038277443 -0.07198246
000160 2d 84 ce 3c ae e1 a8 bd 0a c9 17 3d a0 d8 10 bd
       0.02520951 -0.0824617 0.03705696 -0.03536284
000170 40 ba d9 3c 4e 17 a4 bd bd af 96 bd d0 47 fc bc
       0.026578069 -0.080122575 -0.07357738 -0.030795962
000180 9e a2 90 bd f7 c3 13 bb 21 62 3b 3d d0 be d7 3c
       -0.07062267 -0.0022547224 0.04574788 0.026336104
000190 73 4b b3 3d 99 57 c3 bd b1 70 f2 3c 51 44 cc 3d
       0.08754625 -0.09538192 0.029594751 0.09973968
0001a0 2d 1f 92 3d 72 ac 02 3d c1 ba 6d 3d b5 d3 4f 3c
       0.071348526 0.031902738 0.05803943 0.012684752
0001b0 8c e5 41 bd 38 d7 80 bd e2 3e c7 3d e9 57 c4 3d
       -0.047338054 -0.0629105 0.09728791 0.0958708
0001c0 4c 99 df bc 50 67 b5 3d 03 cf 19 3d 36 29 86 3c
       -0.027294777 0.08857596 0.037550937 0.016377073
0001d0 89 11 60 bd dc d1 2a 3d 51 ef 82 3d 25 b3 5d 3d
       -0.054704223 0.041704044 0.06393302 0.054125924
0001e0 aa 4b 2b 3d a7 f2 48 3d 24 d3 b2 3c f1 9f bb bd
       0.041820206 0.049059536 0.021829195 -0.09161366
0001f0 2f 1f 62 3d fe 3c 16 3d fb c5 6d 3d 6b 15 36 bc
       0.05520552 0.03667926 0.058050137 -0.011113505
000200 a9 18 be 3d 57 ff 04 3d bb 7d b9 3d 83 c9 e6 bc
       0.09282047 0.032470074 0.09057184 -0.02817226
000210 6a 66 a9 3d b7 c8 41 3d 46 81 bf bd 4c f5 ae bd
       0.08271487 0.047310557 -0.09350829 -0.085428804
000220 77 82 98 3d 01 22 a7 bd 75 bc 88 bc 17 e7 d9 3c
       0.07446759 -0.081607826 -0.016691426 0.02659945
000230 d0 e1 eb 3c 41 c5 d2 3c 92 15 46 3d 0c 5b 1b 3d
       0.0287942 0.025728824 0.048360415 0.037928626
000240 27 a0 83 bd 14 ae bb bd e5 f9 a1 3c ef 88 8f bd
       -0.06427031 -0.09164062 0.01977248 -0.0700854
000250 e4 77 37 bd e9 89 b1 bc ec 55 d4 3c e8 73 8e bc
       -0.04479207 -0.021672206 0.025919877 -0.017389253
000260 69 ee 91 bd c1 92 89 bd a9 f3 82 bd 1a 9b 9b bc
       -0.07125551 -0.06717444 -0.06394131 -0.018994857
000270 4d 08 a4 3d 36 1a 83 bd f7 11 b0 bd d8 b0 97 3d
       0.08009396 -0.06401484 -0.085971765 0.07406777
000280 e7 e6 ac 3d bc 4a f1 3c 36 c5 b5 bd 59 2e 98 3d
       0.084424786 0.029454581 -0.088755056 0.07430715
000290 4c af 35 3d 86 22 47 3d 41 16 a7 3d d1 af 02 3d
       0.04435663 0.04861691 0.081585415 0.031905953
0002a0 29 3d 66 bd fe b6 4a 3d 8b 59 b0 3c 4c 9c ac bd
       -0.05621067 0.04949092 0.021527072 -0.08428249
0002b0 f6 f1 9d 3b 16 65 03 3d e7 b1 4a bd db c7 29 3d
       0.0048201038 0.032078825 -0.049486067 0.041450363
0002c0 b6 b2 38 bc 50 0f aa bd 7a 59 9d bd 9d 7e 7e bd
       -0.011273077 -0.08303702 -0.07683082 -0.062132467
0002d0 cb c5 ba bd 1b 23 a4 bd 60 d5 a4 3a 3a d0 6a bd
       -0.09119757 -0.08014508 0.0012575798 -0.057327487
0002e0 6c 5c 1b bd 8b ca c4 3d a7 f3 b0 3c c4 7a b0 bd
       -0.037929937 0.096089445 0.021600557 -0.08617166
0002f0 7a 2a 7b 3b 06 e7 8a bd 2d ac bd bd 33 e8 7d bd
       0.0038324879 -0.067823455 -0.092613555 -0.06198902
000300 05 89 85 3d 45 36 7d bd 41 44 5d 3d 16 f1 e2 3b
       0.06520275 -0.061819334 0.05402017 0.0069257123
000310 c7 4e 15 3d 2d a8 c2 bd 0f 6d b0 3d f3 aa 9f 3d
       0.03645208 -0.09504733 0.08614551 0.07796278
000320 45 bf ca 3c 9a 05 35 bc 0c ab 04 bd f4 a2 7a 3a
       0.024749408 -0.011048699 -0.032389686 0.0009561025
000330 2b d6 16 b9 c4 d6 a8 3d c8 2c 1b bc be eb 55 3d
       -0.00014384899 0.08244088 -0.009471126 0.052226774
000340 8e 9f 75 3c 73 e2 45 bd 66 59 23 bc 9c 26 7d bd
       0.014991654 -0.048311662 -0.009970045 -0.0618044
000350 43 af 27 bd 55 9d 81 3c da 44 07 bc f2 b7 86 3d
       -0.040938627 0.015822092 -0.008256162 0.065780535
000360 2c 02 91 bd 3b c7 67 3d 85 98 c1 bd 84 5d 18 bd
       -0.070804924 0.056586485 -0.09452919 -0.03719856
000370 2b 2b 12 bd 8f 6c 15 bc ec 24 33 3d ef d1 3a bd
       -0.0356857 -0.009120121 0.043736383 -0.045610365
000380 27 0a 9c bd 7d bd bf 3d eb 7c 6e 3d e4 a3 98 3b
       -0.07619124 0.09362314 0.0582246 0.004658209
000390 66 2c 68 bd 03 40 a0 bd da bd 59 bc 96 71 15 bd
       -0.056682967 -0.07824709 -0.013289893 -0.036485277
0003a0 03 a0 89 3d 1e bd 56 bd 30 18 74 bd 6f 23 2f bd
       0.06719973 -0.05242645 -0.05959338 -0.0427584
0003b0 e2 e6 d1 ba 74 a8 c2 3d a1 fe b0 bc 73 3a a2 3d
       -0.0016014243 0.09504786 -0.021605792 0.079213046
0003c0 f0 1c 9a bc e1 88 0f bd 76 78 65 3b 84 ae a8 3a
       -0.018812627 -0.035042647 0.0035014427 0.0012869393
0003d0 aa df 2f bd 38 e1 1e 3d 80 7c 16 bd f6 44 82 bd
       -0.042937912 0.038789004 -0.036739826 -0.063608095
0003e0 7c cb cb 3d 21 f3 0f bd e1 82 1e bd 64 f3 b7 3d
       0.09950921 -0.035143975 -0.038699035 0.0898197
0003f0 d3 9b 7c bd 27 c5 88 bc 3e 0d c9 3d b2 f3 1f 3d
       -0.061672043 -0.016695572 0.09816979 0.039050765

lstm.weight_hh_l0 f4 [400, 100]
000000 dc 75 ba 3d 26 91 b9 bd 5b 47 5b bd 1e ba c8 3d
       0.09104511 -0.09060888 -0.053534847 0.09801124
000010 2f 43 cc 3c 6f 21 ee ba 2f e3 20 3c 07 77 8f bd
       0.02493438 -0.0018167923 0.00981979 -0.070051245
000020 05 d6 6e bd d8 c3 cb 3d 35 4c 41 bc d3 6b ad bb
       -0.058309574 0.099494636 -0.011797954 -0.0052923947
000030 ad 20 e1 bb 06 88 75 bd 34 a5 00 3d 6a 47 ce bb
       -0.0068703503 -0.059944175 0.03140755 -0.0062951343
000040 63 b5 ab bd 68 5f 5b 3d 22 f9 94 bd 7b 4a c4 bd
       -0.08384206 0.053557783 -0.07274081 -0.095845185
000050 38 b1 8f bd b3 5f 0f 3d 66 15 b9 3d ed 71 48 3c
       -0.07016224 0.035003375 0.090372846 0.012234193
000060 bf ef 7f 3d 42 6c bc 3d 5e e9 6a 3d 79 39 73 3d
       0.0624845 0.09200336 0.057351463 0.059380982
000070 13 a6 c5 3c d5 6c 25 3c 02 f2 81 bd 39 fe 71 bd
       0.024127042 0.010096748 -0.063449875 -0.059080336
000080 3d 36 22 3c 3c 12 b0 3d d9 06 ee 3c 9d ae 81 bc
       0.009900627 0.08597228 0.029056 -0.015830332
000090 6e 07 b8 bd 44 4a ee bc 41 1c 99 bd f5 77 f9 3c
       -0.08985792 -0.029088147 -0.07476092 0.030452708
0000a0 2c be 79 ba 45 25 49 bd 34 f3 90 3d d2 d9 2a bd
       -0.0009526934 -0.04910781 0.07077637 -0.041711636
0000b0 cf 43 04 bb e9 d4 ec bb 08 8f 86 3d cd 63 3f 3d
       -0.0020182019 -0.0072275293 0.0657025 0.046726037
0000c0 b1 e1 8e bc 41 62 9d 3d b9 04 a8 3d 5d 64 58 bd
       -0.017441602 0.07684756 0.08204026 -0.05283009
0000d0 21 aa ac 3d bf 5c 8f 3d ca 85 ea 3c d6 aa 33 3d
       0.08430887 0.07000112 0.028628249 0.043864094
0000e0 3f ce 30 bd 57 db e3 3a ea 9d b3 3d 86 f2 95 bc
       -0.04316544 0.0017384094 0.08770354 -0.01830412
0000f0 d6 a3 81 bd 35 ed 92 bb ce 50 54 bd 45 24 30 bd
       -0.06330077 -0.0044838437 -0.051834874 -0.04300334
000100 38 78 5a bd 44 1e b2 bd 8a 38 67 3d bb 4a 13 3d
       -0.053337306 -0.08697179 0.056450404 0.03595994
000110 32 d2 73 bd b4 96 c0 3d 29 c8 86 bd cf 64 86 3d
       -0.05952663 0.09403744 -0.06581146 0.065621965
000120 c5 a6 38 bd 0e fe 0d 3d 17 94 ed ba ca 19 99 bd
       -0.04508092 0.034666114 -0.0018125799 -0.07475622
000130 f2 f7 32 3b ad 0a 67 3d 1a 5f f9 3c b7 d6 4b 3d
       0.0027308431 0.056406666 0.030440856 0.049765315
000140 44 69 be bd 60 f4 f9 bc 74 29 26 3d a1 cb 92 bd
       -0.092974216 -0.030512035 0.040566877 -0.071677454
000150 b9 7f 55 3d 33 52 ac 3d d1 cd 60 bd cc dc ad 3d
       0.05212376 0.08414116 -0.05488378 0.08489379
000160 1c c1 98 3d fe fc d2 3c 82 34 c7 ba 21 fc 51 3d
       0.07458708 0.025755402 -0.0015198144 0.05126584
000170 13 9f 8c bd f2 81 95 bd 3d e5 a2 bd 74 d4 41 3d
       -0.068662785 -0.07300176 -0.0795388 0.04732175
000180 36 9c 72 3d 48 37 5c 3d 2b 48 1c bc 6d 70 25 3c
       0.059231006 0.053763658 -0.009538691 0.010097605
000190 d8 3b 8d bd 9e 7f 5b bd 5c 25 69 bd a5 9f 94 3d
       -0.0689618 -0.053588502 -0.056920394 0.07257012
0001a0 19 02 55 bd 6c 92 7c 3d 31 5c b8 bd fc 76 f9 3c
       -0.052003954 0.061663076 -0.09001959 0.030452244
0001b0 59 2d 7c 3d 57 a4 5e 3d cc 6d 7b bd 9d 6e fa 3c
       0.061566684 0.054355945 -0.061384007 0.030570323
0001c0 f6 cf 61 3d a7 3a aa 3d 1b 60 74 3d 1f 61 4e bd
       0.055129968 0.08311968 0.059661966 -0.05038559
0001d0 c6 16 22 3d d1 ae d0 3a d8 03 61 3c 7d 13 91 3d
       0.0395725 0.001592124 0.013733827 0.07083795
0001e0 a5 59 e8 bc 9b ae 7f bd e8 84 85 bd 25 da af 3d
       -0.028363058 -0.062422376 -0.065194905 0.0858653
0001f0 88 f5 13 3d d2 2e 1f 3d c9 34 97 ba 4a 28 55 bd
       0.03612283 0.03886301 -0.0011536117 -0.052040376
000200 68 fc 2b 38 20 07 8e 3c 91 e6 1f 3c 9f 65 c6 bc
       4.100465e-05 0.017337382 0.009759561 -0.024218379
000210 f9 d3 a2 bd 0d 54 66 bd 14 cc 94 bd c9 c4 94 bd
       -0.07950587 -0.0562325 -0.07265487 -0.07264096
000220 16 4e 16 bd fc 10 ac bb ba 6c 24 3d 40 3d a6 3d
       -0.036695562 -0.005251048 0.040142752 0.08117151
000230 50 3f 41 bb c7 29 b8 3c d4 4e 8a 3d 5e e2 76 3d
       -0.00294872 0.022480858 0.067533165 0.060274474
000240 24 d4 89 bd 70 04 46 3d a6 cc b4 3d 08 2e 8a bc
       -0.06729916 0.048344076 0.08828096 -0.016867653
000250 93 7f 1a 3d 86 83 b4 3d d4 ec 8e 3c 75 83 75 3d
       0.03771932 0.088141486 0.017446913 0.05993982
000260 6e 80 04 bd a3 38 4d bc 42 25 89 3d fd 0d 11 bd
       -0.032349043 -0.01252571 0.066965595 -0.03541373
000270 c8 61 b0 3d 1c b1 22 3d b9 4c a7 3d 3f 78 14 3d
       0.086124 0.039719686 0.081689306 0.036247488
000280 f5 a8 88 3d 20 1e b0 bd 3b 58 84 bd 01 f6 81 3d
       0.06672851 -0.08599496 -0.06462141 0.0634575
000290 d9 f5 34 3d 68 c0 3d bc 78 30 79 3d 40 35 c3 bd
       0.04417977 -0.011581518 0.06083724 -0.09531641
0002a0 34 68 a4 3d 98 26 17 3d 35 dd bd bd c5 4b b1 bd
       0.08027688 0.03690204 -0.092707075 -0.0865703
0002b0 e7 10 31 3d 4a 79 95 3d cb 58 7c bd 10 dc ac bd
       0.04322901 0.07298525 -0.061608117 -0.08440411
0002c0 95 c7 af 3d f5 cd 4a bc 3c fe f1 3c b6 d4 38 3d
       0.08582989 -0.012378206 0.029540174 0.045124732
0002d0 7d d3 af bd 54 fa 8e bd 41 1e 99 bd 17 9c 51 3d
       -0.0858526 -0.0698134 -0.074764736 0.05117425
0002e0 1f 46 22 3d fa 50 11 3d f1 1a ac bc 8c cf b2 bd
       0.039617654 0.035477616 -0.02100894 -0.08730993
0002f0 50 43 6c bb a8 1b 90 3d a1 93 86 3d 67 f4 81 bd
       -0.0036050864 0.07036525 0.06571127 -0.06345444
000300 91 2e 02 bd 27 6d a3 bd be a9 cc 3d 0b 20 b3 3d
       -0.03178269 -0.079798035 0.09993313 0.08746346
000310 3f 32 3f bc e7 91 90 3d eb 19 b2 bc 9d b3 81 bd
       -0.011669694 0.07059079 -0.021740874 -0.06333087
000320 c3 e9 59 bd 10 bc 8d bd 12 e5 a6 3c 02 8e 8e bd
       -0.05320145 -0.06920636 0.020372901 -0.069606796
000330 2d 74 f6 3c 75 c7 c7 3d ef 61 1b bd 54 87 46 bc
       0.030084694 0.0975484 -0.037935194 -0.012117226
000340 50 32 1b 3d fc c3 88 3d 69 78 b3 3d 65 38 b8 b9
       0.03788978 0.06678006 0.08763201 -0.00035137232
000350 10 fd 9d 3d 8c 85 0e bd 43 cc 09 bd 7f 91 29 3d
       0.077142835 -0.03479533 -0.033642065 0.04139852
000360 00 72 b6 bd 74 4f 3b 3d 98 0a b8 bd 63 95 0d bd
       -0.089084625 0.04573007 -0.089863956 -0.034566294
000370 7c d9 99 3d 75 9b 7c 3d 0c 35 2a bc 6c a0 74 bd
       0.07512185 0.061671693 -0.010388624 -0.059723303
000380 01 dd 28 bd 26 bf 4d bc 4c b3 8e bd 0e 81 bf 3d
       -0.04122639 -0.01255778 -0.06967792 0.09350787
000390 cd 60 3a 3d e8 64 a6 bd 3d 42 51 bd 94 3f 9e bc
       0.045502473 -0.08124715 -0.05108856 -0.019317426
0003a0 71 31 84 bd 5d de 67 bd 48 1f 95 bd 3a b7 57 3d
       -0.06454743 -0.056608547 -0.07281357 0.052664973
0003b0 05 86 b5 3d 64 d2 b2 bd 54 09 6c 3d 3f 2f 57 bd
       0.08863453 -0.08731535 0.057626083 -0.05253529
0003c0 21 7e 3e 3d dd 7b b7 bd 88 de 95 3d e0 4d 9d bd
       0.046507005 -0.08959172 0.07317835 -0.07680869
0003d0 bb 35 83 3c de 2c 16 3d 78 ea a7 bd 35 d1 6e 3d
       0.016016832 0.036663882 -0.08199018 0.058304984
0003e0 c9 25 71 bd bf be 61 bd 33 86 07 3c 21 25 1c bd
       -0.058873925 -0.05511355 0.008271742 -0.038121346
0003f0 80 b8 96 3c 31 18 12 3d cd b7 bf 3c 39 5f 92 3d
       0.018398523 0.035667602 0.023403073 0.071470685

lstm.bias_ih_l0 f4 [400]
000000 c3 b9 3b bd d4 71 a0 3c bd 10 b5 3b 48 81 06 bd
       -0.045831453 0.019585527 0.005525677 -0.032838136
000010 4f d9 35 3d f5 0c 6d 3d 1c e8 87 3d b1 1c dc 3c
       0.044396695 0.057873685 0.06636068 0.02686915
000020 c5 08 c7 bc 44 92 1f 3b 5f c5 76 3d c5 09 c9 3c
       -0.024296174 0.0024348656 0.06024682 0.024540791
000030 fa 97 88 bd a5 11 b6 3d 93 64 06 3b 57 d9 72 bd
       -0.06669612 0.08890084 0.0020506724 -0.059289303
000040 58 6a c8 bc 0b 2c 23 3d 88 07 ab 38 71 1e fb bc
       -0.024464771 0.039836925 8.155318e-05 -0.030654164
000050 69 c0 26 3d 51 aa 31 3d d2 76 c2 3c bf b7 f0 bc
       0.04071084 0.043375317 0.023738299 -0.029384492
000060 87 f4 6d bd 2d 17 e8 3b 27 31 b3 3d 65 f4 95 3c
       -0.058094528 0.007082841 0.087496094 0.018305013
000070 cd ba 0c 3c b0 24 c7 bc 39 d8 08 bc 2e 93 0e bd
       0.008589459 -0.024309486 -0.008352333 -0.03480833
000080 79 16 7f bd 2f 95 86 3d c9 36 f8 3b 0b f0 41 bd
       -0.06227729 0.06571423 0.0075748903 -0.047348063
000090 b7 d8 20 3d 2e 04 02 bc 8b 30 37 3d df b6 bd bd
       0.039269175 -0.007935567 0.04472403 -0.092633955
0000a0 4f 76 8f 3c ae 45 83 3d ab 50 9f bd 0f 9d b6 bd
       0.017512469 0.06409775 -0.07779058 -0.08916675
0000b0 64 9f 2b bd 8e 75 8e bc 59 d7 b4 3d 4d aa c1 3d
       -0.041900054 -0.017390039 0.08830137 0.094563104
0000c0 ed aa 6c 3d 87 85 0e bd 24 02 a6 3d b0 42 af bc
       0.057780195 -0.03479531 0.08105877 -0.021394104
0000d0 29 0b cc bb 50 85 9d bd 80 1e ae bd 51 37 1b bd
       -0.0062269163 -0.07691443 -0.08501911 -0.03789455
0000e0 ff 5d 95 3d 3f da 8a bd 87 98 cd 3c 0d ea af 3d
       0.07293319 -0.067799084 0.025097145 0.085895635
0000f0 bd 7e 5e bc 6b 28 f1 3b c7 af b7 bd c1 92 c9 b9
       -0.013580021 0.0073595545 -0.08969074 -0.00038447048
000100 24 f3 76 3d 91 ec 2b 3d 17 cd 86 bd 0b 98 b0 3d
       0.06029047 0.041973654 -0.065820865 0.0862275
000110 cd 67 b0 3d 24 fb 48 3d 09 04 5c 3d 4c 50 14 bd
       0.086135484 0.04906763 0.053714786 -0.03620939
000120 08 8a c2 bc 59 02 c1 3b 13 49 ab bb d6 e4 aa 3d
       -0.023747459 0.0058901724 -0.005227217 0.08344428
000130 1c 19 cc bc a4 1a b9 3c b7 dd ad bd 41 a3 86 bd
       -0.024914317 0.022595711 -0.084895544 -0.06574107
000140 8d fc 03 bd d0 21 fc 3b 2d 85 a3 bd 20 52 7c 3d
       -0.032223273 0.0076944605 -0.07984386 0.061601758
000150 84 ea c0 bd 28 66 09 3d d3 45 9e bd 4f 63 55 bd
       -0.0941973 0.03354469 -0.07728162 -0.05209666
000160 7e 1b 30 3d 79 13 99 3d 0f 63 8c bd 7f d4 a3 bd
       0.04299497 0.07474417 -0.068548314 -0.07999515
000170 f1 99 97 3d 63 7a be 3b ad 5c 0c bd 0e 09 39 bc
       0.07402409 0.0058129295 -0.03426807 -0.011293663
000180 26 48 90 3c 46 41 4a 3d 3f 56 bf 3d 42 71 59 3d
       0.017612528 0.049378656 0.09342622 0.053086527
000190 01 01 79 3d 7d 98 4c 3c 61 b8 93 bd 03 d4 73 3d
       0.060791973 0.012487528 -0.07212902 0.059528362
0001a0 7c bf be 3c 06 3b d5 bc 4d dd 9c bd 12 1f 4d bd
       0.023284666 -0.026029121 -0.07659397 -0.05007846
0001b0 39 c8 b8 3c 9a 6b 6f bc 86 59 b4 3d 7b be b6 bc
       0.022556411 -0.014613057 0.08806138 -0.022307625
0001c0 b5 24 88 bd a1 2c 8e 3d 67 41 cc 3d 94 ec 48 bc
       -0.06647626 0.06942106 0.09973412 -0.012263436
0001d0 88 ee 72 bd 44 d4 21 3c 44 b4 f4 3c d3 f6 06 3d
       -0.059309512 0.009877268 0.029871114 0.032950234
0001e0 67 9a a5 bd 8f a9 82 bd 33 75 5f bd e5 48 c0 3d
       -0.080860905 -0.06379997 -0.05455513 0.093889035
0001f0 fc f0 a3 3d 96 63 05 bb 0a 36 a4 3d 8b 09 9f 3d
       0.080049485 -0.0020353547 0.0801812 0.07765492
000200 c4 72 ad bd c3 31 5a bd e3 4a c8 3b d0 87 84 3d
       -0.084691554 -0.053270113 0.006112443 0.06471217
000210 20 57 18 3d bd 1b 69 3d 6c ab c8 bd 78 6e 54 3d
       0.037192464 0.05691122 -0.09798321 0.051863164
000220 c5 e3 ac 3d b1 4e 40 bd 04 31 c3 3d 51 0d df 3c
       0.08441881 -0.046950046 0.09530833 0.02722803
000230 95 9f 75 3d 4e 90 7c bc 58 c8 c3 bd f2 11 7c 3d
       0.059966642 -0.015415264 -0.09559697 0.06154055
000240 39 1f 0c 3d 31 3c 5f 3d 4a 90 c1 bd 63 50 c2 bc
       0.034209464 0.054500762 -0.09451349 -0.023719972
000250 1e 25 84 3c 30 f5 b5 3c 45 cb 7a 3c 08 c7 b3 3d
       0.01613098 0.022211641 0.015307252 0.087781966
000260 44 3d ab bc 34 87 9b bd 3e a0 15 bc 45 66 e2 bc
       -0.020903237 -0.07594147 -0.009132443 -0.027636657
000270 01 50 cb bd 58 e9 c3 bd cd f2 c9 3d 9b 05 93 bd
       -0.09927369 -0.09565991 0.09860764 -0.071788035
000280 dc 4b 0d bd c9 eb 00 bd c9 ee 52 3d 1d 0f b6 bd
       -0.034496173 -0.031474862 0.051497255 -0.088896014
000290 02 06 20 bd 18 21 9a 3d 19 a1 80 bd 64 8f 36 bd
       -0.03906823 0.075258434 -0.06280727 -0.04457034
0002a0 7a 13 92 3d 79 55 6d bd 59 85 ae bd a6 75 5f 3d
       0.07132621 -0.05794284 -0.08521528 0.054555558
0002b0 f0 f5 81 bd b8 ed 9c bc 9b 2c c5 bc 38 b8 8d bd
       -0.06345737 -0.019156322 -0.024069121 -0.069199026
0002c0 68 eb 4e 3d e5 11 04 3d 6e 9f aa b8 5f c3 53 3d
       0.05051747 0.032243628 -8.135928e-05 0.051699992
0002d0 d8 8b d2 bc a2 3e a7 bc 9d e9 a5 3d ae bc ce bd
       -0.025701448 -0.020415608 0.08101199 -0.100945815
0002e0 ac d2 cc 3d 94 1f 10 bd dc 46 05 3d ad 57 b6 3d
       0.1000112 -0.035186365 0.03253828 0.089034416
0002f0 d4 fe 3f 3d 63 4e 4b bd d5 1c b3 3d be 02 48 3d
       0.046873882 -0.049635302 0.08745734 0.04883074
000300 78 56 b1 bd cc d2 ab 3d cc 95 b7 bd e7 e1 97 3d
       -0.08659071 0.08389816 -0.08964118 0.07416134
000310 67 4e 9a bc ce 84 9d 3b 47 d0 0d 3d 57 e3 c5 bc
       -0.018836213 0.0048070913 0.034622457 -0.024156256
000320 da eb 9a bd 0a e8 20 bd 04 28 60 bd 30 4b 4a 3d
       -0.07564516 -0.03928379 -0.054725662 0.04938811
000330 37 8c a8 bd 67 8a 8b bd 53 1e 5c 3c 66 40 22 3d
       -0.08229869 -0.068135075 0.013434964 0.039612196
000340 f5 2e bc bd 6d 67 aa 3d 1b 9b 48 bd d9 c4 c2 3d
       -0.09188644 0.08320508 -0.048976045 0.09510202
000350 c9 3d 42 bd a5 58 9d bd 59 12 a3 bd e4 e3 51 3c
       -0.047422204 -0.07682923 -0.07962484 0.012810681
000360 55 55 ca 3d d2 98 8b 3d d3 30 95 3c 2f e1 12 bc
       0.09879557 0.068162575 0.018211758 -0.008964821
000370 e1 6d c5 3c 4c 6e 35 bd 86 c6 bd 3c f5 39 94 3d
       0.024100246 -0.04429464 0.023165952 0.07237617
000380 d0 e3 9e 3d bb 58 77 3d ba f2 1c 3d ee c7 d2 3b
       0.077582955 0.060387354 0.03831742 0.006432525
000390 f0 83 94 3d 6e 0d 79 3d 7f db 67 bd 4e a9 7d bd
       0.072517276 0.060803823 -0.056605812 -0.06192904
0003a0 3d 2f 95 3d d1 c6 01 bd 02 40 56 3c 61 71 6e 3d
       0.072844006 -0.031683747 0.013076784 0.058213595
0003b0 12 5d 92 bd 08 af 75 bc 42 c9 04 bc ca ca bb 3c
       -0.07146658 -0.014995344 -0.008104624 0.022923846
0003c0 f6 77 42 3d 41 d8 c8 bc dc 10 5d bd c7 96 ac 3c
       0.047477685 -0.02451718 -0.053971156 0.02106799
0003d0 3b 8c bc bd 85 4d 30 3c b2 04 16 3d 0c 46 4b 3d
       -0.09206434 0.01076067 0.03662557 0.04962735
0003e0 8c 33 7f bd 74 4d ec bc 30 96 cc 3d 9f db 40 3c
       -0.06230502 -0.028845526 0.099895835 0.011771112
0003f0 9f 79 af 3c 71 29 af 3d 53 4d d0 3d 22 51 be 3c
       0.021420298 0.08552826 0.101709984 0.023232047

lstm.bias_hh_l0 f4 [400]
000000 1c a4 d9 bc ae de 9c 3c 66 c6 f9 bb db e2 86 3d
       -0.026567511 0.01914915 -0.007622528 0.06586238
000010 e5 cb 9b 3d 11 25 c0 bd 80 56 98 3c 8a 22 99 b9
       0.07607249 -0.0938207 0.018595934 -0.00029208168
000020 38 7a 65 bd 89 71 78 bd cf 63 2b bc 97 da af b9
       -0.05602476 -0.06065515 -0.010460808 -0.00033541463
000030 78 ca 3e bd 34 77 25 bd b8 7d a3 3d 11 08 7c 3a
       -0.046579808 -0.040396884 0.07982963 0.0009614239
000040 be 7a 66 3d 41 b6 4b bc e8 57 10 bd f6 35 b3 3c
       0.0562694 -0.012433589 -0.035240084 0.021876317
000050 5a a4 14 bd 2b 84 84 3d 6e 31 33 bc 9d 70 8e bd
       -0.03628955 0.064705215 -0.010937078 -0.06955073
000060 30 ae c8 bd 9f 30 92 bd 78 a3 be 3d ba 76 76 3d
       -0.09798849 -0.0713818 0.09308523 0.06017182
000070 24 8f 01 bd 96 37 2b bd 8c 19 ae 3d 84 73 23 bd
       -0.03163065 -0.041801058 0.085009664 -0.039905086
000080 d4 47 98 bc 83 ab 9a 3c be 14 9a 3d d4 d1 c6 3b
       -0.018588938 0.018880611 0.075234875 0.006067494
000090 f9 4f 2b bd 90 e5 d9 3c 31 b0 99 3d b5 f8 d5 bc
       -0.041824315 0.026598722 0.07504309 -0.02611957
0000a0 ad da 13 3d 99 57 e2 bc af 5d a2 3d 22 71 d5 3c
       0.036097217 -0.02762966 0.07928025 0.026054922
0000b0 03 de c9 bd 43 bd 42 bd c3 c5 b2 3d 50 40 ad bd
       -0.098567985 -0.047543775 0.08729126 -0.08459532
0000c0 98 57 75 3c 6f a5 7d 3d 68 d4 fd 3c e8 df bd bd
       0.014974497 0.061925348 0.030985072 -0.09271222
0000d0 0e 37 74 3d a2 8e a6 3d ba 2b 87 3c 76 67 76 bc
       0.059622817 0.08132674 0.016500343 -0.015039315
0000e0 7b 5f b3 bc 88 dd 80 bd b9 ef ba bd 25 16 94 bd
       -0.021896115 -0.06292254 -0.09127755 -0.07230786
0000f0 70 1e 17 bc 82 8f 63 3a 66 69 88 3d 8e fe 86 bc
       -0.009223565 0.0008680747 0.06660728 -0.016478803
000100 3d 37 cb 3d d7 02 25 3d 4b 66 7a 3d f3 96 b6 3d
       0.09922645 0.04028591 0.06113271 0.0891551
000110 55 ee 8c 3d 0f b5 7c bd 33 73 83 3d ca 00 7e 3d
       0.06881396 -0.06169611 0.06418457 0.06201247
000120 15 42 9e bd 4c 3c 24 bc 15 40 bb bd ff 4b bb 3d
       -0.07727448 -0.0100241415 -0.09143082 0.091453545
000130 b7 08 e5 3c de 4f 6c 3c 53 f9 83 3d 7a 30 35 3d
       0.027958257 0.014423339 0.06444039 0.044235684
000140 09 c1 39 bd da 21 b5 3d 37 30 a6 bd 40 08 46 bd
       -0.04535011 0.08844347 -0.08114665 -0.04834771
000150 f0 d0 9f 3d 20 82 37 39 a7 2a 19 bd 41 32 86 bc
       0.078035235 0.00017500715 -0.037394192 -0.016381385
000160 ea 07 c3 3d b1 24 af 3d fe 1e 14 bd 27 35 b6 bd
       0.09522994 0.0855192 -0.03616237 -0.08896857
000170 ed 62 e4 3c 26 3f bd bd 9d 8a ad bd eb 4e fc bc
       0.027879203 -0.0924056 -0.08473704 -0.03079935
000180 87 01 83 bd f7 6a 65 3c e7 1f 23 bd ee 58 b1 bd
       -0.06396776 0.014002553 -0.039825346 -0.0865954
000190 97 72 a7 bd 34 1e 59 3d ed c9 b2 bd ac 4b b4 bd
       -0.08176153 0.05300732 -0.087299205 -0.08803496
0001a0 cd d0 c9 3d 27 eb dd 3c 99 d8 61 3d bc 0c fb 3c
       0.09854279 0.027089668 0.055138204 0.03064572
0001b0 37 a5 a2 bd 81 88 85 bd ce a4 c8 3c 7a c3 23 bd
       -0.079416685 -0.06520177 0.024492647 -0.039981343
0001c0 87 b7 eb 3c ee 45 74 bd 2d 59 91 3c 17 2f 91 3c
       0.028774036 -0.059637003 0.017742718 0.01772265
0001d0 b7 a2 51 bc 9e a4 be 3c cf 37 b1 bc bf 73 13 3b
       -0.012795142 0.023271855 -0.021633057 0.002249941
0001e0 1b a5 a0 3c af 35 1f 3d bf 73 06 bc e9 20 50 3b
       0.019609978 0.038869556 -0.008206307 0.0031757897
0001f0 8e ac ba bb d0 26 a8 3d 92 e0 67 3d ac 9c 01 3c
       -0.0056968397 0.08210528 0.05661065 0.007910889
000200 49 05 0d bd 4d a3 97 bd 7c ae 2a bc fb 6f 55 bd
       -0.03442887 -0.07404194 -0.010417577 -0.052108746
000210 3b bb bd 3c e8 4c ad 3d 7f 0c ad bd 08 4b 25 3b
       0.023160568 0.08461934 -0.08449649 0.0025221724
000220 97 d9 e4 3a b5 81 99 bc 29 f9 ac bd d2 b0 88 3d
       0.0017459866 -0.018738607 -0.08445961 0.06674351
000230 c8 6c c7 3c a8 9c b2 3d bb cc 4b bd e4 b2 b8 3d
       0.024343863 0.08721286 -0.049755793 0.09018496
000240 e6 d3 94 bc 81 d5 b0 3d 0a de d2 bc a7 a6 a5 3d
       -0.018167447 0.08634473 -0.025740642 0.08088427
000250 b8 62 c5 3b 44 63 e9 3c b7 62 a8 bd 67 fc 61 3d
       0.006023731 0.028489716 -0.08221953 0.05517235
000260 37 da e2 39 84 45 a0 3d ae bb 67 bd 30 09 16 3d
       0.00043268662 0.07825759 -0.05657547 0.036629856
000270 24 b7 0d 3d da d5 f3 bc 2c 41 3d 3d 6d 75 ba 3d
       0.034598485 -0.029765058 0.04620473 0.091044284
000280 79 d3 02 bd 0c f9 28 bd c7 c7 86 3c 25 2a 9e 3d
       -0.031939957 -0.041253135 0.016452683 0.07722882
000290 5f 17 bb 3c dd 1a 92 3d 6a 6b 7a bd 80 cd bb bd
       0.022838293 0.0713403 -0.061137594 -0.091700554
0002a0 b4 4e 3d 3d 6f 2d db 3b 37 0d aa 3c 71 fb 61 bd
       0.046217635 0.0066887657 0.020758254 -0.055171434
0002b0 dc 2c a1 bc d3 f4 c3 3d cf 46 26 3d 30 9b 3c 3d
       -0.01967471 0.09568181 0.040594872 0.046046436
0002c0 85 40 0c bd 57 e5 94 3d 1a 1b 91 bd 08 3c ef 3b
       -0.034241218 0.072703056 -0.07085247 0.0073008575
0002d0 e9 56 42 3d 7c cc 10 bd 07 53 29 bc 57 e0 88 3d
       0.047446165 -0.03535126 -0.010334737 0.066834144
0002e0 a3 27 05 3d 59 82 77 3d 95 5e 67 3d c4 f0 5c 3b
       0.032508504 0.060427044 0.056486685 0.0033712843
0002f0 f1 f9 a8 bd 93 f8 52 bb 90 b3 49 3a 07 72 ad bd
       -0.082507975 -0.0032191619 0.00076942984 -0.084690146
000300 02 2a af 3d 58 35 11 bd 3e 2b cf 3c b8 a6 32 bd
       0.08552934 -0.035451263 0.025289174 -0.043616027
000310 c8 c1 ad bd fe fe 3b 3d 93 f0 68 bd 3c 63 91 3c
       -0.084842265 0.045897476 -0.056870054 0.017747514
000320 be f7 d5 3d 49 aa 86 3d f3 ce ce bc 0a af 17 bd
       0.10447644 0.06575448 -0.025245165 -0.037032165
000330 a7 02 c8 bb 64 5b 97 bd e8 50 b6 3d 05 38 7e bd
       -0.006103832 -0.07390478 0.089021504 -0.062065143
000340 6e 8c a9 3d ea 89 91 bb 34 38 9d bd b2 52 26 bc
       0.08278738 -0.0044414895 -0.076767355 -0.010151552
000350 91 8b 3d 3d 2e 02 ed 3c 3d 8c 99 bd 34 55 12 3d
       0.04627568 0.028931703 -0.074974515 0.035725787
000360 fb a9 de bc 51 8a 54 bd 8b 8e 2d 3c fa 02 50 3d
       -0.027180662 -0.05188972 0.010593067 0.05078409
000370 cb 59 76 bd ff d5 77 bd e8 05 01 bb 31 90 8b 3b
       -0.060144227 -0.060506817 -0.0019687358 0.0042591323
000380 26 3e de 3c 81 c3 33 3d 83 2c 96 3d ef 85 c6 3d
       0.027129244 0.04388762 0.07332709 0.096935146
000390 40 b4 8d 3d 21 2a 57 3d 0a ce ae 3d 60 4e 66 3c
       0.069191456 0.05253041 0.085353926 0.014056772
0003a0 ba b8 2d bd 45 47 97 bd a0 20 48 3d 86 42 38 bd
       -0.042412497 -0.073866405 0.04885924 -0.044985317
0003b0 0c 27 ab bd 38 b8 34 3d 48 d3 b7 bc dd 49 5c bd
       -0.08357057 0.044120997 -0.022439614 -0.05378138
0003c0 31 d6 15 bd 82 6f c2 3b 16 d3 fb b9 3d 84 38 bd
       -0.036581222 0.005933703 -0.00048031722 -0.045047987
0003d0 46 94 c4 3c 6e bd be bd b2 e1 3d 3d 6b da 50 bd
       0.023996484 -0.093134746 0.046357818 -0.05098955
0003e0 39 4a 0a 3d 2b c4 d8 3c 87 00 97 bd e8 d6 d1 bd
       0.03376219 0.026460728 -0.073731475 -0.10246068
0003f0 9c bb 6c 3c 5e 25 ac 3d 15 18 4c bd 54 fb 46 bd
       0.014449026 0.08405565 -0.049827654 -0.04857953

lstm.weight_ih_l1 f4 [400, 100]
000000 54 2c a5 bd 87 91 9e 3d a9 0e 22 3d 60 c6 cf 3c
       -0.080650955 0.07742601 0.039564762 0.025363147
000010 d2 08 86 3c a9 e4 36 bd d7 58 a6 3d 89 2c c9 bd
       0.016361628 -0.04465166 0.081224136 -0.098229475
000020 7c bb 7c 3d c7 fb ba 3d ee 40 5c 3d e8 b1 b7 3d
       0.061702237 0.09130054 0.05377286 0.0896948
000030 0f 4f e7 bc 88 38 66 3d 7f 70 80 bc 1a a7 07 bd
       -0.02823594 0.056206256 -0.015678642 -0.033118345
000040 f4 4c 3b bd bd 39 a0 3d 20 5a 9a bd 89 c3 05 bc
       -0.045727685 0.07823513 -0.07536721 -0.008164295
000050 c2 00 0b 3b 64 a1 b7 3d 32 6a be bd c2 7e c8 bd
       0.0021210168 0.0896633 -0.09297599 -0.09789802
000060 2e 10 dc bc c0 73 95 bd 8f d8 4b bc ff 46 0b 3d
       -0.026863184 -0.07297468 -0.012441768 0.034003254
000070 0d 84 c8 bd 71 0f ae 3d 6d 94 85 3c 74 5f 91 3d
       -0.09790812 0.08499039 0.016306126 0.07098284
000080 53 e8 9e bc 90 fa c2 bc 31 05 b7 3d b7 05 ae bd
       -0.01939789 -0.023801118 0.08936537 -0.08497184
000090 1e 18 a4 bd 2e 23 13 3d 7f 45 96 bc b6 68 19 3d
       -0.080124125 0.03592222 -0.018343685 0.037453376
0000a0 f8 e1 d4 bc 68 e0 48 3d 73 28 59 bd 37 20 4f bc
       -0.025986657 0.049042135 -0.05301709 -0.012641958
0000b0 27 f7 bd 3d ea 24 92 3d 22 44 51 3c 6d c8 60 bd
       0.09275656 0.07135947 0.012772592 -0.05487864
0000c0 98 48 d2 bc 9b fc 7c bc 6a 96 82 3d 7f c7 6f 3c
       -0.025669381 -0.015441085 0.063763455 0.014634966
0000d0 0c 80 98 3d 73 d8 27 bd bf a8 ae bd 9c b0 58 bd
       0.07446298 -0.040977906 -0.085282795 -0.052902803
0000e0 c0 72 c3 bd 85 6b 1f 3d 28 d0 87 bc 56 75 53 3d
       -0.09543371 0.038920898 -0.016578749 0.051625572
0000f0 14 53 6b bd ce 6c a7 bd 86 80 9c 3d 34 60 f6 bb
       -0.057452276 -0.0817505 0.076417014 -0.0075187925
000100 8a cb 5e 3c 0e 42 17 3d 08 46 88 bd 88 37 c8 3c
       0.013598332 0.03692823 -0.066539824 0.024440542
000110 0d d7 5b 3d d2 22 1a bd cf e8 5d bc c6 a3 8a 3d
       0.053671885 -0.037630863 -0.013544275 0.067695186
000120 05 5f 82 bc 0e c9 ad bd 84 6b 05 3d 26 b4 23 3d
       -0.01591445 -0.08485614 0.032573238 0.039966725
000130 74 bd 41 3d b5 e7 4c bd 77 39 d9 bc 35 9e 8f bd
       0.047299817 -0.05002566 -0.02651666 -0.070125975
000140 90 b9 84 3d 62 86 ac 3d 40 8a a3 bd ca fc 03 3d
       0.06480706 0.08424069 -0.079853535 0.0322235
000150 b2 d4 92 bd 6c 05 28 bd 42 4d c3 3d 11 03 a7 3d
       -0.07169475 -0.041020796 0.0953622 0.08154882
000160 bc 40 29 bd f3 ab 2c 3d b7 50 2e bd 66 b8 73 3c
       -0.0413215 0.04215617 -0.042557444 0.014875507
000170 36 8d a6 bd 59 c1 0c 3d b9 d7 94 3c 4c ca af 3c
       -0.081324026 0.03436408 0.01816927 0.021458767
000180 c5 5b 70 bd ad 14 21 3c d5 24 a5 bc 91 ef b4 3d
       -0.05868127 0.00983159 -0.020159164 0.08834756
000190 b5 c7 b0 3d f9 34 ec bc b3 40 c0 3b 69 a2 40 bd
       0.08631841 -0.028833853 0.0058670877 -0.047029886
0001a0 d4 d6 f4 bb a3 4b bc 3d e2 32 07 bd fd cd 8b bd
       -0.0074718986 0.09194114 -0.03300751 -0.068263985
0001b0 d2 2e 36 bd c9 16 aa bd bb 33 bd bd 5d 6e 60 3d
       -0.044478245 -0.08305127 -0.092383824 0.05479275
0001c0 46 6e 40 bd 76 17 75 3d fa 2f cb bd a7 21 8a bc
       -0.046980165 0.059836827 -0.0992126 -0.01686175
0001d0 68 ae 72 bd 54 52 8f bb 15 6c 22 bd ec 74 39 3d
       -0.059248358 -0.004373828 -0.039653856 0.04527752
0001e0 f2 77 c2 3d 38 8e cf 3c 0b be ad 3d a3 6d 19 bb
       0.09495534 0.02533637 0.084835134 -0.0023411296
0001f0 a2 22 ab bc 2c ea bb 3d e7 32 13 3d 27 a6 6a 3c
       -0.020890538 0.09175524 0.035937216 0.01432184
000200 a1 ec 6f 3d d6 15 8e 3d 99 34 2c 3d 58 41 02 bd
       0.058575276 0.069377586 0.04204235 -0.031800598
000210 23 be a1 bc 58 a0 86 3c ea 37 d0 3c ad 29 04 3d
       -0.019743985 0.01643388 0.025417287 0.032266308
000220 ca 5e 0c bc 9c 8d 33 3d 1e 07 8b 3d 65 38 64 3c
       -0.008567521 0.04383622 0.06788467 0.013929461
000230 5f 55 19 3c 9a 77 a6 3d ce 60 24 bd 67 83 22 3d
       0.009358733 0.08128281 -0.040131383 0.039676096
000240 11 10 c5 bd 41 3a 16 3d e4 74 82 3d 81 a3 20 bd
       -0.09622205 0.03667665 0.06369951 -0.03921843
000250 52 8c 24 3d 90 3e e0 bc 20 b5 2b bc e1 a9 bc 3d
       0.040172882 -0.027373582 -0.010480195 0.09212089
000260 58 4d a4 3c bf d2 9f 3d fd aa 77 bb bf 9a 0a bb
       0.020056412 0.078038685 -0.0037791126 -0.0021149365
000270 da 23 4a 3d 53 f1 cb bd 85 1a c1 bd ed ec 34 bd
       0.049350597 -0.09958138 -0.09428886 -0.044171263
000280 c9 ae 8a bd 50 ba 35 bd 13 9a 8d 3d 30 80 71 3d
       -0.06771619 -0.044367135 0.06914153 0.05896014
000290 d6 71 9e bd 40 2c c3 3d 1a 83 1b bd 44 e2 8d 3d
       -0.07736556 0.095299244 -0.037966825 0.06927922
0002a0 2a b9 01 bb 85 70 7c bc 82 19 9b bd 87 fc 52 bc
       -0.0019794204 -0.015407686 -0.075732246 -0.01287759
0002b0 e9 2f a9 3d cf f9 92 3d 79 08 9b bd 8e 9f aa 3d
       0.08261091 0.071765535 -0.075699754 0.08331214
0002c0 f4 58 90 3d 89 74 52 bd cc ae b5 bb 64 c2 ca bd
       0.070482165 -0.051380668 -0.005544519 -0.09900358
0002d0 0c 17 1b 3d f5 00 c5 3d 33 7d 1b bd 78 af 39 bc
       0.037863776 0.09619323 -0.037961196 -0.011333339
0002e0 2b 0b 0b 3d e9 af cc 3d 3f 59 45 3a cb 5b 98 3c
       0.033946197 0.0999449 0.00075282523 0.018598458
0002f0 b6 a4 ba bd 8e ba aa 3d fc ad 51 3d 09 84 c7 bd
       -0.09113447 0.08336364 0.051191315 -0.097419806
000300 4a 2d b1 bd 52 fc a9 3d 2a 63 40 3d 6e 32 e2 bc
       -0.08651216 0.083000794 0.04696957 -0.027611937
000310 4c 70 80 bd e4 7c 96 3a b8 80 8c 3d 5d a4 0e bd
       -0.06271419 0.0011481312 0.06860489 -0.034824718
000320 3e ea 0e bc f4 a7 e2 3c 27 15 6e 3d 9e e2 bc 3d
       -0.00872284 0.027667977 0.05812564 0.09222911
000330 a6 6e 82 3d 63 67 8e bd 2a 14 80 3c d8 e0 b4 3d
       0.06368761 -0.06953313 0.015634615 0.08831948
000340 bb f9 b0 bd c4 21 ae bb 5c 52 8f 3d db c9 a2 bd
       -0.08641382 -0.005314084 0.06998131 -0.07948657
000350 a4 6e 0a bd 35 45 bc 3d 08 6c 0a bc ec 5c d7 3c
       -0.03379692 0.09192888 -0.008448608 0.026289426
000360 af e4 bc bd 91 ff 9a bd 58 fa 08 3d af f6 8b bd
       -0.092233054 -0.07568277 0.03344187 -0.068341605
000370 73 7f a2 bd 92 b3 e7 bc 01 80 9c bd 59 f6 87 bd
       -0.07934465 -0.028283868 -0.07641602 -0.06638784
000380 87 e2 9a bd fb 9f 24 3d 54 d2 4c bd 01 e1 1c bc
       -0.07562738 0.04019163 -0.050005272 -0.0095751295
000390 b7 b3 62 bd cd 29 58 3d 22 c5 5c bc 8e 49 28 3d
       -0.05534717 0.05277424 -0.0134747345 0.041085772
0003a0 05 a7 69 bd 55 77 7d bd 10 c0 53 bd d5 eb 6d 3d
       -0.057044048 -0.061881382 -0.051696837 0.058086235
0003b0 ac e4 69 3d ec af 9b bd 60 3b b9 3c 38 5a 36 bd
       0.057102844 -0.07601914 0.02261132 -0.044519633
0003c0 46 e7 c7 3d db 6c d9 bc 48 a9 27 3d 80 f9 f1 bc
       0.09760909 -0.026541164 0.040932924 -0.029537916
0003d0 26 66 35 3d 91 48 f0 bc e6 ea b5 3d 8b ed 9d 3d
       0.04428687 -0.029331477 0.08882694 0.07711323
0003e0 eb 89 f3 3c fd 33 e4 bc e2 a0 8b bd 19 55 af 3c
       0.02972885 -0.027856821 -0.06817795 0.021402882
0003f0 22 8d 41 3d fc 29 80 bd 12 b6 30 bc e9 9c 8d 3d
       0.047253735 -0.06258008 -0.010785596 0.06914694

lstm.weight_hh_l1 f4 [400, 100]
000000 65 45 6f bd 08 6a fe bb fe c7 37 3d 0f 20 8f bd
       -0.05841579 -0.0077641048 0.04486846 -0.069885366
000010 2b c9 2c bc 98 2b 89 3d a2 f9 82 3d 3a a9 a8 bd
       -0.010546009 0.06697768 0.0639527 -0.082354024
000020 5c 51 ba bd 82 d9 57 bc 9e d7 ba 3d 02 9e 5a 3d
       -0.09097549 -0.0131744165 0.09123157 0.053373344
000030 6f 48 17 bd 88 32 87 bd ff 81 08 bd 59 1f c2 3d
       -0.036934312 -0.06601435 -0.0333271 0.09478635
000040 3c 89 8a bd 06 68 c2 bc a1 f2 47 3d ca 5f 9d 3d
       -0.06764457 -0.023731243 0.048815373 0.07684286
000050 f0 be 14 3d ff 5c 66 3d 52 ec 15 bc f4 58 0e 3d
       0.036314905 0.05624103 -0.009150581 0.0347528
000060 b2 56 88 3d 65 2e 94 bc 70 27 e3 bc 46 29 9d bd
       0.06657161 -0.018088529 -0.027728766 -0.07673888
000070 17 b0 4e bd 8b 76 af 3d 99 07 63 3d c3 2f 6f bc
       -0.0504609 0.08567532 0.055427168 -0.01459879
000080 0d 97 44 bd d1 81 3a bd 57 f5 94 3d 23 ef 6b 3d
       -0.047995616 -0.04553396 0.07273357 0.057601105
000090 b7 af 79 bb 42 c9 36 bd 49 a6 03 3d 81 1a 91 bd
       -0.003809912 -0.04462553 0.032141004 -0.07085133
0000a0 3e d5 bc bd 63 09 51 bd 7b 33 61 3d d8 a6 ac bd
       -0.0922036 -0.051034342 0.054980736 -0.084302604
0000b0 34 8c 9d bc 5b aa b1 bd dc 02 5c 3d e2 7c 83 ba
       -0.019231893 -0.08675071 0.053713664 -0.0010031725
0000c0 b8 6e 51 3c c1 46 20 3d 35 8a 9a 3d f9 c6 41 3d
       0.012782745 0.039129976 0.07545892 0.047308896
0000d0 30 c6 c7 bd 48 67 a2 bd ff f3 70 bd ed 18 0a 3b
       -0.09754598 -0.079298556 -0.058826443 0.0021071986
0000e0 35 c9 dc 3c c3 58 94 3d 96 7b c9 bd c6 90 c6 bd
       0.026951412 0.072434925 -0.09838025 -0.09695582
0000f0 8e a1 c5 3d 56 57 5a 3c 24 f9 92 3c 19 24 b4 3b
       0.09649955 0.013326487 0.017941065 0.0054974672
000100 26 78 3c 3d 7e 72 88 3d d7 ba b6 3a 6d 91 b2 3d
       0.04601302 0.06662463 0.0013941181 0.08719144
000110 f9 45 ca 3d 7d 0a 2c bc 1e 3c 9f bd d1 11 a2 3c
       0.098766275 -0.0105005475 -0.07775138 0.019783886
000120 e2 08 6a bd 29 41 85 3d dd 5c 97 bd a5 9b ba bd
       -0.057137378 0.06506569 -0.07390759 -0.09111718
000130 5f 6b 2e 3d ec 77 1f 3d 39 dd ae bd 96 90 d4 bc
       0.042582866 0.038932726 -0.085382886 -0.02594785
000140 df 00 c5 bd e7 36 83 3d ad 20 b6 bc 58 cc 8f 3d
       -0.09619307 0.06406956 -0.022232378 0.07021397
000150 9a 58 36 bc b3 47 48 3c 45 37 65 bd 08 f0 19 3d
       -0.011129523 0.012224126 -0.055960912 0.037582427
000160 e7 bb b6 bd dd c5 b4 bd fd cd 37 3c 2c 08 00 bd
       -0.08922558 -0.08826802 0.011218545 -0.031257793
000170 0b bc 91 bd 18 68 81 bd 42 f8 95 bd 2e cd 7e 3d
       -0.071159445 -0.063186824 -0.07322742 0.062207393
000180 8a 3f 56 3d 15 12 37 3d 0c 58 9a bc 14 05 0f 3d
       0.05230669 0.04469498 -0.018840812 0.034916952
000190 83 b0 55 3d b2 10 9c bd e0 df e0 bb dc da c0 3d
       0.052170288 -0.07620372 -0.0068626255 0.09416744
0001a0 3a f9 a0 3d 78 77 15 bd 1e e6 0e 3d 53 a9 c1 3d
       0.07860036 -0.036490887 0.034887426 0.09456124
0001b0 49 36 bd 3d 76 de d8 3c 64 bf ad bd ff 2b b8 3c
       0.0923887 0.026473265 -0.084837705 0.022481916
0001c0 5c c8 bb 3d 76 b7 41 bd ad e6 93 bc a5 70 58 bd
       0.09169075 -0.047294103 -0.01805433 -0.0528418
0001d0 43 92 7d bd f3 eb 11 3d 30 38 a6 bd bb 9a b4 3d
       -0.061907064 0.03562541 -0.08116186 0.08818575
0001e0 00 8f 62 bc b2 61 06 bd f1 c2 39 3d ea 2c 67 3d
       -0.013828039 -0.032808013 0.045351926 0.056439318
0001f0 6e ba af bd 4f dd 0c 3d fd fe 9c bc ab 78 86 3d
       -0.085804805 0.034390744 -0.019164557 0.06565984
000200 81 3b bb bd c5 a0 8c bd e5 25 6e bc 67 66 88 bd
       -0.09142209 -0.06866602 -0.014535402 -0.06660157
000210 98 f6 69 3d 8a c8 69 3d b9 a2 0a bd 12 8a 0f 3c
       0.057119936 0.057076015 -0.03384659 0.008760946
000220 07 39 43 39 5a 54 9f 3b fe 48 9d bc f2 cd 6e bd
       0.00018617894 0.0048623504 -0.019199844 -0.058301874
000230 ec b8 9b bd d3 e4 ac 3d 99 e1 d6 ba 41 c5 a1 3d
       -0.076036304 0.08442082 -0.0016394138 0.07898951
000240 06 36 a3 3d 20 b0 82 bd ab 67 0d bd c3 42 98 3c
       0.079692885 -0.063812494 -0.034522694 0.018586522
000250 64 d6 7a 3c c8 6b bb bd 2d 85 ae 3d b5 27 c5 39
       0.015309904 -0.09151417 0.08521495 0.00037604352
000260 8e 7b 34 bd f8 69 1b bd a5 cc 62 bd e5 20 b3 bd
       -0.044063143 -0.037942857 -0.055370945 -0.087465085
000270 82 4e eb bc d2 0c 8e bd 79 8a b4 bd e4 bd 32 3d
       -0.028723959 -0.06936039 -0.08815474 0.043638125
000280 32 ea 5d bd 16 e1 9b bd c2 f9 65 bd 30 91 19 bd
       -0.054178424 -0.07611291 -0.05614639 -0.037491977
000290 9f 3e 32 3d ea f5 37 bd 25 d4 0d 3c 5f ba 8b 3c
       0.04351675 -0.044912256 0.008656536 0.017056642
0002a0 69 8f 19 bd 0c 36 b2 3c 08 dc 70 bd f9 e8 ca bd
       -0.037490282 0.021754287 -0.05880359 -0.09907717
0002b0 79 b6 98 3c 42 ba 66 bd c0 90 33 bc cd 1b df bc
       0.018641697 -0.056329973 -0.010959804 -0.027234936
0002c0 e2 09 b1 bd cf c1 2b bc d4 a6 0c bb da ab d5 bb
       -0.08644463 -0.010483219 -0.0021461742 -0.0065207304
0002d0 3b be fa 3a bd 49 68 bd 59 c2 e6 3c 5a 3a 86 bd
       0.001913018 -0.056710947 0.028168844 -0.065540984
0002e0 22 33 a3 bd de f7 88 3d e9 6d 1d 3b 7f 3d c9 3d
       -0.07968737 0.06687902 0.002402181 0.098261826
0002f0 82 61 27 3d a4 09 93 3c ed f4 1f bd 08 88 c3 3d
       0.040864475 0.017948933 -0.03905194 0.0954743
000300 b4 50 4c bb 41 4f 64 3c 70 d5 35 bd 23 a3 31 bd
       -0.0031176032 0.013934911 -0.044393003 -0.04336847
000310 3b 37 8a bd 7f 1a ac 3d 6d 76 56 3d 0c b4 c2 bd
       -0.067488156 0.08403491 0.052359033 -0.095069975
000320 39 72 ef 3b 96 33 c4 3d 07 75 a4 3d c1 a0 71 bd
       0.0073073176 0.09580152 0.08030134 -0.058991197
000330 71 e2 56 bd ef 2c de 3b 80 7a a9 3d d7 25 4b bd
       -0.052462045 0.006780259 0.08275318 -0.049596634
000340 cd 7a 5a bd 80 cf 0c bd b5 35 78 3d 46 9d c6 3d
       -0.05333977 -0.034377575 0.060598094 0.09697966
000350 5e 9e 17 bc 35 35 5e 3c 34 c3 b9 3c bc 11 5d bd
       -0.009254066 0.01356249 0.022676088 -0.05397199
000360 4b 0a f9 bc ea 25 c2 3c af cc cb bd 6b a4 2f bd
       -0.030400416 0.02369972 -0.0995115 -0.04288141
000370 15 02 05 3d a8 20 90 bd a6 c2 9a 3d e4 2d 19 bd
       0.03247269 -0.07037479 0.075566575 -0.03739728
000380 b8 3a 16 3d 18 6d e1 3c 6a 41 72 3d dd 00 69 bd
       0.036677092 0.02751784 0.059144415 -0.05688559
000390 28 e6 79 3c 04 8e 22 bd 9d 46 90 3d c1 c2 92 bd
       0.015252627 -0.039686218 0.070447184 -0.071660526
0003a0 f8 c5 3f bd a9 20 9a 3d 99 bb 1c bd 79 2a 90 3d
       -0.046819657 0.07525761 -0.038264845 0.07039351
0003b0 5d 1c ca bb 9c 3d c4 3d 2f 0b 20 bc d0 89 76 bd
       -0.006167932 0.095820636 -0.009768291 -0.060190022
0003c0 a1 57 5b 3c 4b f5 12 bd a6 f9 8b 3d ca e1 c3 bc
       0.013387592 -0.03587846 0.06834726 -0.023911376
0003d0 73 40 c5 bd 6e 71 c0 bd cd e5 ac 3c 12 52 cc ba
       -0.09631433 -0.09396635 0.021105671 -0.0015588424
0003e0 f4 34 01 bd 74 b2 6a bd b8 d5 9f 3c dc 86 36 bd
       -0.03154464 -0.057299092 0.019511089 -0.044562206
0003f0 72 16 42 3d 2c 94 48 bd 4a 44 79 bd 93 e3 ac 3d
       0.047384687 -0.048969433 -0.06085614 0.08441844

lstm.bias_ih_l1 f4 [400]
000000 f3 3b a6 3c ef 00 2f 3d fd f2 67 3d fd f2 60 3d
       0.020292258 0.0427255 0.056628216 0.05491923
000010 58 4d 86 3d 49 e1 20 bd f5 1c e6 bc 0f 2a f7 bc
       0.06557721 -0.03927735 -0.02808998 -0.030171422
000020 c0 8e 82 3d 72 ab 81 bd 2d 45 8f bc 81 32 5c 3b
       0.06374884 -0.06331529 -0.01748904 0.0033599439
000030 ad b9 51 3d 0d 28 b4 3d dd 99 97 3d 16 94 fb 3c
       0.051202465 0.087967016 0.07402394 0.030710261
000040 02 a6 41 bd 4c d2 87 bd a9 41 bf bd d5 c3 b0 bd
       -0.047277458 -0.06631908 -0.093386956 -0.08631102
000050 40 d1 43 3d 30 df a6 3d 8a 43 80 3d ef 1b b8 3d
       0.04780698 0.081480384 0.06262882 0.08989703
000060 f4 6d bd bd 6d 2c f6 3b 39 43 85 3d 67 12 64 3d
       -0.092494875 0.00751262 0.06506962 0.055681612
000070 83 a4 90 bd b1 db 13 3d 63 71 52 bc 2e 13 28 bd
       -0.07062628 0.036098186 -0.012844416 -0.041033916
000080 1b 6b fd bc 81 f2 ab 3d f5 c1 8b 3d 29 4b 77 3d
       -0.03093486 0.08395863 0.06824104 0.060374413
000090 85 84 8b 3d 44 ad 7d 3d 02 21 63 bd 64 e2 62 bd
       0.068123855 0.061932817 -0.0554514 -0.055391684
0000a0 56 e0 ac bd 09 44 32 bd 3f 25 2a bb 5a b1 4c 3d
       -0.08441226 -0.043521915 -0.0025962142 0.049973823
0000b0 09 08 43 3c d0 d9 22 3c 9e eb b7 bd fe 93 39 3d
       0.011903771 0.009939626 -0.08980487 0.045307152
0000c0 05 2a 94 3d 5b c0 ae bd 8b d8 52 bc 86 83 48 3d
       0.07234577 -0.08532783 -0.012869011 0.048953556
0000d0 74 a6 b8 bd af 9a 8b bd c2 cb b5 bc f7 c8 cb bc
       -0.090161234 -0.06816613 -0.022191886 -0.024876101
0000e0 b5 bf 30 bd ee ac b8 bd 6c a5 ce bd 48 6c 11 b7
       -0.043151576 -0.09017359 -0.100901455 -8.667885e-06
0000f0 de 0d 10 3d 82 af 85 3d b1 a8 4a bd 83 48 d5 3c
       0.035169475 0.06527616 -0.049477283 0.026035553
000100 ac c6 db 3c 7f be 3d 3d f6 4b 00 bd 88 79 d7 3b
       0.026828133 0.04632425 -0.031322442 0.006575767
000110 64 2f ed ba 20 39 9f bd ae 7a a7 bd 0a b0 54 3d
       -0.0018095789 -0.077745676 -0.08177696 0.051925696
000120 d3 c2 91 3d 38 e8 be 3d dc 2b d5 3c da 14 c1 3d
       0.07117238 0.09321636 0.02602189 0.09427805
000130 a6 70 e9 bc a9 41 04 3b 56 8c ab 3d b4 5b 97 bd
       -0.028496098 0.0020180738 0.08376376 -0.07390538
000140 08 b0 df bc 61 84 c3 3d 60 30 25 bd 62 ce 69 bd
       -0.027305618 0.09546734 -0.040329337 -0.057081588
000150 58 d7 b1 3d d0 1c 99 3d 90 6d ea 3c c3 2d a2 bd
       0.08683652 0.07476199 0.028616697 -0.079188846
000160 4e 4b 2e bc e9 f5 9d 3c bd f2 24 bd 7e e7 a4 bd
       -0.010638071 0.019282298 -0.040270556 -0.08051966
000170 62 27 cc 3d 35 9e cc bd da 21 4f bc 69 78 11 3d
       0.09968449 -0.09991113 -0.012642348 0.035515223
000180 2d ff 9b 3d f1 c5 b7 3d ff 4b 04 3d e7 8e ac 3d
       0.0761703 0.08973301 0.032299038 0.08425694
000190 1d 2e 9f 3d 4a 0c 8c bd 2e 4b 33 bd f4 31 33 3d
       0.07772467 -0.068382815 -0.04377287 0.04374881
0001a0 d1 89 4e bd 5e fd 8b bd d6 ae 51 3d 52 d3 49 3d
       -0.0504244 -0.06835435 0.051192127 0.049273796
0001b0 82 36 8a bc 14 9d 2f bd 91 9d d8 3c 11 d3 26 3d
       -0.016871694 -0.04287441 0.026442321 0.040728632
0001c0 a2 da 57 bd 78 ed b9 bd 01 52 36 bc 02 89 52 3d
       -0.05269874 -0.09078497 -0.01112795 0.051400192
0001d0 15 3b 8a 3d 7e 4a 54 bc 4a 20 b7 3b ce a1 22 3b
       0.0674955 -0.012957213 0.005588566 0.0024815681
0001e0 d9 c8 84 ba 7c a3 87 3d 8f 22 78 3d e4 6d 96 bd
       -0.0010130658 0.06622979 0.060579833 -0.07345179
0001f0 f6 8b a7 bd 9d e5 7e 3d ea 0b b6 bd 2d 6d a4 3d
       -0.08180992 0.062230695 -0.08888991 0.08028636
000200 fe 1b 75 3d 12 9c 32 3d 15 73 b0 bc 4f 80 5b 3d
       0.05984115 0.04360587 -0.02153925 0.05358916
000210 4d 6b a5 bd c7 15 75 3d e1 81 81 3c d8 38 c9 bd
       -0.080771066 0.05983522 0.015809001 -0.09825295
000220 83 09 8f bc aa ff 92 3d 39 16 c1 3d 24 2b dc bc
       -0.01746059 0.0717767 0.09428067 -0.02687604
000230 02 60 3d 3b 49 53 1e 3d 98 d0 07 bc bf 36 54 bc
       0.0028896336 0.038653646 -0.008289479 -0.012952506
000240 63 f9 9c bd eb 93 39 bd 81 45 33 3c 3a 66 8f 3d
       -0.07664754 -0.04530708 0.010941864 0.0700192
000250 6c 16 be bd c3 6a ae 3d 4d f4 76 3b a8 5e ba bb
       -0.092816204 0.08516457 0.0037682236 -0.0056875534
000260 d9 72 c2 bd ba ad 92 3d 58 63 4c bc a1 4d af 3d
       -0.09494562 0.07162042 -0.012474857 0.085597284
000270 8f 3b 32 3d 25 1b 34 3b ec 2c c1 ba 18 81 4a 3b
       0.04351383 0.0027482 -0.0014738119 0.00308997
000280 97 00 25 bd ae d1 0a bd f8 cf 18 bd 11 6c 1e bb
       -0.040283766 -0.033891372 -0.03730771 -0.00241733
000290 64 51 ce bd 81 bf c8 bd 17 95 82 bd b6 99 76 bd
       -0.10074118 -0.098021515 -0.06376093 -0.060205184
0002a0 bf fd 88 bd 83 5f 64 3d 58 d5 0b 3b 95 24 a3 bd
       -0.06689023 0.05575515 0.002133688 -0.07965962
0002b0 c1 35 ce bd b3 ec 62 3d d1 1d 6d bd 2d 2a 26 3d
       -0.100688465 0.055401515 -0.057889763 0.040567566
0002c0 d3 a1 01 bd 83 4d 0b 3c 9f 3a 1b 3b 78 ec 4a 3d
       -0.03164847 0.008502367 0.0023686064 0.04954192
0002d0 32 36 aa bd 3e c9 17 3d f5 cb 74 bd aa 04 75 bd
       -0.08311118 0.037057154 -0.05976482 -0.0598189
0002e0 17 90 83 3d 76 15 82 bd e8 4a a7 bd 45 40 9d 3d
       0.06423967 -0.063517496 -0.08168584 0.07678274
0002f0 4a a0 c4 bd 51 96 c4 3d 88 e2 b0 3d 27 8c 11 3d
       -0.09600885 0.09598983 0.086369574 0.03553405
000300 30 2d 92 bd 9b 0e de ba c9 11 a8 3d 18 9b 85 bd
       -0.07137525 -0.0016941609 0.08206517 -0.065237224
000310 09 eb 38 3d 9f 75 43 3d d2 5e 3b 3d 18 93 83 3c
       0.045146022 0.047719594 0.045744725 0.01606135
000320 c6 67 a7 3d b8 8a 71 3d ed 24 b4 bc cd 27 ca 3d
       0.0817409 0.058970183 -0.021990264 0.09870873
000330 1b b5 31 bd 10 ba 8d 3d 87 3b 2e bd 58 59 50 bc
       -0.043385606 0.06920254 -0.04253724 -0.012716614
000340 bf ad a1 bd b6 32 07 3d d4 77 5c 3d b3 bd ae 3c
       -0.078944676 0.033007346 0.053825215 0.02133069
000350 ef 36 53 3d a6 94 36 bd ae 89 da bc d3 9f 80 3c
       0.05156606 -0.044575356 -0.026676979 0.01570121
000360 40 ee df 3c 62 c9 f8 bc 22 3a a1 3b 26 54 d2 bc
       0.027335286 -0.030369464 0.00492026 -0.02567489
000370 d9 5b 40 3d 2b ef c7 bd c2 22 c4 bc c7 69 69 bd
       0.046962593 -0.097624145 -0.023942355 -0.056985643
000380 fd 36 a2 3c 96 f0 b3 bc 76 f6 d2 3c cb aa f1 bb
       0.019801611 -0.021965306 0.025752287 -0.0073750964
000390 de 22 5f bd c7 94 94 3d ae ca 9e 3d bc 14 08 bd
       -0.05447661 0.072549395 0.07753502 -0.0332229
0003a0 46 8c 16 bb 75 f0 0f 3d 5f 0d 8c bc 39 7b e2 3a
       -0.0022971793 0.035141427 -0.01709622 0.0017279155
0003b0 63 6b 22 3c c6 f9 b0 bc 88 de 04 3c 93 d7 80 bd
       0.009913298 -0.021603476 0.008109696 -0.062911175
0003c0 3b 0f fc bb 95 55 7c 3d 0e 56 16 bd 02 41 c6 3b
       -0.0076922453 0.061605055 -0.036703162 0.00605023
0003d0 3f 47 5a 3d 28 f9 87 bc ad 8d c1 bc 1a 89 f0 b9
       0.0532906 -0.0165983 -0.023627127 -0.00045878516
0003e0 e4 d9 6f bd 01 9b 1d bc d9 54 4c bd 89 a7 fb bc
       -0.058557406 -0.009619475 -0.049885605 -0.030719535
0003f0 dd 95 46 bd 21 f3 86 bd 93 b9 52 3c ad b7 7a 3d
       -0.048482765 -0.06589342 0.012861627 0.061210323
