Experiments/2021-01-29 12:26:13.012512/model.pt (torch, 11675 bytes, 10 tensors)

emb_e.weight f4 [86, 20]
000000 ca ab ac bd f0 83 d0 be 54 91 69 3f 8b 9d bc be
       -0.08431204 -0.4072566 0.9123738 -0.36838946
000010 d0 a7 25 bf a5 7a 98 be ad a1 3f 3f f8 b4 8a bf
       -0.64709187 -0.2978107 0.7485607 -1.0836477
000020 b1 37 3b 3f 61 50 e7 be 92 7e 03 3f 1e 59 3e 3f
       0.73131853 -0.45178512 0.51365006 0.7435473
000030 bd 38 cb 3e 9a a9 2d 3f ed 57 c6 3e 6d e9 04 bd
       0.39691725 0.67836916 0.38738957 -0.032449175
000040 c6 88 73 bf 15 aa 18 3f 52 99 c1 3e d0 56 7c 3e
       -0.95130575 0.59634525 0.37812287 0.24642491
000050 c5 0a 7b bf 53 ad ad be a3 b2 27 3f c7 c4 f7 be
       -0.9806331 -0.33921298 0.65506953 -0.48392317
000060 d9 2b 4a bf 05 26 c6 be 31 48 2f 3f 3b 5f f0 be
       -0.78973156 -0.38700882 0.6846953 -0.46947655
000070 93 af e7 3e cd fb 7d bf 53 41 71 be cd 8b 97 3e
       0.4525114 -0.9921234 -0.23560075 0.29598847
000080 7a 2f 0d 3f 04 b3 64 3e 14 2b 6a be 0a 6e 0c bf
       0.5515057 0.22333914 -0.22867996 -0.54855406
000090 83 6a b9 be be 34 3c 3e 23 86 49 3f c3 13 d4 3e
       -0.36214074 0.18379495 0.787203 0.41421327
0000a0 3a 92 34 be f6 59 9f bf 89 18 57 3e 48 e0 51 bf
       -0.17633906 -1.2449329 0.21005453 -0.8198285
0000b0 1c 0e 25 3c fa bd 81 be ea 06 3e 3f aa 12 fa 3c
       0.010074165 -0.25340253 0.742293 0.030526478
0000c0 66 23 25 3f 26 a8 44 bf e1 0a b3 3e e2 7a 51 3f
       0.6450714 -0.76819074 0.34969237 0.8182813
0000d0 7c d9 2b 3f db 03 0e 3f b1 3e 36 be 63 32 7c 3e
       0.6712873 0.5547463 -0.17797352 0.24628596
0000e0 e3 8e a6 be ec c0 92 3e e9 d1 b6 be c9 ff e6 3e
       -0.3253089 0.28662813 -0.35707024 0.45117024
0000f0 52 1a 3b bf 5e f6 b3 be eb 41 76 3f 30 a7 b6 be
       -0.73087037 -0.351489 0.9619433 -0.3567443
000100 f9 dc 21 be ff c4 95 be 6c 45 30 3f fb 27 d5 be
       -0.1580695 -0.2925186 0.6885593 -0.41632065
000110 12 ca 31 3f 10 d4 32 bf 6f 3f 6d 3e 51 9a e1 3e
       0.6944896 -0.6985483 0.23168729 0.44063047
000120 63 cd ba 3e 53 b1 1d 3f 68 92 f0 3d 64 0f e3 3c
       0.36484823 0.615987 0.11746675 0.0277173
000130 a8 b3 49 bf c3 29 b8 3e 73 ab d4 3e 4a 66 58 3e
       -0.7878976 0.35969362 0.41537055 0.2113277
000140 69 0d cf bc b9 17 00 bf d6 22 c1 be 4a e2 2b be
       -0.02527495 -0.500362 -0.3772189 -0.16785541
000150 98 0c 28 bf 50 32 a7 be e4 4c 83 3f 37 f4 3e bf
       -0.65644217 -0.32655573 1.025784 -0.7459139
000160 77 73 21 3f 3d 04 63 be 7f 67 b2 bd af 0d 53 3f
       0.6306681 -0.22169586 -0.087111466 0.82442755
000170 69 d1 49 3f e5 7a 83 3d 35 82 0d bf a1 04 6e bf
       0.7883516 0.06419925 -0.55276805 -0.92975813
000180 7d 49 e0 be 0f 22 de 3b af de 91 3f a3 c5 d4 3e
       -0.43806067 0.0067789624 1.1396083 0.41557035
000190 44 7e 3d bf c6 8a 87 be db df 6c 3f aa 04 95 be
       -0.7402079 -0.26473063 0.92529076 -0.2910512
0001a0 b4 14 dc be 33 8d 3b be 67 ce c3 3e 66 be 3e bf
       -0.42984545 -0.18315582 0.3824341 -0.74509275
0001b0 b4 72 85 3f cf f8 9f be b2 6f 03 3e 3d 0f 37 3f
       1.042563 -0.31244513 0.12835577 0.71507627
0001c0 7d 75 65 3f a7 2c 8c 3e 9e a6 a6 3d b6 6f bc be
       0.896324 0.27377817 0.081372485 -0.3680398
0001d0 04 59 3b be 87 99 cf 3e 2b f6 c0 3e 04 69 23 3f
       -0.18295676 0.4054682 0.3768781 0.63832116
0001e0 23 b6 a6 be 06 d3 90 be f0 9e 83 3f 09 c5 e1 be
       -0.32560834 -0.28285998 1.0282879 -0.44095638
0001f0 00 99 22 bf 3c 18 60 be 43 c8 d0 3e b7 85 34 bf
       -0.6351471 -0.21884245 0.40777788 -0.7051653
000200 12 a8 90 3f 53 80 b9 be ed 6b 05 3e 82 a5 a1 3d
       1.1301291 -0.36230716 0.13029452 0.07892896
000210 c8 95 70 3f 5e 04 b0 3e 36 61 da 3c f0 da fd be
       0.9397855 0.34378332 0.026657682 -0.495811
000220 9c fe b2 bd 3a 42 ca 3e 29 3b e6 3e fd 40 28 3f
       -0.08739969 0.39503652 0.4496701 0.65724164
000230 36 42 10 bf 2e 19 08 bf cc 33 9f 3f 55 34 11 3d
       -0.5635103 -0.5316342 1.2437682 0.0354503
000240 7b 97 dc be 1a f6 3b bf f1 85 9f 3e 68 e8 69 be
       -0.4308432 -0.73422396 0.31156877 -0.22842562
000250 3b 6d 21 3f 10 40 45 bf 81 32 dc be 2e d7 35 3f
       0.630573 -0.77050877 -0.4300728 0.71031463
000260 f4 48 93 3e 22 47 00 bd 53 f2 77 be bb 08 58 be
       0.28766596 -0.031317838 -0.24213533 -0.2109708
000270 4d 77 af be b4 bc c1 3e 0e 1e b4 3e c3 94 45 3e
       -0.34270707 0.37839282 0.3517918 0.1929503
000280 66 39 5e be 56 72 8d bf c6 fc 33 be 8b b5 4f be
       -0.21701583 -1.1050518 -0.17576894 -0.20284097
000290 94 6d 78 bf 04 2e bb 3e c5 f2 88 bc 23 57 42 bf
       -0.970422 0.36558545 -0.016717324 -0.7591421
0002a0 40 ac 09 3e 10 bb a2 be c8 ee de 3d 7f 65 62 3f
       0.13444614 -0.31783342 0.10885388 0.8843612
0002b0 8f cd 0f 3f 07 92 34 3f d4 cd 15 bf 35 7a 00 bd
       0.5617303 0.7053532 -0.58517194 -0.031366546
0002c0 97 4a 96 bf 13 12 16 3f cc 48 36 3f a9 68 9c 3e
       -1.1741513 0.5862133 0.7120483 0.305486
0002d0 67 b3 e2 be 3d 11 13 bf 1d be b2 3f cb 57 40 bf
       -0.44277498 -0.5744818 1.3964268 -0.7513396
0002e0 c5 82 da be 3d 55 44 bf ad 06 d1 3e bc 0d 96 be
       -0.42677894 -0.76692563 0.40825406 -0.29307353
0002f0 16 e1 32 3f 0d b8 53 bf d0 8c 0b bf f4 f9 24 3e
       0.69874704 -0.82702714 -0.5451174 0.16110975
000300 95 f6 31 3e 7b 90 60 3d 4d 57 a5 be b1 7a d2 be
       0.1737922 0.054825287 -0.32293168 -0.4110923
000310 f3 ff 81 be 4d 60 d5 3e fd 3f fe 3e db ee 30 3e
       -0.25390586 0.41675034 0.49658194 0.17278616
000320 27 4f 2e bf 82 cc 04 bf 4d 82 8b 3f d8 dc 61 3e
       -0.68089527 -0.51874554 1.089914 0.22056901
000330 5a 18 6a bf f6 89 95 be 83 37 ce 3c dc f9 46 bf
       -0.9144341 -0.29206818 0.025172954 -0.77725005
000340 3d 45 1a 3e 50 d2 99 be e0 df e9 3b a2 a6 eb 3e
       0.15065475 -0.30043268 0.0071372837 0.46025568
000350 c8 93 a0 bd 68 de f2 3e 98 6f c1 be bf bd 93 be
       -0.07840687 0.47435308 -0.37780452 -0.28855702
000360 e9 cc e2 be 58 a8 22 3f 96 98 42 3f 10 7d ea 3e
       -0.4429696 0.6353812 0.7601408 0.4579854
000370 f3 4f 04 bf 89 4e db be eb 87 56 bd 87 c4 8d bf
       -0.5168449 -0.42833355 -0.052375715 -1.10756
000380 68 af 63 bf 77 e1 8e 3e 00 6a 67 bd 14 0c fb be
       -0.88939524 0.2790639 -0.056497574 -0.49032652
000390 09 cb cb bd 1a f3 cd bd 93 07 0f 3d 22 b0 1c 3f
       -0.09950835 -0.100561336 0.034919333 0.6120626
0003a0 79 4b b2 bd a1 b9 0b 3f 2a 71 e3 be b0 1a d8 be
       -0.087058015 0.5458012 -0.44422275 -0.4220786
0003b0 91 85 a3 be 7f 26 2c 3f e1 fd 66 3f 17 f9 12 3f
       -0.3193784 0.6724624 0.9023114 0.5741133
0003c0 ef ec b0 be 3e 93 3e bf 44 68 5c 3f 55 05 25 bf
       -0.34555766 -0.74443424 0.86096597 -0.6446126
0003d0 10 5c 93 be 16 6b 3a bc 25 92 67 3d 8b ad 47 be
       -0.28781176 -0.01137807 0.05653586 -0.19499795
0003e0 74 27 54 3f 86 ef c6 3e 47 6b 4e 3f 6d 92 95 3e
       0.828727 0.38854617 0.8063244 0.29213277
0003f0 f9 d3 69 3f 06 b7 15 3f aa b4 ec be 0a 53 01 bf
       0.9133907 0.58482397 -0.46231586 -0.5051733

emb_rel.weight f4 [3, 20]
000000 83 1f 25 be d0 7f 5c 3d 3a 5f 56 bf 4f 66 36 be
       -0.16125302 0.05383283 -0.83739054 -0.17812465
000010 9f 8c d9 be ed a6 02 bd d7 1a 3a 3f 21 37 09 bf
       -0.42490098 -0.031897474 0.72697204 -0.53599745
000020 d9 62 4a be fe 1a 55 bf 8e 26 c5 3e cf 2d 9c 3d
       -0.1976427 -0.8324431 0.38505977 0.07625925
000030 6e fa 43 3e df fc 7d 3e c1 01 cc 3e 38 81 71 3e
       0.191385 0.24803494 0.39845088 0.2358445
000040 b6 af 3d be 5a f9 1b bf 9c ee 08 bf 5d b1 ad bd
       -0.1852406 -0.60927355 -0.5348909 -0.08481095
000050 d2 80 1d 3d 81 ce 44 3e e9 c2 6f 3e f5 e7 dc 3d
       0.03845293 0.192194 0.23414196 0.1078643
000060 96 30 40 bf cb 04 ee be 4d 04 4a bf 57 4a 2b bc
       -0.75074136 -0.46488032 -0.7891281 -0.010454736
000070 31 df 2e bf dd ec a6 3e 6e 6b 28 3c 9c ca c3 3e
       -0.68309313 0.32602587 0.0102795195 0.38240516
000080 a4 4f 80 3e 9b 4e cf be 5f ac ea bc f2 2e bc 3b
       0.2506076 -0.4048966 -0.028646646 0.005742901
000090 71 54 f2 bd 84 7d 9a bf f3 89 70 bf 4a cb f4 3d
       -0.11832512 -1.2069554 -0.93960494 0.11952837
0000a0 63 4c 7c 3d 90 21 04 bf ef 73 6b be 37 9a 43 bd
       0.061596286 -0.5161371 -0.22993444 -0.047754493
0000b0 39 5f be bd 1e 81 cb 3b e0 a3 0c 3f 88 2c ed 3d
       -0.09295506 0.0062104603 0.54937553 0.11580759
0000c0 e1 22 04 be 1b 2c 78 3d 0e 93 2f be 44 f8 f4 3d
       -0.1290393 0.060588937 -0.1714594 0.119614154
0000d0 e5 21 bd bd 1d 3d 8d 3e cc 7b 19 bf 77 eb 96 bd
       -0.092349805 0.27585688 -0.59954524 -0.0736913
0000e0 66 6d 0a bf 13 92 d2 be 08 48 ef be 5a 2e a8 be
       -0.5407318 -0.4112707 -0.46734643 -0.32847863

bn0.weight f4 [20]
000000 60 7e d8 3f be 17 df 3f 48 e9 ec 3f a0 93 eb 3f
       1.6913567 1.742912 1.8508692 1.8404427
000010 b5 df e8 3f 9c 36 03 40 30 6b 05 40 e3 f5 ee 3f
       1.819327 2.050208 2.0846672 1.8668789
000020 8d 33 fe 3f 89 3c 02 40 05 99 fa 3f 6e 46 00 40
       1.9859482 2.0349448 1.9577948 2.0042987
000030 37 1a e7 3f 8d 0b 02 40 b5 90 f3 3f 42 e8 f4 3f
       1.8054875 2.031955 1.9028536 1.913338
000040 0d 3f eb 3f 07 a4 05 40 0b 0b 06 40 8a 83 da 3f
       1.8378617 2.0881364 2.094424 1.7071393

bn0.bias f4 [20]
000000 14 bb df bf 53 cf 8d 3f 05 ec 07 c0 1c 93 bf bf
       -1.7478967 1.1078895 -2.1237805 -1.4966769
000010 bb 8c 30 3f dc d6 11 3f 23 5f 48 3f e4 fa 92 3f
       0.6896474 0.56968474 0.7827017 1.1482816
000020 aa 28 3e bf 05 c0 a3 3f ce e7 41 3f 47 b5 19 40
       -0.742808 1.2792975 0.7574433 2.4016893
000030 3d a1 7d bf d2 08 97 be f9 24 33 bf f7 0a 5c bf
       -0.99074155 -0.29498917 -0.6997829 -0.8595423
000040 29 c0 68 3f b9 e7 28 3f d6 47 24 3f b2 d4 7d bf
       0.90918213 0.6597858 0.6417211 -0.9915267

bn0.running_mean f4 [20]
000000 c3 2b 01 bf 73 e8 d7 be 8d 47 05 3f a4 f1 ea be
       -0.504574 -0.42169532 0.520623 -0.45887482
000010 ee a2 ac be b7 78 98 be 11 6f c5 3e cf fb cb be
       -0.33718055 -0.29779598 0.385613 -0.39840552
000020 f7 31 7e 3e be 00 e0 be aa 62 9c 3e d4 12 25 3f
       0.24823748 -0.43750566 0.30544025 0.64481854
000030 0f 00 e3 3e 17 ee 6d 3e 66 cf a6 be 1a 09 c2 be
       0.44335982 0.23235355 -0.32580107 -0.3789757
000040 43 36 d7 be 9e 95 e6 3e 24 8c b2 3e fc 6a d5 3e
       -0.42033586 0.45036024 0.34872544 0.41683185

bn0.running_var f4 [20]
000000 83 cb 67 3d 19 39 ae 3d b1 69 4a 3e 05 a3 b9 3d
       0.05659057 0.08506984 0.1976688 0.09064297
000010 d6 d7 1f 3e 4a dd 38 3e 54 97 17 3e ad 8d 36 3e
       0.15609679 0.18053165 0.14803821 0.17827483
000020 72 cf 4b 3e c7 a7 0e 3e c6 5b ca 3d 38 f6 9f 3d
       0.19903353 0.1393119 0.09880786 0.078106344
000030 83 d2 c3 3d b0 cb 62 3e 56 ec ab 3d d4 eb dd 3d
       0.09561636 0.22148013 0.08394687 0.10835996
000040 92 64 af 3d e6 ea 3c 3e 7b 67 4f 3e cc 7e 3f 3d
       0.08564104 0.18448982 0.20254318 0.046751782

bn1.weight f4 [20]
000000 48 36 be 3f 04 fe d6 3f 44 ff ce 3f 2f bb ca 3f
       1.4860315 1.679627 1.6171651 1.5838374
000010 65 60 e6 3f 8c 7b 07 40 35 a7 ff 3f 94 07 e2 3f
       1.7998167 2.1169157 1.9972903 1.7658563
000020 8f 19 01 40 a5 ea e1 3f 92 82 f0 3f 46 34 c5 3f
       2.017185 1.7649733 1.8789847 1.5406578
000030 94 b9 d1 3f 0d 5d 0c 40 84 20 e5 3f 95 53 ee 3f
       1.6384759 2.1931794 1.7900548 1.8619257
000040 76 87 d9 3f eb 59 04 40 b5 2a 06 40 f1 24 d7 3f
       1.6994464 2.0679882 2.0963566 1.6808149

bn1.bias f4 [20]
000000 1b 8b a8 bf ab 69 84 3f 54 52 e3 3f 4e 24 97 bf
       -1.3167452 1.0344747 1.77595 -1.1807954
000010 07 8f 36 3f fc ed 1f 3f e4 23 63 bf 23 49 93 3f
       0.7131199 0.6247251 -0.8872664 1.1506695
000020 80 b9 38 3f 01 71 b6 3f db 59 7f bf bd 53 d5 bf
       0.7215805 1.4253236 -0.99746484 -1.666618
000030 bf cb 88 3f 0e 99 17 3f 8c 92 8b bf 46 4c 77 bf
       1.0687178 0.5921792 -1.0904098 -0.9660076
000040 c6 1d 83 3f dc 2c 3d bf 93 5b 32 bf b4 a4 6e 3f
       1.0243461 -0.73896575 -0.6967098 0.9322007

bn1.running_mean f4 [20]
000000 2e 54 27 3c d5 d8 14 be 01 5f 33 be cf 51 7c bc
       0.010212941 -0.1453584 -0.1751671 -0.015400364
000010 ff 9e cc be d2 35 33 be e0 a9 b6 3d 3c 13 66 bd
       -0.39965054 -0.17501 0.0891912 -0.056170687
000020 97 87 b1 be 48 a0 55 bc ca 17 2f 3b be 2d 55 3e
       -0.3467376 -0.013038702 0.002671706 0.2081823
000030 23 1e b6 3d 56 85 9d 3c b8 8d 49 be 5b 80 79 3c
       0.08892467 0.019228619 -0.19682968 0.015228356
000040 77 f1 a1 be 4b 32 3e bf e7 95 27 bf 86 52 ee bd
       -0.31629536 -0.7429549 -0.6546311 -0.11636834

bn1.running_var f4 [20]
000000 ec a5 ea 3b 5a 0f e3 3d eb 0e 18 3e a5 27 38 3c
       0.0071608927 0.110869125 0.14849441 0.011239921
000010 a7 4f b3 3d a8 cf 4b 3d c1 26 eb 3e 92 6b 6f 3d
       0.08755427 0.049758583 0.45928004 0.058452196
000020 80 f8 89 3d ec 74 33 3e e5 04 2b 3d 00 f1 94 3c
       0.06736851 0.17525071 0.041752715 0.018181324
000030 8a 47 d7 3c 28 7c d9 3d e0 68 1a 3e f8 2b 54 3c
       0.02627923 0.10619384 0.15079069 0.012949936
000040 e7 99 24 3d 90 77 07 3e 3b bc 46 3d a1 39 27 3d
       0.040185835 0.13229203 0.048519354 0.040826444
