KGs/carcinogenesis/model weights/CNN_{_in_height_ 201, _inp_width_ 40, _kernel_h_ 11, _kernel_w_ 5, _out_size_ 4}_.pt (torch, 266288 bytes, 12 tensors)

conv2d.0.weight f4 [4, 1, 11, 5]
0	0x3d358ab0	0.044321716
1	0x3d77f4ae	0.06053608
2	0xbdad9b4d	-0.08476887
3	0x3d9e511e	0.077303156
4	0x3c71b172	0.014751779
5	0xbda0715a	-0.0783412
6	0x3c832822	0.016010348
7	0x3dbb929e	0.091588244
8	0xbd4791d9	-0.048723076
9	0xbc43c1d1	-0.011948065
10	0xbe05077f	-0.12991141
11	0xbccec808	-0.025241867
12	0x3b829f30	0.003986262
13	0x3dd1b06b	0.10238727
14	0x3d82e859	0.06391973
15	0xbdcfd0a1	-0.10147215
16	0x3c134bd9	0.008990251
17	0x3e015eb4	0.12633783
18	0x3e00d6f9	0.12582006
19	0x3d705fff	0.0586853
20	0xbd7c168a	-0.061544932
21	0x3e098db9	0.13432969
22	0xbc770772	-0.015077459
23	0x3c094a3c	0.008379515
24	0x3d518e9f	0.051161405
25	0xbe09a018	-0.13439977
26	0x3dc7fad7	0.09764641
27	0xbdab822d	-0.083744384
28	0xbd161f7a	-0.036651112
29	0x3da596dd	0.080854155
30	0xbd2adb9a	-0.041713335
31	0xbd8bc628	-0.06824905
32	0xbd993633	-0.07481041
33	0x3d67989c	0.056542024
34	0xbdaec59f	-0.08533787
35	0x3d11ca91	0.035593573
36	0x3d903bdb	0.070426665
37	0xbdb48ff4	-0.088165194
38	0xbd893ece	-0.06701432
39	0x3d84cd90	0.064845204
40	0xbc47dfac	-0.012199324
41	0x3dcb4921	0.099260576
42	0x3c7d4e17	0.015460513
43	0x3d7463b1	0.059665386
44	0x3c152a10	0.009104267
45	0xbdc85e1b	-0.09783574
46	0x3dce04ea	0.10059531
47	0x3dfcd425	0.12345151
48	0xbd867120	-0.06564546
49	0x3ba3bf54	0.0049971733
50	0x3dc4effc	0.09616086
51	0x3da99d28	0.08281928
52	0x3ba826c7	0.0051315757
53	0xbce36d39	-0.027762042
54	0x3d299c02	0.041408546
55	0x3cec9a23	0.028882092
56	0xbdc0704e	-0.093964204
57	0x3da0e1fe	0.078556046
58	0x3e0b7af1	0.13621117
59	0xbda1177b	-0.07865807
60	0xbd1bf9d9	-0.03808007
61	0x3d125225	0.03572287
62	0x3db9e290	0.090764165
63	0x3d34206b	0.04397623
64	0xbd61251e	-0.05496704
65	0x3daeed8b	0.085414015
66	0x3d646741	0.055762533
67	0x3d8867a4	0.06660393
68	0xbd0b54cb	-0.03401641
69	0x3d16ae49	0.036787305
70	0x3a7b550a	0.0009587562
71	0x3d9788fa	0.07399173
72	0xbdd106c5	-0.10206369
73	0xbd059694	-0.032614306
74	0xbdbd25ac	-0.09235701
75	0x3d5f2744	0.054480806
76	0x3d9280da	0.07153483
77	0x3db37dfd	0.08764265
78	0x3d6dbfca	0.058044232
79	0x3d41a4a4	0.047276154
80	0x3cd36aab	0.0258077
81	0x3c878d49	0.016546862
82	0x3d270bb1	0.040782634
83	0x3cafcbf9	0.021459566
84	0x3b07e43c	0.0020735404
85	0xbddbd8ab	-0.107346855
86	0xbd744af8	-0.05964181
87	0xbd6a53f5	-0.057208974
88	0x3e0400ab	0.1289088
89	0x3cddffbf	0.027099488
90	0xbe0a4a13	-0.1350482
91	0x3d63482e	0.055488758
92	0xbd95cfc4	-0.07315019
93	0xbd78f7e9	-0.0607833
94	0x3d23338c	0.03984408
95	0x3d914d09	0.070947714
96	0x3da8b682	0.082379356
97	0xbb80c7fb	-0.0039300895
98	0x3aa9869d	0.0012933795
99	0x3de1ff8b	0.11035069
100	0xbdb6fb08	-0.08934599
101	0x3dbbdc5a	0.09172888
102	0xbd99c426	-0.075081155
103	0xbdef3705	-0.11680416
104	0x3d81c76a	0.06336863
105	0xbddca08a	-0.10772808
106	0x3d435181	0.04768515
107	0xbdcb4fd5	-0.09927336
108	0xbdf5f52b	-0.12009653
109	0xbccc586a	-0.024944503
110	0x3de21ea9	0.11041004
111	0x3d958b77	0.073019914
112	0xbdffc89a	-0.124894336
113	0xbd0f23d5	-0.03494628
114	0x3d1eb85b	0.038750034
115	0x3e16fb62	0.14744332
116	0xbd7cd350	-0.06172496
117	0xbcb22313	-0.02174524
118	0x3d4e8bba	0.050426222
119	0x3cb1f6e9	0.021724181
120	0xbd629934	-0.055321887
121	0x3c9a18e6	0.0188107
122	0xbdc3e471	-0.09565056
123	0x3cf57d72	0.029967044
124	0x3dd67db3	0.10473194
125	0xbcc2fdd0	-0.023802668
126	0x3d362156	0.044465385
127	0x3de8f829	0.11375458
128	0x3dce76ba	0.10081239
129	0x3df5e1af	0.12005936
130	0xbdec10df	-0.115266554
131	0x3d9d4da5	0.07680825
132	0xbd82b805	-0.06382755
133	0xbbf9f1d6	-0.007627706
134	0xbc8aa8a4	-0.016926117
135	0xbd97f627	-0.07419997
136	0xbe0e33f2	-0.13887003
137	0x3d778294	0.060427263
138	0xbcf20eb4	-0.029548027
139	0x3dde4de5	0.10854701
140	0x3d0850e3	0.033280265
141	0xbd90cbee	-0.070701465
142	0x3c0855ea	0.008321265
143	0xbd8038e2	-0.062608495
144	0xbdc5109a	-0.09622307
145	0xbbd8d354	-0.006616989
146	0xbe180218	-0.14844549
147	0xbd2db166	-0.04240551
148	0xbc53149e	-0.0128833335
149	0x3dd427c3	0.103591464
150	0xbd6862e7	-0.056734946
151	0x3daff4aa	0.08591588
152	0xbd9665fb	-0.0734367
153	0xbd3d1c63	-0.04616965
154	0xbd7cb817	-0.061699
155	0x3d9fdc5c	0.07805702
156	0xbdb55e99	-0.08855934
157	0x3e02a63e	0.12758729
158	0xbd860adf	-0.06545042
159	0x3d2c9756	0.042136513
160	0xbdca2a02	-0.098712936
161	0x3da849ef	0.08217227
162	0x3dc9586a	0.09831317
163	0xbd361b51	-0.044459645
164	0x3dbc9335	0.09207765
165	0x3d7bcf54	0.06147702
166	0xbdbbce99	-0.09170265
167	0xbdeaf2ca	-0.114720896
168	0x3d9e5e73	0.077328585
169	0xbdc4cede	-0.09609769
170	0x3e0815af	0.13289522
171	0x3da9d0fa	0.08291812
172	0x3c940b5b	0.018071821
173	0xbd9f171c	-0.0776808
174	0x3d91a5d9	0.07111711
175	0x3da2d608	0.079509795
176	0xbc019111	-0.007908122
177	0x3dbe8895	0.09303395
178	0x3d003e86	0.031309627
179	0xbd7039dd	-0.058648933
180	0x3bf3b079	0.0074368087
181	0x3d202ef7	0.03910729
182	0xbcd0cd1f	-0.025488434
183	0xbd76b96a	-0.06023542
184	0xbd76dab6	-0.060267173
185	0xbdec5df2	-0.11541356
186	0xbc4ec36a	-0.0126198325
187	0xbdd9b7e5	-0.10630778
188	0xba759f59	-0.0009369753
189	0x3b99e852	0.004696884
190	0x3d3b9255	0.04579385
191	0x3d7618cc	0.060082242
192	0xbcb267a4	-0.021777935
193	0xbdf2794b	-0.11839541
194	0x3db42688	0.08796412
195	0x3d9697cb	0.07353171
196	0x3d75c312	0.060000487
197	0x3ddfa6f1	0.109205134
198	0x3d61cf31	0.055129234
199	0x3dc1046b	0.09424671
200	0xbc82cd1b	-0.015966943
201	0x3dcf6726	0.10127096
202	0x3cf6a020	0.03010565
203	0x3db25c87	0.087090544
204	0x3dbe6e2c	0.09298357
205	0xbd5215d1	-0.051290337
206	0x3dace0c6	0.0844131
207	0xbbc868c5	-0.006116005
208	0x3de37cb5	0.1110777
209	0x3d498222	0.04919637
210	0x3d09a561	0.033604983
211	0xbdb02631	-0.086010344
212	0x3d65214d	0.05593996
213	0xbc416968	-0.011804916
214	0x3d237050	0.03990203
215	0xbd6229ef	-0.055215772
216	0x3cacf588	0.021113172
217	0x3da97d0f	0.08275806
218	0x3d690c46	0.05689647
219	0xbdb265ce	-0.08710824

conv2d.0.bias f4 [4]
0	0xbddcb0af	-0.10775887
1	0xbd6cfb96	-0.05785712
2	0x3db5f0d6	0.088838264
3	0xbdcd3f36	-0.10021822

conv2d.2.weight f4 [2, 4, 9, 3]
0	0xbd98edfc	-0.07467267
1	0xbd8a3738	-0.067488134
2	0xbc7fb9b3	-0.015608239
3	0x3b11b7d8	0.0022234824
4	0x3d3e5259	0.04646525
5	0x3cbdc2bd	0.023164148
6	0xbd23e188	-0.040010005
7	0xbcb37d2a	-0.021910269
8	0x3d88f07c	0.06686494
9	0xbd092c30	-0.033489406
10	0xbdd80303	-0.105474494
11	0xbcff9054	-0.03119675
12	0x3b9e7949	0.0048362357
13	0xbdb6f471	-0.08933342
14	0x3d347881	0.044060234
15	0xbdc4e4b5	-0.09613935
16	0xbc2d6f4d	-0.010585618
17	0xbd0d6d1b	-0.03452788
18	0x3cc85b53	0.02445761
19	0xbdb2fdce	-0.08739816
20	0xbcd54a43	-0.026036387
21	0xbc5e505b	-0.013568963
22	0x3c9c213c	0.019058816
23	0x3d55db80	0.052211285
24	0xbc3b251a	-0.01142242
25	0xbda6b96e	-0.08140837
26	0xbd4c74ea	-0.049916185
27	0x3d0faef5	0.03507896
28	0x3d8dfaa5	0.06932572
29	0xbdbe0d49	-0.09279878
30	0xbc917e7e	-0.017760511
31	0xbda5b942	-0.08091976
32	0xbdafdfa7	-0.0858758
33	0xbd23e5a0	-0.04001391
34	0xb9d2892c	-0.00040156522
35	0xb8a235b6	-7.7347664e-05
36	0x3d019797	0.031638708
37	0x3d8ac787	0.06776338
38	0x3d6cb77d	0.057792176
39	0xbcc6b6cd	-0.024257088
40	0x3d40bf73	0.04705758
41	0xbca98140	-0.020691514
42	0x3deb15a4	0.11478737
43	0x3d893b69	0.06700785
44	0xbc99b896	-0.018764775
45	0x3d097141	0.033555273
46	0xbd2b1fbb	-0.041778307
47	0xbcb13e10	-0.021636039
48	0x3bd0eccb	0.006375884
49	0x3d71b4a1	0.05901015
50	0x3c33f0cf	0.010982706
51	0x3d613971	0.05498642
52	0x3d366867	0.04453316
53	0x3d9f293b	0.07771536
54	0xbd38d956	-0.045129143
55	0xbd9eb712	-0.07749762
56	0xbd094e9d	-0.033522237
57	0x3c82e6cf	0.015979199
58	0xbcf47a00	-0.02984333
59	0x3d5c5a1a	0.053796865
60	0xbd3df315	-0.0463744
61	0xbc8771fb	-0.016533842
62	0xbd60510f	-0.054764803
63	0x3d86f9ab	0.06590589
64	0x3d90a58e	0.07062827
65	0x3ce60569	0.028078752
66	0xbd851312	-0.06497778
67	0x3d981748	0.074263155
68	0xbdaa6d3e	-0.083216175
69	0x3d2f9c1f	0.042873498
70	0x3c3609df	0.011110752
71	0x3d9b2a12	0.07576384
72	0xbd1441fd	-0.036195744
73	0xbd6f2dc7	-0.058393266
74	0xbc7cb46b	-0.015423874
75	0xbcfb21ac	-0.030655704
76	0xbd9c13c7	-0.0762096
77	0x3d1a8673	0.037725877
78	0x3c016f94	0.007900137
79	0xbd558ff0	-0.052139223
80	0x3ca9e8f8	0.020740971
81	0x3d9d5e57	0.076840095
82	0x3cff94b8	0.031198844
83	0x3da15463	0.078774236
84	0xbd0ad696	-0.03389605
85	0x3d3a1ea7	0.04543939
86	0x3c4cfccd	0.012511444
87	0xbd0ef3cd	-0.034900475
88	0x3c3be004	0.011466984
89	0x3d379cc6	0.044827245
90	0x3d7f8573	0.062383126
91	0xbd922ec0	-0.07137823
92	0xbce999c8	-0.028515711
93	0xbde2f6a1	-0.11082197
94	0xbd65aba5	-0.056071896
95	0xbd161da8	-0.036649376
96	0xbd986d64	-0.074427396
97	0x3bac8726	0.0052651344
98	0xbd403fb5	-0.046935756
99	0x3c2c406d	0.010513407
100	0xbd0e207c	-0.03469895
101	0x3d1b4d72	0.037915654
102	0xbda8073f	-0.08204507
103	0x3afdc7e9	0.0019361946
104	0xbd59f750	-0.05321437
105	0xbc8967d1	-0.016773136
106	0xbd7966e7	-0.06088915
107	0x3db75f9b	0.08953782
108	0xbde661e6	-0.112491414
109	0x3d513959	0.05108008
110	0xbdbaef25	-0.091276444
111	0xbd6da3c1	-0.058017496
112	0x3dacb77c	0.08433434
113	0x3d627b48	0.05529335
114	0xbdb30aa9	-0.08742268
115	0x3d65d454	0.056110695
116	0x3b358c93	0.0027702197
117	0x3ca828c6	0.020527255
118	0x3d3d2df9	0.04618642
119	0x3cd9fa3f	0.026608584
120	0x3db6d49e	0.08927272
121	0xbd365ec9	-0.044523988
122	0x3d0acc5a	0.03388629
123	0x3d81335c	0.06308624
124	0xbca76e62	-0.020438377
125	0xbcaa0ec5	-0.020758996
126	0x3db20c50	0.08693755
127	0x3d58818a	0.052857913
128	0xbd115cd5	-0.035488922
129	0xbd27e4af	-0.040989574
130	0xbd4de1ab	-0.050264042
131	0xbdab65d5	-0.08369032
132	0xbd36c561	-0.04462183
133	0xbd602193	-0.05471952
134	0xbc80e500	-0.015734196
135	0x3c383a05	0.011244302
136	0xbd4277f1	-0.047477666
137	0xbd736ad1	-0.05942804
138	0x3d40506e	0.046951704
139	0x3d863cee	0.0655459
140	0x3dc554ad	0.09635291
141	0x3d4d0c0c	0.050060317
142	0xbd23b71e	-0.039969556
143	0xbd719ceb	-0.05898754
144	0xbd8dad63	-0.069178365
145	0x3db47ec0	0.08813238
146	0xbdaa5672	-0.083172694
147	0x3d84daab	0.0648702
148	0xbb20e83f	-0.0024552492
149	0xbd196726	-0.037451886
150	0x3dd2c316	0.10291116
151	0xbc9f5cb3	-0.019453382
152	0xbc39cfea	-0.0113410745
153	0xbd33689e	-0.043800943
154	0x3ce18b7f	0.027532337
155	0xbd9ddefd	-0.07708547
156	0x3d2e25c2	0.042516477
157	0x3d16597e	0.03670644
158	0x3c3b2bd8	0.011424027
159	0x3db89a24	0.09013775
160	0x3d85b171	0.06527985
161	0xbd3a6250	-0.045503914
162	0xbc226766	-0.009912347
163	0xbdc01b94	-0.0938026
164	0x3dc747d3	0.09730496
165	0xbc139cbe	-0.009009538
166	0xbc458d98	-0.012057684
167	0xbd64a520	-0.055821538
168	0x3cb9889e	0.022648152
169	0xbdc1a9ff	-0.09456252
170	0x3d45f439	0.048328612
171	0x3dbbb60d	0.09165583
172	0xbd78e804	-0.060768142
173	0xbc8bb37e	-0.017053362
174	0xbce4dee7	-0.02793832
175	0xbdc908f1	-0.098161586
176	0x3d85a034	0.06524697
177	0xbc86e74a	-0.01646771
178	0xbdfeb43c	-0.12436721
179	0xbd426bf2	-0.047466226
180	0x3d773974	0.060357526
181	0x3d6e107c	0.05812119
182	0x3db77160	0.089571714
183	0xbc3f7dc5	-0.011687701
184	0xbd167d0b	-0.036740344
185	0x3d0214ee	0.03175824
186	0xbbd0d8bd	-0.0063734935
187	0xbd19b953	-0.037530255
188	0xbc6a53f9	-0.014302247
189	0x3d533de7	0.051572707
190	0xbd1d5c26	-0.038417958
191	0x3db43acf	0.08800279
192	0x3d2b1c75	0.041775186
193	0xbd16e533	-0.036839675
194	0xbdb97982	-0.09056379
195	0xbd57f1f1	-0.052720968
196	0x3ca771dc	0.020440035
197	0xbc2d2b71	-0.010569439
198	0xbdb60532	-0.0888771
199	0x3aee51d8	0.001818235
200	0xbd010290	-0.031496584
201	0xbda99dd4	-0.082820565
202	0xbd81aa1d	-0.06331275
203	0x3da15d71	0.07879151
204	0x3d866d75	0.06563846
205	0xbd9b4bf1	-0.07582844
206	0x3c86462d	0.016390884
207	0xbd157233	-0.036485862
208	0x3d98353b	0.07432028
209	0xbc1f29e4	-0.009714577
210	0x3cc5357b	0.024073353
211	0x3dc6f480	0.097146034
212	0x3c573594	0.013135333
213	0x3c8d3825	0.017238686
214	0xbcaeb93b	-0.02132856
215	0xbd633a38	-0.055475444

conv2d.2.bias f4 [2]
0	0x3d8a9b9b	0.06767961
1	0x3db7202e	0.08941685

fc.0.weight f4 [50, 1292]
0	0x3c15d0c4	0.009144012
1	0x3cffa35e	0.03120583
2	0xbc35f810	-0.011106506
3	0x3cb76d05	0.022390852
4	0xbb8402b1	-0.004028641
5	0xbc75173c	-0.014959153
6	0xbc4d0984	-0.012514476
7	0xbbad1ea7	-0.005283195
8	0xbc0e3adc	-0.008681025
9	0x3cac076c	0.020999633
10	0xbcdb49d4	-0.026768602
11	0xbc2db5f8	-0.010602467
12	0x3cfb138c	0.03064897
13	0xbca6aa1e	-0.02034479
14	0xbc1a0702	-0.009401085
15	0x3c36b59e	0.011151699
16	0x3c93c201	0.018036844
17	0x3a7c2a29	0.00096193195
18	0xbcc18435	-0.023622612
19	0xbcca239c	-0.024675183
20	0xbba2a1a7	-0.004963118
21	0x3cac37a1	0.02102262
22	0xbafcbed3	-0.0019282944
23	0x3cc96bc8	0.024587527
24	0x3c90ed06	0.017691147
25	0xbc8d31ef	-0.017235724
26	0xbd19d79a	-0.03755913
27	0xbcdbf6b4	-0.026851036
28	0xbcbd292e	-0.023090925
29	0xbc139608	-0.009007938
30	0x3c4129a9	0.011789718
31	0xbc029951	-0.007971124
32	0x3b20e3b4	0.0024549784
33	0x3cb85458	0.022501156
34	0xbc0044ad	-0.007828874
35	0xbcf891b6	-0.030342918
36	0xbbae970d	-0.0053280653
37	0xbc25f4f5	-0.010129203
38	0x39c10734	0.00036817195
39	0x3c9f1fc6	0.01942433
40	0xbc8e2a1b	-0.017354062
41	0x3cb3ca0f	0.021946935
42	0xbcd8a86e	-0.026447501
43	0x3c99934a	0.01874699
44	0xb94d3d5b	-0.0001957318
45	0x3b791d31	0.0038011784
46	0xba41920a	-0.0007384127
47	0x3ca3ca19	0.019993829
48	0xbc6415bf	-0.0139212
49	0xbbea7e13	-0.0071561425
50	0xbaf5b461	-0.0018745774
51	0xbcdb9355	-0.026803652
52	0x3bc916ec	0.0061367657
53	0xbc7aaeba	-0.015300447
54	0xbc82beed	-0.015960181
55	0x3b2ed6da	0.0026678354
56	0x3c886dec	0.016653977
57	0xbc83b3be	-0.016076919
58	0x3c20dafe	0.009817837
59	0x3cbd1f99	0.023086356
60	0xbccea90c	-0.025227092
61	0x3b69cc13	0.0035674616
62	0x3cafe549	0.021471636
63	0xbcae4b62	-0.02127618
64	0xbcb90ac2	-0.022588138
65	0xbb2fc3a1	-0.0026819485
66	0x3ae9227a	0.0017786764
67	0x3cbbfd4b	0.022947928
68	0xbc78f207	-0.015194423
69	0xbb771718	-0.0037702974
70	0x3cb6936e	0.022287097
71	0xbbdf2841	-0.0068102186
72	0xbd064d59	-0.03278861
73	0x3c8827de	0.016620573
74	0xba7899b3	-0.0009483352
75	0xbc4b064d	-0.012391639
76	0xbcb28e08	-0.021796241
77	0x3c1051ac	0.008808535
78	0x3c9505b0	0.018191189
79	0x3c2d9d9c	0.010596659
80	0xbbb455a6	-0.005503374
81	0x3c6a4ee1	0.014301033
82	0xbcab9d41	-0.020949008
83	0xbbd7c298	-0.0065844767
84	0xbc98a5cd	-0.018633747
85	0x3bee99e8	0.0072815306
86	0xbbd559d2	-0.0065109516
87	0xbcb362f3	-0.021897769
88	0xbbde23df	-0.0067791785
89	0xbc151e80	-0.00910151
90	0xbbff88a8	-0.007798273
91	0x3cc61165	0.024178216
92	0xbb001a2d	-0.0019546852
93	0x3baec16d	0.0053331167
94	0x3cc2631d	0.023728902
95	0xbc2bd89d	-0.010488656
96	0x3c841b9d	0.016126448
97	0xbcdb5a9d	-0.026776606
98	0xbce86c54	-0.028371967
99	0xbbdceaca	-0.006741856
100	0x3cc3705d	0.02385729
101	0x3b1e62c5	0.0024167758
102	0xbbbd003b	-0.0057678497
103	0x3ca1f383	0.019769436
104	0x3cda6b10	0.02666238
105	0x3be6f27a	0.0070479484
106	0xbd06bd90	-0.032895625
107	0x3c448992	0.01199569
108	0x3cb75162	0.022377674
109	0x3c158406	0.009125715
110	0x3c6de35f	0.0145195415
111	0x3c7f35d7	0.015576801
112	0xbc979141	-0.01850188
113	0xbc4ddcd0	-0.012564853
114	0x3c90b6d7	0.01766531
115	0x3b106c8c	0.0022037355
116	0x3c8b1515	0.016977826
117	0xbc0552ae	-0.008137388
118	0x3b817042	0.0039501498
119	0xbc8e29d6	-0.017353933
120	0x3c50dd4b	0.012748073
121	0xbbefe226	-0.00732066
122	0xbcb49710	-0.022044688
123	0x3a26d7c4	0.0006364549
124	0xbc7e31b4	-0.01551478
125	0x3cb9e7af	0.022693483
126	0xbbf2af3a	-0.0074061425
127	0x3cd2ab68	0.025716498
128	0x3cc6e82b	0.024280628
129	0x3b978ded	0.004625073
130	0x3bae8238	0.005325582
131	0x3c94b4c9	0.018152611
132	0xbc6c2e23	-0.014415297
133	0xbceef41d	-0.029169137
134	0x3c286552	0.010278063
135	0xbb10e5dc	-0.0022109663
136	0xbc814da8	-0.0157841
137	0x3c831aa5	0.016003916
138	0xbbaa5d6f	-0.0051991264
139	0x3c22931c	0.009922769
140	0xbb9cc4b8	-0.004784193
141	0xbcbbd934	-0.022930719
142	0xbca0eb37	-0.01964341
143	0xbca43cde	-0.020048555
144	0x3c781b27	0.015143192
145	0x3c0ae252	0.0084768105
146	0xbc9f43ff	-0.019441603
147	0xbc76e77f	-0.015069841
148	0xbcc7740a	-0.024347324
149	0xbb720b94	-0.003693317
150	0xbcb773b9	-0.022394048
151	0xbce798ec	-0.028271161
152	0x3c744bc8	0.014910646
153	0xbc5cb32f	-0.013470455
154	0x3caf7dd0	0.021422297
155	0x3cb34ea6	0.021888088
156	0xbc7b790f	-0.015348687
157	0x3cc08dde	0.023505148
158	0xbaf6f9f3	-0.0018842801
159	0xbc604ba8	-0.013689913
160	0x3c363116	0.011120101
161	0xbc849158	-0.016182587
162	0x3c2b1ac3	0.010443392
163	0xba0d1e93	-0.0005383279
164	0x3ce03f09	0.027373808
165	0xbc1e4480	-0.009659886
166	0xbce85d07	-0.028364671
167	0x3cc573b8	0.02410303
168	0xbba94b47	-0.0051664445
169	0x3cb54be6	0.022130918
170	0xbcd33eb6	-0.025786739
171	0xbc929584	-0.01789356
172	0x3cb6e7d4	0.022327341
173	0x3cb212ec	0.021737538
174	0xbc855fbe	-0.016281005
175	0xbcb33a55	-0.0218784
176	0x3c3180e3	0.010833952
177	0xbbd04279	-0.0063555804
178	0xbcc4917b	-0.023995152
179	0xbcc87a62	-0.02447242
180	0x3cda46ca	0.026645083
181	0x3cb2c014	0.021820106
182	0x3cdaaa77	0.026692612
183	0x3c98e1e6	0.018662404
184	0x3cc8afd6	0.024497908
185	0xbc6c2859	-0.0144139165
186	0x3c9e30b7	0.019310338
187	0xbc1ba30f	-0.009499325
188	0x3cab1bc6	0.020887267
189	0x3c1d88cb	0.0096151335
190	0xbbe9974e	-0.0071286326
191	0x3c8a5812	0.016887698
192	0xbca71e1a	-0.020400096
193	0x3bef59e0	0.007304415
194	0x3cbc05ec	0.022952043
195	0xbcdc802b	-0.026916584
196	0x3ca9d3d8	0.020730898
197	0x3c96e1a5	0.018418143
198	0xbc9d21e3	-0.019181198
199	0xbcc2e79b	-0.023792079
200	0x3cbdd295	0.023171702
201	0xbcaaf9d5	-0.020871082
202	0xbcabbb8d	-0.020963455
203	0x3b1d1594	0.002396916
204	0xbcca03ec	-0.024660073
205	0x3c92c0b8	0.017914161
206	0xbccf0f85	-0.025275955
207	0xbccd859f	-0.02508813
208	0xbbe08a7b	-0.0068524457
209	0x3c41794c	0.011808705
210	0xbb3f1bd1	-0.0029160867
211	0xbcd01408	-0.025400177
212	0xbbee3ad2	-0.0072701955
213	0x3d0084b5	0.03137656
214	0xbca78d84	-0.020453222
215	0xbc806c9e	-0.015676793
216	0xbb98d472	-0.0046639973
217	0x3c828825	0.01593406
218	0x3c93d1bf	0.01804435
219	0xbcd6ed1d	-0.026236111
220	0xbc3fb719	-0.011701369
221	0x3cd5edbf	0.026114343
222	0xba47decf	-0.00076244486
223	0xbc7a96f9	-0.015294784
224	0xbb677c49	-0.0035321882
225	0xbc284e3a	-0.010272557
226	0x3c860d47	0.016363753
227	0xbb56d68f	-0.0032781695
228	0xbaf415a9	-0.0018622178
229	0x3bfe62ae	0.0077632284
230	0x3c7327c1	0.014841021
231	0x3cadba11	0.021206887
232	0xbcc3bee8	-0.023894742
233	0xbb8b4a16	-0.004250775
234	0xbc9fc0f1	-0.019501181
235	0xbc748996	-0.014925381
236	0x3ba67aac	0.0050805416
237	0xbb777135	-0.0037756686
238	0xbc0a3d28	-0.008437432
239	0x3ab69af7	0.0013931681
240	0xbcd4da71	-0.025983067
241	0xbc4b73a1	-0.012417705
242	0xbd052c90	-0.0325132
243	0xbcf17065	-0.02947254
244	0x3c10e181	0.008842827
245	0x3ccf8e48	0.0253364
246	0x3c09816d	0.008392674
247	0x3b71923b	0.0036860842
248	0x3a93e6b4	0.0011283965
249	0x3c2d6b56	0.010584673
250	0x3aa016cf	0.0012213829
251	0x3c09307b	0.008373375
252	0x3c7c79a2	0.015409859
253	0xbbaba1e6	-0.0052378057
254	0xbb7a66ba	-0.0038208202
255	0xbcb22ffd	-0.021751398

fc.0.bias f4 [50]
0	0x3bb6b5c4	0.0055758674
1	0xbb4386cc	-0.0029834984
2	0x3ca6f813	0.020381963
3	0x3bb71524	0.005587237
4	0xbc7d5485	-0.015462046
5	0x3cbe508b	0.023231765
6	0xbcc43153	-0.0239493
7	0xbce33512	-0.027735267
8	0xbbe645a5	-0.0070273452
9	0xbc2a251a	-0.010384822
10	0x3c30a5b7	0.010781697
11	0xbc2bea34	-0.01049285
12	0x3c6704c8	0.014100261
13	0xbcd81549	-0.026377337
14	0x3cc67546	0.024225842
15	0x3cb17d3e	0.021666165
16	0x3cd8fb52	0.026487026
17	0x3c853a19	0.016263055
18	0x3ca2cf9f	0.019874392
19	0x3bb595e7	0.0055415514
20	0x3b6b9942	0.0035949503
21	0x3ca62774	0.020282485
22	0x3a85498b	0.0010169012
23	0x3c8127c5	0.015766034
24	0x3c5a03d2	0.013306575
25	0xbc2f539c	-0.010701086
26	0x3cb5365a	0.022120643
27	0x3bca3054	0.006170312
28	0x3b8f7600	0.0043780804
29	0xbcadfee3	-0.021239704
30	0xbc8be181	-0.017075302
31	0xbc525220	-0.012836963
32	0x3b97a7f6	0.004628177
33	0x3cb3c4ff	0.021944521
34	0x3b057ac3	0.002036736
35	0x3cd221ed	0.025650943
36	0xbb544591	-0.0032390098
37	0x3cd23d8a	0.02566411
38	0xbc60c0b1	-0.013717816
39	0x3b986387	0.0046505365
40	0x3ad47fb1	0.0016212371
41	0xba7cd6b9	-0.0009645033
42	0x3cb592ab	0.022164663
43	0x3cb7231a	0.022355605
44	0x3cdf4bbf	0.027257798
45	0x3c47bb5a	0.012190664
46	0xbc2f7bed	-0.010710699
47	0xbc19a99e	-0.009378819
48	0xbc995a57	-0.018719835
49	0xbcc3039d	-0.023805434

fc.1.weight f4 [50]
0	0x3f81f5d2	1.0153143
1	0x3f80c518	1.0060148
2	0x3f809104	1.0044255
3	0x3f81d7e6	1.0144012
4	0x3f805081	1.0024568
5	0x3f802733	1.0011963
6	0x3f80ec5c	1.0072131
7	0x3f81963e	1.0123975
8	0x3f80c053	1.0058693
9	0x3f81db88	1.0145121
10	0x3f80c625	1.0060469
11	0x3f803f39	1.0019294
12	0x3f802f53	1.0014442
13	0x3f8180c9	1.0117427
14	0x3f811a71	1.0086194
15	0x3f826fc2	1.0190356
16	0x3f80a4e1	1.0050317
17	0x3f812894	1.0090508
18	0x3f81e539	1.0148078
19	0x3f7ffcb2	0.9999496
20	0x3f800e76	1.0004413
21	0x3f808b71	1.0042554
22	0x3f814448	1.0098963
23	0x3f80c3e0	1.0059776
24	0x3f800213	1.0000633
25	0x3f803d20	1.0018654
26	0x3f804eb0	1.0024014
27	0x3f7fecb2	0.99970543
28	0x3f803de6	1.001889
29	0x3f809536	1.0045536
30	0x3f8162f6	1.0108325
31	0x3f814a59	1.0100814
32	0x3f807b9b	1.0037721
33	0x3f804c5a	1.0023301
34	0x3f7fa26b	0.99857205
35	0x3f818ca8	1.012105
36	0x3f7fb18b	0.99880284
37	0x3f800c20	1.00037
38	0x3f81180e	1.0085466
39	0x3f803b87	1.0018166
40	0x3f800eb5	1.0004488
41	0x3f80a92e	1.005163
42	0x3f800454	1.0001321
43	0x3f80f35e	1.007427
44	0x3f80e455	1.0069681
45	0x3f811e03	1.0087284
46	0x3f80a4e6	1.0050323
47	0x3f80b5e8	1.0055513
48	0x3f7ff685	0.99985534
49	0x3f807975	1.0037066

fc.1.bias f4 [50]
0	0x3c08ebe8	0.008357026
1	0xbc8b1a69	-0.016980367
2	0x3ce694a1	0.028147044
3	0xbc4731b3	-0.012157845
4	0xbb171d0c	-0.0023058085
5	0xbb6a3491	-0.0035736898
6	0x3c4b2a2f	0.012400194
7	0xbbc4a54a	-0.0060011493
8	0x3a876cfe	0.0010332165
9	0xbbb7aef3	-0.0056055724
10	0x3c134f9f	0.008991151
11	0xbc162a31	-0.009165333
12	0x3c6ac13b	0.014328296
13	0xbc0445f1	-0.008073316
14	0x3b6e694d	0.0036378682
15	0x3bbd359a	0.005774212
16	0x3cb60b04	0.02222205
17	0xbb470d82	-0.0030373042
18	0x3c57c8ce	0.013170434
19	0xbbb6a30e	-0.005573637
20	0x3bf10321	0.0073551093
21	0xbbd4a660	-0.00648956
22	0xbbadbe51	-0.0053022285
23	0xbc6d89fa	-0.014498228
24	0x3c621e7c	0.013801213
25	0x3b82ca21	0.003991381
26	0x3b1931b4	0.0023375573
27	0x3ce1c464	0.027559467
28	0x3c13e804	0.009027485
29	0x3b9e01c8	0.0048219897
30	0xbc69dba0	-0.014273554
31	0xbc565817	-0.013082526
32	0x3b892f67	0.004186559
33	0x3c3f06d2	0.011659341
34	0x3cec9bfa	0.02888297
35	0xbbdfaef9	-0.0068262783
36	0x3caf55dc	0.021403246
37	0xbc7943d7	-0.015213928
38	0x3ade504d	0.0016961187
39	0xbba1c598	-0.004936885
40	0x3c1d6a89	0.0096079195
41	0xbc34e00e	-0.011039747
42	0x3c91dfa7	0.017806841
43	0xbb42546b	-0.0029652368
44	0xbcb8e126	-0.022568297
45	0x3b7ee3d4	0.003889312
46	0x3b05796d	0.0020366565
47	0xbcdb89d4	-0.02679912
48	0x3c323432	0.010876702
49	0xba19df4c	-0.00058697606

fc.1.running_mean f4 [50]
0	0x3cf76b36	0.03020249
1	0x3c96e1e9	0.01841827
2	0x3b7e433e	0.0038797404
3	0x3d64afbb	0.055831652
4	0x3d6831a1	0.056687955
5	0xbce37066	-0.027763557
6	0xbc3bb840	-0.011457503
7	0xbce192af	-0.027535765
8	0xbcd1f6a3	-0.0256303
9	0xba8c92b2	-0.0010724871
10	0x3bfe6b43	0.0077642514
11	0x3caa0d08	0.020758167
12	0x3c31b4de	0.010846345
13	0x3c132af3	0.008982408
14	0xbce83a3b	-0.028348079
15	0x3b130af8	0.0022436958
16	0x3c92a40c	0.01790049
17	0x3d20a538	0.039220065
18	0xbd1d03e2	-0.03833378
19	0x3d3899a8	0.045068413
20	0xbcf0c462	-0.029390518
21	0x3d572873	0.05252881
22	0x3c7de970	0.01549755
23	0x3c42d26c	0.011890989
24	0xbda8f108	-0.08249098
25	0xbd1d39d2	-0.03838522
26	0x3dcb34c7	0.09922176
27	0xbdf9d229	-0.12198288
28	0xbdd0b909	-0.10191543
29	0x3d549b4b	0.05190591
30	0x3d4fd0b2	0.050736137
31	0x3ba84124	0.0051347185
32	0x3c927e24	0.017882414
33	0xbc6d2c0e	-0.0144758355
34	0x3e02d201	0.12775423
35	0x3d2d76c2	0.042349584
36	0x3e1afc48	0.151353
37	0x3d7ed2dd	0.062212814
38	0x3d137690	0.036001742
39	0xbcec634b	-0.02885594
40	0xbb802211	-0.003910311
41	0x39aa8dc5	0.00032530553
42	0x3d3a3d0e	0.045468383
43	0x3d2012d3	0.039080452
44	0x3d4a71be	0.04942488
45	0x3d2e398f	0.04253536
46	0x3bfa9db5	0.0076481947
47	0xbcef268b	-0.029193183
48	0xbd3592a9	-0.04432932
49	0xbc74f65e	-0.014951317

fc.1.running_var f4 [50]
0	0x3aac6f9c	0.0013155821
1	0x3a821c2b	0.0009926608
2	0x3a66b619	0.00088009384
3	0x3a4ec813	0.000788809
4	0x3a8fd357	0.0010973018
5	0x3a7fcde2	0.0009758157
6	0x3a868d99	0.0010265588
7	0x3a81fb9e	0.0009916907
8	0x3a89a02a	0.0010500003
9	0x3a860ea6	0.0010227754
10	0x3a6b98e9	0.0008987324
11	0x3a8f02f3	0.0010910913
12	0x3a617003	0.000859976
13	0x3a7b3ebe	0.00095842395
14	0x3a68b295	0.00088767085
15	0x3a889820	0.0010421313
16	0x3a9d085b	0.001198064
17	0x3a4cbd09	0.0007810151
18	0x3a6a80ee	0.00089456036
19	0x3a8d929c	0.0010801139
20	0x3a68a0ac	0.00088740396
21	0x3a8fa0aa	0.0010957916
22	0x3a809aba	0.0009811737
23	0x3a82c116	0.0009975757
24	0x3aca11dc	0.00154167
25	0x3a83ba4d	0.0010050029
26	0x3a80e0d7	0.0009832632
27	0x3ab6da3f	0.001395054
28	0x3a8a1f5d	0.0010537911
29	0x3a69216d	0.00088932255
30	0x3a82e8c3	0.0009987581
31	0x3a530427	0.000804963
32	0x3a6eeb16	0.000911401
33	0x3a83284d	0.0010006517
34	0x3acf0637	0.0015794699
35	0x3a8e95db	0.0010878401
36	0x3aee640e	0.0018187778
37	0x3aad2b82	0.0013211819
38	0x3a66591a	0.0008787081
39	0x3a80b9b9	0.0009820975
40	0x3a7da637	0.0009675952
41	0x3a71b436	0.0009220274
42	0x3a80e1a4	0.0009832871
43	0x3a810559	0.0009843513
44	0x3a5bf818	0.0008391156
45	0x3a53aedb	0.0008075067
46	0x3a6ca79c	0.0009027661
47	0x3a9b8ab8	0.0011866903
48	0x3a88c8cd	0.001043582
49	0x3a886c73	0.0010408297

fc.2.weight f4 [4, 50]
0	0xbcc4925b	-0.023995569
1	0x3da269c9	0.07930333
2	0xbde19321	-0.11014391
3	0x3dd2650e	0.10273181
4	0xbd11f48b	-0.035633605
5	0xbd883c74	-0.066521555
6	0xbdd115b8	-0.10209221
7	0x3d4aea89	0.049540076
8	0x3dc8d7b1	0.09806765
9	0x3d18d8f7	0.03731629
10	0xbcbddfb9	-0.023177968
11	0x3dcdc335	0.100469984
12	0xbc4be3f7	-0.012444488
13	0x3d455a94	0.048182085
14	0xbc817387	-0.015802158
15	0xbd0733be	-0.03300833
16	0xbd9e28a9	-0.07722599
17	0x3d38f7b6	0.04515811
18	0xbd39138e	-0.045184664
19	0x3d732329	0.059359703
20	0xbe0bb797	-0.13644253
21	0x3b3ce1ab	0.0028821032
22	0x3d8d7ddf	0.06908774
23	0x3dd4485a	0.103653625
24	0xbdc21aa1	-0.09477735
25	0xbc368c7f	-0.011141895
26	0xbdc226da	-0.094800666
27	0xbdd67fb8	-0.10473579
28	0xbd84076e	-0.064467296
29	0xbd0f30fb	-0.03495882
30	0x3dd9e257	0.10638874
31	0x3dc389b2	0.09547748
32	0xbd3880fa	-0.045044877
33	0xbcdf88dd	-0.027286941
34	0xbdbb500d	-0.09146128
35	0x3d9899bf	0.074512
36	0xbdb185e7	-0.08668118
37	0x3e0bdc16	0.13658175
38	0x3c396f1c	0.011317994
39	0x3de65714	0.112470776
40	0xbd87ee21	-0.06637216
41	0x3ddc4b36	0.10756533
42	0xbd366eb7	-0.04453918
43	0x3d125dcc	0.035733983
44	0x3e03da42	0.12876227
45	0xbd1276a8	-0.03575769
46	0x3d101328	0.03517452
47	0x3deb28b2	0.114823714
48	0xbe0c0c2d	-0.1367652
49	0x3db374c9	0.087625094
50	0x3e11eda2	0.14250806
51	0xbd7198c5	-0.058983583
52	0x3e399d31	0.1812637
53	0x3e4dc8b3	0.20096092
54	0xbd665c0a	-0.05624012
55	0xbe03d0fd	-0.12872691
56	0x3e049c8f	0.12950347
57	0x3db10fe6	0.086456105
58	0x3e1c9ff3	0.15295391
59	0x3e31222d	0.17298193
60	0xbd6e8f7e	-0.058242314
61	0x3d04cc4e	0.032421403
62	0x3e1bb088	0.1520406
63	0xbe274a52	-0.16336945
64	0x3dcd297e	0.1001768
65	0xbe0a7e73	-0.13524799
66	0x3df2e426	0.11859922
67	0x3e0cf85a	0.13766614
68	0xbdfebe46	-0.124386355
69	0x3b97807c	0.004623471
70	0xbd870958	-0.06593579
71	0xbc81c130	-0.01583919
72	0x3e29b0de	0.16571376
73	0xbc9584b5	-0.018251756
74	0x39ec3841	0.0004505534
75	0xbc000b21	-0.007815153
76	0xbded0360	-0.11572909
77	0x3d8edb31	0.06975401
78	0xbbc9413f	-0.006141811
79	0xbdb3d323	-0.087805055
80	0x3ddc990d	0.107713796
81	0x3ded6f29	0.11593468
82	0x3d726152	0.059174843
83	0x3c70f558	0.014706932
84	0x3dd09006	0.1018372
85	0x3e177a61	0.14792778
86	0x3cf632c1	0.030053498
87	0x3c63bd26	0.013900077
88	0x3c2164d1	0.009850697
89	0x3d6cdfa6	0.057830475
90	0x3d2cb901	0.04216862
91	0xbc0e2bf5	-0.008677472
92	0x3dfdcd05	0.1239262
93	0x3d1b2782	0.037879474
94	0xbe1215b9	-0.14266099
95	0x3dfa1192	0.122103825
96	0x3e07de76	0.13268456
97	0xbde683b5	-0.1125559
98	0xbd6115c7	-0.05495241
99	0x3e07744b	0.13227956
100	0xbe3467e6	-0.17617759
101	0x3e0c1739	0.13680734
102	0xbbbd2637	-0.005772378
103	0xbd2473e8	-0.0401496
104	0x3d144772	0.036200948
105	0xbda3e633	-0.080028914
106	0xbe15c6c4	-0.14626604
107	0xbe40d7ad	-0.18832274
108	0xbd1157ed	-0.035484243
109	0xbe023978	-0.12717235
110	0xbb963458	-0.0045838766
111	0x3df0b46f	0.11753165
112	0x3cc747db	0.024326256
113	0x3ceacc7f	0.028661964
114	0x3dd7b485	0.10532478
115	0x3e48201c	0.19543499
116	0xbdae77b2	-0.08518924
117	0x3df4a943	0.119463466
118	0x3d87b270	0.06625831
119	0x3d79cf50	0.060988724
120	0xbdf8b4e9	-0.12143881
121	0xbe1fe912	-0.15616253
122	0xbda5695d	-0.08076737
123	0x3e2963bb	0.1654195
124	0x38c98c67	9.610579e-05
125	0x3dce6907	0.10078626
126	0x3c3b608c	0.011436593
127	0x3d51d681	0.051229957
128	0xbdc8857a	-0.09791084
129	0xbd3ba7e5	-0.045814414
130	0xbe25d7a5	-0.16195543
131	0x3dc733cd	0.09726677
132	0x3c29be44	0.010360304
133	0x3a980fea	0.0011601422
134	0x3e06e78d	0.13174267
135	0xbe348bdc	-0.17631477
136	0x3db1e8b2	0.08686961
137	0x3dd1d5be	0.10245846
138	0xbdde4b4f	-0.10854208
139	0x3c64b78d	0.013959778
140	0xbd0b4afc	-0.034007058
141	0xbda928e4	-0.082597524
142	0x3dd7d7ef	0.10539233
143	0x3e209def	0.15685247
144	0xbd913655	-0.07090441
145	0xbc713b68	-0.014723636
146	0xbdb969d9	-0.09053392
147	0x3de9e206	0.11420064
148	0xbd95e866	-0.07319717
149	0x3e1b568b	0.15169732
150	0x3d7c2a2b	0.061563652
151	0xbe0312d9	-0.12800159
152	0x3ccf103a	0.025276292
153	0xbddc1d8a	-0.10747822
154	0xbddc4377	-0.107550554
155	0xbd665472	-0.056232877
156	0xbdbb6c9b	-0.09151574
157	0x3d8c49eb	0.06850036
158	0x3e1ed34c	0.15510291
159	0xbdb52c2c	-0.08846316
160	0x3e1d022f	0.15332864
161	0xbc1d0248	-0.009583063
162	0x3d48bead	0.049009968
163	0x3e036095	0.12829812
164	0xbe1e23b8	-0.15443313
165	0x3c70b4f9	0.014691585
166	0x3dfcbbd3	0.12340512
167	0xbe183dab	-0.14867274
168	0x3e49a577	0.19692026
169	0x3bbf26cf	0.0058334838
170	0xbdb414b4	-0.08793011
171	0x3c81e0be	0.015854236
172	0xbc865bd8	-0.016401216
173	0xbd91494e	-0.0709406
174	0x3bb1d875	0.005427415
175	0xbc8b313c	-0.01699125
176	0xbde86cf5	-0.11348907
177	0x3de7061f	0.112804644
178	0x3d751fa0	0.059844613
179	0x3df012b7	0.117223196
180	0x3ce3c02e	0.0278016
181	0xbe20a022	-0.15686086
182	0xbdf692aa	-0.12039693
183	0x3df48c0c	0.11940774
184	0x3da45b79	0.080252595
185	0x3d45d4f6	0.0482988
186	0x3d65b997	0.056085195
187	0x3c879777	0.016551716
188	0x3e023070	0.1271379
189	0x3e121d0a	0.1426889
190	0xbcdf0f6f	-0.027229039
191	0x3e135871	0.14389206
192	0xbb1cbeec	-0.002391751
193	0xbdda1743	-0.10648968
194	0x3e0a7ee0	0.13524961
195	0xbe073a85	-0.13205917
196	0x3d795ab2	0.06087751
197	0xbe0988f8	-0.13431156
198	0xbd8c82c2	-0.068608776
199	0xbc895a62	-0.01676673

fc.2.bias f4 [4]
0	0xbe5baeea	-0.21453443
1	0x3de777d6	0.11302154
2	0x3d800a0f	0.062519185
3	0x3e21cd50	0.15800977
