KGs/carcinogenesis/model weights/GRU_{_hidden_dim_ 100, _n_layers_ 2}_.pt (torch, 438753 bytes, 16 tensors)

gru.weight_ih_l0 f4 [300, 40]
-0.030150313 0.09454582 0.02031668 -0.079386145 -0.06716729 -0.018264052 0.06273533 -0.024513198
-0.012604941 -0.013918715 -0.050382394 -0.06881711 -0.039012656 -0.08360551 -0.029421648 -0.009018825
0.03499879 -0.04815713 -0.09313677 0.07929474 0.07562227 0.007915099 -0.035164025 -0.05445117
0.008773643 -0.064584546 0.040290393 0.034946892 -0.09954076 0.09436948 -0.09693753 -0.027982738
0.04718936 0.08197927 0.0016769677 -0.059967224 -0.00763673 -0.096619934 -0.016244426 -0.024082039
0.037712485 -0.09628029 -0.054338504 0.059983063 0.034284636 -0.00088341377 -0.069459796 0.015102357
-0.022516254 -0.008722995 -0.07583541 0.087738514 0.05575579 0.098680794 0.06645954 0.09297416
0.0548293 0.09131589 0.022782188 0.010961875 -0.02996715 0.059196025 -0.07469483 0.08172783
0.068505526 -0.0576009 -0.08683243 -0.08359673 -0.045949034 -0.07261057 -0.020406459 -0.066303395
0.09867795 -0.05535419 0.014918528 0.009789871 0.034530465 0.045522004 -0.014638272 -0.0027671107
-0.03912434 -0.094541766 -0.021326717 -0.030646717 -0.031007161 0.012498057 -0.018661875 -0.074438766
-0.031260774 0.0075229052 0.0033379367 0.022744352 -0.00028193227 -0.06579131 0.056007434 0.04464237
-0.052432425 0.039761588 -0.016634695 0.07482549 0.018345209 -0.0006794474 -0.05917066 -0.03627006
0.040640194 -0.041768737 0.053080842 0.071761034 0.027600108 -0.09017404 0.07199167 0.060289238
0.05494918 0.00029307063 -0.052062083 0.020272631 -0.09123565 -0.026748652 -0.0243239 -0.07123223
-0.097266555 -0.085666545 0.06969292 0.011333168 -0.0743561 -0.0041581444 -0.033034857 -0.017749475
-0.049794793 0.08971647 -0.027318794 0.09346998 0.034005802 0.01896979 -0.07466081 0.072396554
0.013927522 0.080507666 0.011237955 -0.048732787 -0.0059857224 0.016653463 0.0997361 -0.055017628
0.08128137 0.031448245 -0.014439027 0.06943629 -0.045988545 -0.0046829004 -0.024703266 -0.093089044
0.07754261 -0.030611673 0.09405684 0.034986645 -0.08440982 -0.05315707 -0.034856882 0.07970101
0.013195214 0.047047477 -0.06595618 0.05282984 -0.026255554 0.047290236 -0.045517605 -0.02273296
-0.0913878 -0.031449173 -0.096550204 0.047452126 0.055961907 -0.096982814 0.043015644 -0.06664189
-0.029335622 0.06946674 -0.099078596 -0.010284493 -0.0037719493 -0.05134384 -0.025886452 0.056598183
-0.038422924 -0.007829344 0.057038616 -0.030582707 -0.09743403 0.030983392 0.05559536 0.050265107
0.018370388 -0.023004001 -0.083248526 0.08723619 -0.045708492 -0.0036630193 0.08118653 -0.03002134
0.012255976 0.01620727 -0.008623496 -0.09394696 0.09887659 0.044438194 0.035785895 -0.063726924
0.019026507 0.06276259 0.0033584873 -0.03177056 -0.058248337 0.053210083 0.045451406 -0.03134236
-0.06647762 0.09467899 -0.01686181 -0.0533203 -0.040000618 -0.03723956 -0.06144513 0.020467583
0.03498195 -0.014674699 -0.02326207 -0.092091516 0.05107112 -0.07799169 0.06841278 -0.06660497
-0.034656778 0.043230023 -0.0024321368 0.08317435 -0.0133054685 -0.032993734 -0.055240378 0.029417386
-0.06775094 0.061257884 -0.019916981 -0.0074985796 0.05398048 -0.011918133 0.0010703158 0.08297044
-0.03307274 0.024638575 0.06816035 0.068671905 -0.012650049 -0.019536184 0.055716436 0.060044505
00000000: cafd f6bc 3da1 c13d 2b6f a63c 3495 a2bd
00000010: 018f 89bd 7e9e 95bc 617b 803d e7cf c8bc
00000020: f484 4ebc 520b 64bc c55d 4ebd fcef 8cbd
00000030: bccb 1fbd 5e39 abbd ab05 f1bc b2c3 13bc
00000040: e45a 0f3d 6940 45bd 7ebe bebd 4865 a23d
00000050: d9df 9a3d 55ae 013c 2708 10bd 3108 5fbd
00000060: 53bf 0f3c e744 84bd 8a07 253d 7924 0f3d
00000070: 07dc cbbd c944 c13d 2f87 c6bd 0e3c e5bc
00000080: a149 413d bfe4 a73d b3cd db3a 31a0 75bd
00000090: 893d fabb ace0 c5bd 0813 85bc b247 c5bc
000000a0: 6878 1a3d 9a2e c5bd 0d92 5ebd cdb0 753d
000000b0: 0c6e 0c3d e594 67ba f040 8ebd e06f 773c
000000c0: 0274 b8bc e5ea 0ebc 984f 9bbd 40b0 b33d
000000d0: 2f60 643d 2819 ca3d f01b 883d 3d69 be3d
000000e0: b094 603d d303 bb3d b6a1 ba3c 7099 333c
000000f0: ab7d f5bc 8877 723d 9af9 98bd ec60 a73d
00000100: a04c 8c3d ecee 6bbd 33d5 b1bd c334 abbd
00000110: 0e35 3cbd dab4 94bd 722b a7bc 13ca 87bd
00000120: aa17 ca3d 13bb 62bd d76c 743c b265 203c
00000130: d16f 0d3d 4875 3a3d 5dd5 6fbc 6a58 35bb
00000140: d840 20bd 1d9f c1bd 5eb5 aebc d30e fbbc
00000150: bb02 febc a7c4 4c3c cae0 98bc 5a73 98bd
00000160: 4c0b 00bd b482 f63b 49c1 5a3b 5d52 ba3c
00000170: 4fd0 93b9 98bd 86bd 0d68 653d ebda 363d
00000180: 62c3 56bd 0cdd 223d 7c45 88bc 1b3e 993d
00000190: b148 963c f11c 32ba ef5c 72bd ea8f 14bd
000001a0: 5576 263d b215 2bbd 4c6b 593d 73f7 923d
000001b0: 9f19 e23c 2bad b8bd 5e70 933d d9f1 763d
000001c0: 6412 613d 46a7 9939 0d3f 55bd ca12 a63c
000001d0: c2d9 babd fd1f dbbc ea42 c7bc 34e2 91bd
000001e0: b033 c7bd f171 afbd 29bb 8e3d c0ae 393c
000001f0: 0348 98bd 0b41 88bb 8f4f 07bd 5967 91bc
00000200: a0f5 4bbd 45bd b73d aacb dfbc 306d bf3d
00000210: ab49 0b3d 8866 9b3c c4e7 98bd a544 943d
00000220: 4330 643c 34e1 a43d 661f 383c 089c 47bd
00000230: e123 c4bb d86c 883c 7142 cc3d 2a5a 61bd
00000240: d976 a63d e0cf 003d ab91 6cbc 9d34 8e3d
00000250: 7c5e 3cbd 0473 99bb 815e cabc 78a5 bebd
00000260: a9ce 9e3d 55c5 fabc dfa0 c03d 284e 0f3d
00000270: 0edf acbd 3abb 59bd 17c6 0ebd 483a a33d
00000280: bd30 583c dbb4 403d 0914 87bd 1a64 583d
00000290: e315 d7bc 68b3 413d ab70 3abd 793a babc
000002a0: 8729 bbbd d9d0 00bd 1dbc c5bd 295d 423d
000002b0: 5038 653d ed9e c6bd 2c31 303d 8b7b 88bd
000002c0: 4251 f0bc 9444 8e3d b8e9 cabd 4a80 28bc
000002d0: cf32 77bb eb4d 52bd d30f d4bc 7fd3 673d
000002e0: 5b61 1dbd a646 00bc 53a1 693d 9688 fabc
000002f0: 7e8b c7bd e2d0 fd3c f6b7 633d c9e2 4d3d
00000300: 7f7d 963c e372 bcbc 347e aabd e3a8 b23d
00000310: d438 3bbd 440f 70bb 2045 a63d 50ef f5bc
00000320: 4acd 483c 1cc5 843c 9049 0dbc 4467 c0bd
00000330: cf7f ca3d d304 363d 3b94 123d 4383 82bd
00000340: 7add 9b3c ac89 803d 111a 5c3b d921 02bd
00000350: cf95 6ebd d1f2 593d 412b 3a3d d960 00bd
00000360: 6b25 88bd 0fe7 c13d c721 8abc 6366 5abd
00000370: b0d7 23bd 8288 18bd e3ad 7bbd a2ab a73c
00000380: 3c49 0f3d 266e 70bc 1990 bebc 7a9a bcbd
00000390: f32f 513d 1bba 9fbd 001c 8c3d 3068 88bd
000003a0: 44f4 0dbd f711 313d 7c64 1fbb 5057 aa3d
000003b0: 2eff 59bc 7024 07bd bc43 62bd bbfc f03c
000003c0: 01c1 8abd 8ce9 7a3d f028 a3bc a5b6 f5bb
000003d0: a31a 5d3d 4644 43bc d749 8c3a 68ec a93d
000003e0: 4877 07bd d6d6 c93c a797 8b3d dba3 8c3d
000003f0: 2742 4fbc 590a a0bc eb36 643d 3af1 753d

gru.weight_hh_l0 f4 [300, 100]
0.07314084 -0.040567625 -0.06409678 -0.05911464 -0.011575362 -0.074646845 -0.05852239 0.0459126
0.04818497 0.07251196 0.018691957 0.038193982 0.079121016 0.06382078 0.093071215 -0.086413935
0.055912793 0.04002867 -0.08484547 -0.07617162 0.04906328 0.0072555025 -0.0032818106 -0.02077838
0.05010867 0.027908307 0.0066320533 0.07293913 0.03280269 -0.015421672 0.050783373 0.07638288
0.010705569 -0.03403101 -0.0720274 -0.035109922 0.053399023 0.032701697 0.092469566 -0.040228464
-0.04014236 -0.07600781 0.08172061 0.08690581 0.044464394 -0.08533547 -0.07532667 0.01883998
0.068055935 -0.051715225 0.0028173302 -0.06933564 0.057153273 0.0586499 0.064183414 -0.09014616
0.09053354 0.07264435 0.09348907 -0.027358128 0.05234744 -0.09439164 -0.057661876 -0.068639785
0.095072225 -0.015519324 0.0353884 -0.036970925 0.08974736 0.032049637 -0.022417175 -0.043240167
-0.0808041 0.0947798 -0.007814975 0.044772178 -0.01402718 -0.014407303 -0.022946876 0.072839245
0.03337539 -0.004060146 -0.06851795 -0.08462904 -0.06695781 -0.061858818 -0.09137436 -0.08157771
-0.018941423 -0.016562363 -0.057893727 -0.076937474 -0.029561354 0.08324804 -0.05835482 -0.066007935
-0.016042715 -0.06919933 -0.08985477 0.033638895 0.050207276 0.019750973 0.081566885 -0.07349803
0.072082445 -0.048101004 -0.035777826 0.00035829537 0.042649273 -0.075163715 -0.088523485 0.07465681
0.06644309 -0.04557809 0.018383695 -0.058481403 0.06754525 -0.019882925 -0.08077085 0.017489798
0.07299087 -0.09330301 0.05578492 -0.036297325 0.09057582 -0.07333726 0.027880454 -0.037241556
-0.033392802 -0.07421222 -0.07872695 -0.09546544 -0.08781963 -0.089690305 -0.07295178 -0.07670816
0.08816616 0.068855874 0.08893431 0.041872248 -0.08289064 0.07502942 -0.0063900654 -0.08649017
-0.022464698 0.089601755 0.054493345 -0.06325726 -0.0010640393 0.05640141 -0.03813784 -0.093095385
-0.0838553 -0.008442405 0.044729676 -0.09270628 -0.09959495 -0.012358756 0.06967598 0.036388036
-0.0076594916 0.032876868 -0.030312667 -0.021838196 0.019569011 0.019566333 -0.0890204 0.043409575
-0.04651585 0.010083187 0.06895958 -0.06824119 0.053279843 -0.08040064 -0.03856972 -0.009178401
-0.022252608 -0.031628404 0.032758072 -0.05663408 0.017151173 0.091034144 -0.027950058 0.0545755
0.06908777 0.0905459 -0.03555308 0.036023416 0.07420605 -0.077689625 -0.004620606 -0.011695668
0.08459331 0.023062406 0.028972527 0.028313924 -0.09529224 0.041500892 0.03287086 -0.030868242
-0.06846068 0.063967764 0.06317395 -0.05383594 -0.08946619 0.07495772 0.03857548 0.016769677
-0.016989186 -0.024206182 -0.05394883 0.08040391 0.013609917 0.06864904 0.029889308 0.0051693507
-0.014091169 0.04079473 -0.0644238 0.064352326 -0.08551179 -0.09894262 0.05059838 0.060546033
-0.0038496696 -0.041934986 -0.06295988 0.088012144 0.081822865 -0.07413336 0.073830575 0.06632749
0.09962262 0.030721553 -0.066039756 0.09576887 -0.09989092 -0.043139044 0.098147534 -0.09880229
0.084976375 0.05993053 -0.0892846 -0.046499755 0.04276677 0.053293973 0.08672292 0.05828506
0.079971276 -0.08919879 -0.0658809 0.06689556 -0.021658564 0.096535385 0.032854844 -0.07003587
00000000: ddca 953d 3d2a 26bd 2c45 83bd 3122 72bd
00000010: 96a6 3dbc 72e0 98bd 2cb5 6fbd da0e 3c3d
00000020: 9a5d 453d 2781 943d e01f 993c 4b71 1c3d
00000030: 330a a23d 78b4 823d 1f9c be3d caf9 b0bd
00000040: d004 653d 1af5 233d 76c3 adbd deff 9bbd
00000050: 94f6 483d 91bf ed3b a513 57bb 6c37 aabc
00000060: c03e 4d3d f69f e43c b251 d93b 1c61 953d
00000070: 1d5c 063d 2eab 7cbc 3a02 503d a16e 9c3d
00000080: 6966 2f3c 1a64 0bbd 1a83 93bd 6ccf 0fbd
00000090: efb8 5a3d 37f2 053d af60 bd3d 9ac6 24bd
000000a0: 516c 24bd fca9 9bbd 235d a73d acfb b13d
000000b0: 4c20 363d 5dc4 aebd df44 9abd 4d56 9a3c
000000c0: e960 8b3d 58d3 53bd f5a2 383b d8ff 8dbd
000000d0: 8d19 6a3d e13a 703d 9872 833d 8d9e b8bd
000000e0: a669 b93d 90c6 943d 3377 bf3d 271e e0bc
000000f0: 456a 563d 6750 c1bd dc2e 6cbd 0493 8cbd
00000100: 3ab5 c23d c344 7ebc 6df3 103d d36e 17bd
00000110: 77cd b73d 7b46 033d 39a4 b7bc 9a1c 31bd
00000120: 9f7c a5bd e91b c23d 620a 00bc 0863 373d
00000130: 42d2 65bc 9c0c 6cbc 16fb bbbc be2c 953d
00000140: a2b4 083d f90a 85bb 2453 8cbd fd51 adbd
00000150: 2d21 89bd ac5f 7dbd 7b22 bbbd 3712 a7bd
00000160: 0b2b 9bbc cbad 87bc f921 6dbd 6591 9dbd
00000170: a72a f2bc f37d aa3d 7705 6fbd 2b2f 87bd
00000180: 036c 83bc 61b8 8dbd c705 b8bd f0c8 093d
00000190: 25a6 4d3d cbcc a13c 8a0c a73d 2386 96bd
000001a0: f69f 933d 8f05 45bd c58b 12bd 97d9 bb39
000001b0: 01b1 2e3d 6fef 99bd cd4b b5bd abe5 983d
000001c0: 5113 883d 17b0 3abd 6799 963c 328a 6fbd
000001d0: 2a55 8a3d 84e1 a2bc 306b a5bd c446 8f3c
000001e0: 3d7c 953d a615 bfbd ba7e 643d 81ac 14bd
000001f0: d17f b93d d831 96bd 8d65 e43c 9a8a 18bd
00000200: e4c6 08bd 94fc 97bd 983b a1bd 6283 c3bd
00000210: c7da b3bd 8daf b7bd be67 95bd 2b19 9dbd
00000220: 7690 b43d 4f04 8d3d 3123 b63d 3c82 2b3d
00000230: 91c2 a9bd 06a9 993d c163 d1bb c221 b1bd
00000240: e307 b8bc 2081 b73d 6a34 5f3d 068d 81bd
00000250: 3c77 8bba 2a05 673d 6c36 1cbd cba8 bebd
00000260: 54bc abbd 0352 0abc 7736 373d cadc bdbd
00000270: 70f8 cbbd 617c 4abc 48b2 8e3d 9f0b 153d
00000280: 79fc fabb e5a9 063d 4552 f8bc 04e6 b2bc
00000290: 314f a03c 9349 a03c 5450 b6bd 3dce 313d
000002a0: 6787 3ebd f433 253c ae3a 8d3d 09c2 8bbd
000002b0: f73b 5a3d 17a9 a4bd 48fb 1dbd 0161 16bc
000002c0: 1a4b b6bc c98c 01bd 542d 063d 23f9 67bd
000002d0: 9e80 8c3c 1c70 ba3d 85f7 e4bc 8f8a 5f3d
000002e0: e47d 8d3d 2170 b93d 1ba0 11bd 4a8d 133d
000002f0: 57f9 973d bd1b 9fbd 7468 97bb 309f 3fbc
00000300: 423f ad3d 5fed bc3c cb57 ed3c 9af2 e73c
00000310: 9428 c3bd d7fc 293d 98a3 063d 65df fcbc
00000320: 1d35 8cbd 8801 833d 5861 813d 1383 5cbd
00000330: 0d3a b7bd 6f83 993d 5301 1e3d 9060 893c
00000340: e82c 8bbc 0b4c c6bc 73f9 5cbd ceaa a43d
00000350: 21fc 5e3c de97 8c3d 6cda f43c a863 a93b
00000360: a6de 66bc 6018 273d a0f0 83bd 27cb 833d
00000370: ce20 afbd 6ea2 cabd 3f40 4f3d 1eff 773d
00000380: bd4a 7cbb 05c4 2bbd 1cf1 80bd b63f b43d
00000390: bf92 a73d 3bd3 97bd 7c34 973d b5d6 873d
000003a0: f206 cc3d c4ab fb3c da3f 87bd 7822 c43d
000003b0: 9c93 ccbd 91b2 30bd 9301 c93d db58 cabd
000003c0: 1808 ae3d b779 753d d8da b6bd 8776 3ebd
000003d0: 352c 2f3d c84a 5a3d c99b b13d 51bc 6e3d
000003e0: fbc7 a33d dbad b6bd 91ec 86bd 8a00 893d
000003f0: 4d6d b1bc 58b4 c53d cd92 063d f76e 8fbd

gru.bias_ih_l0 f4 [300]
0.07789403 0.030784817 0.08899639 0.013940833 -0.008449363 -0.09146849 -0.0950953 -0.08505752
-0.0955457 0.0088869305 -0.08101373 -0.088031515 -0.07916225 -0.09722354 0.053351544 -0.036923453
-0.04129825 0.0036991676 -0.053121682 -0.079781786 -0.034737583 0.028788494 0.07839379 0.09311221
-0.044717763 -0.025049886 0.040033065 0.06066842 -0.0014766407 -0.018064853 0.04871069 -0.09776059
0.025691958 0.047445264 0.029060736 0.07922767 0.045966662 0.060707975 -0.019827055 -0.028453024
-0.009607438 0.07454433 0.09036358 0.076688536 0.06862686 -0.023106214 0.024898099 -0.013001161
-0.062194314 0.06432963 -0.08613819 0.026395699 -0.0023254256 0.07570572 0.07346124 -0.07532058
0.07082644 -0.05739122 -0.041149303 -0.07894687 -0.07015973 0.09726023 0.07364944 0.070004895
0.0031201425 0.09746955 0.012228422 -0.07037255 0.06210719 -0.02923474 0.014693608 0.053897355
0.06204926 0.050146084 -0.09085715 -0.049751036 -0.047130767 -0.01864298 0.032426886 0.07701194
0.010080445 0.066875964 -0.002530316 -0.098130286 -0.006791194 0.03665376 0.025039943 0.077421814
-0.05464466 0.08334301 -0.0390036 -0.017355328 -0.08064786 -0.07344278 -0.0077573773 0.020275328
0.06090805 0.046685126 0.08414747 -0.079408266 -0.057127144 0.091314204 0.043556165 0.089697815
-0.00893654 0.06337505 0.09037836 -0.032694247 0.07009225 0.017621418 -0.077441424 -0.051746815
0.030478565 -0.09590671 -0.009411565 0.08488012 0.07686178 -0.030542895 -0.0002409884 0.081204616
-0.08612385 -0.027551252 0.09312755 -0.0943909 0.053223465 0.097433925 0.024122216 0.050998412
0.063839585 0.008102828 -0.024979336 -0.08730359 0.08249786 -0.08268118 0.06317618 0.0073085525
0.046229415 -0.067550614 -0.06443745 0.06635402 -0.044717647 -0.0042953375 0.062752254 0.093809515
-0.071394935 -0.06523176 -0.048976965 -0.058138944 0.05563844 -0.025028298 0.0794241 -0.08726887
0.03699472 0.029316172 0.02487579 -0.096258305 0.012277757 0.016060483 -0.067209005 -0.0139460545
-0.028187368 0.05015065 0.050716113 0.084909774 -0.011687455 0.010465668 0.077486955 0.053541098
-0.08796543 0.092985824 0.011031433 -0.031574883 0.051504936 0.055300258 0.0735161 0.01393313
-0.040251613 0.057519026 -0.07259468 0.077529676 0.06720768 -0.07692289 0.057037063 0.0668477
0.026183853 0.0596839 0.06340258 -0.0130638 -0.014507796 0.024833659 -0.013921471 -0.07782161
-0.031136118 0.02823516 -0.048143923 -0.015175695 -0.05986234 0.044705015 0.06079424 -0.031601638
-0.06338587 0.010266051 -0.02613514 0.06359117 0.07023272 -0.08910402 -0.048121504 0.027254526
0.07322724 -0.06629694 0.019614816 0.055661295 -0.0019095956 -0.07193885 0.06996214 -0.07865577
-0.090211935 0.017401427 0.06651965 -0.040556476 -0.046352737 -0.07429808 -0.01002953 -0.04648399
-0.031783264 -0.020983135 0.06163727 -0.07824069 -0.020178083 0.07748224 -0.081145935 -0.08765602
0.0396831 0.025206119 -0.06827836 -0.082836084 0.053509336 -0.087695345 -0.00068847823 0.07603184
-0.006085096 0.03194752 -0.03347222 -0.010025811 -0.08267761 0.047374137 0.0016877586 0.006164604
-0.027123032 -0.065645374 0.07253729 -0.029686984 0.0037777259 0.027892577 -0.07185285 0.037810795
00000000: e886 9f3d 7130 fc3c bd43 b63d 1768 643c
00000010: 326f 0abc d553 bbbd 53c1 c2bd a332 aebd
00000020: 77ad c3bd 7d9a 113c 87ea a5bd de49 b4bd
00000030: d11f a2bd 231d c7bd 2687 5a3d 0c3d 17bd
00000040: 5b28 29bd bc6d 723b 1f96 59bd a264 a3bd
00000050: ff48 0ebd d9d5 eb3c ec8c a03d 9db1 be3d
00000060: f929 37bd 6b35 cdbc b6f9 233d 737f 783d
00000070: d78b c1ba befc 93bc dc84 473d b436 c8bd
00000080: f177 d23c f755 423d c810 ee3c 1e42 a23d
00000090: 8a47 3c3d eda8 783d 596c a2bc 5116 e9bc
000000a0: 8468 1dbc b3aa 983d 8a10 b93d e10e 9d3d
000000b0: 3d8c 8c3d 3e49 bdbc 19f7 cb3c d202 55bc
000000c0: 77bf 7ebd 41bf 833d 3869 b0bd cb3b d83c
000000d0: 2b66 18bb 9a0b 9b3d d972 963d ad41 9abd
000000e0: 740d 913d 0e13 6bbd 2c8c 28bd e6ae a1bd
000000f0: e8af 8fbd 5f30 c73d 85d5 963d ba5e 8f3d
00000100: 4e7b 4c3b 1e9e c73d b859 483c 7c1f 90bd
00000110: 1c64 7e3d b27d efbc 75bd 703c 79c3 5c3d
00000120: 5d27 7e3d fb65 4d3d 5013 babd bec7 4bbd
00000130: 310c 41bd 2ab9 98bc 0ed2 043d 70b8 9d3d
00000140: 7328 253c 44f6 883d a8d3 25bb 88f8 c8bd
00000150: aa88 debb 4122 163d 9120 cd3c 548f 9e3d
00000160: 14d3 5fbd bdaf aa3d 3dc2 1fbd c32c 8ebc
00000170: b52a a5bd 2b69 96bd 9931 febb 7218 a63c
00000180: b87a 793d e738 3f3d 8255 ac3d cda0 a2bd
00000190: 27fe 69bd f102 bb3d f367 323d 7db3 b73d
000001a0: 916a 12bc c7ca 813d 4a18 b93d 67ea 05bd
000001b0: 878c 8f3d cb5a 903c 9c99 9ebd 78f4 53bd
000001c0: 2fae f93c bd6a c4bd f732 1abc a1d5 ad3d
000001d0: b569 9d3d 1835 fabc d5b1 7cb9 9b4e a63d
000001e0: b361 b0bd 2ab3 e1bc a8b9 be3d 0450 c1bd
000001f0: d900 5a3d 708b c73d f49b c53c b6e3 503d
00000200: 54be 823d b9c1 043c 77a1 ccbc 39cc b2bd
00000210: a3f4 a83d c054 a9bd 8362 813d 957c ef3b
00000220: 0e5b 3d3d fa57 8abd c8f7 83bd 9ee4 873d
00000230: da29 37bd e7bf 8cbb 4184 803d 341f c03d
00000240: 8237 92bd 3b98 85bd 129c 48bd 1a23 6ebd
00000250: 22e5 633d 2508 cdbc 1aa9 a23d 05ba b2bd
00000260: c787 173d 7828 f03c 50c8 cb3c 1323 c5bd
00000270: a528 493c 4691 833c e0a4 89bd fe7d 64bc
00000280: 32e9 e6bc c56a 4d3d b3bb 4f3d 2de5 ad3d
00000290: bd7c 3fbc 3178 2b3c 7bb1 9e3d e94d 5b3d
000002a0: 3827 b4bd 5a6f be3d 2fbd 343c aa54 01bd
000002b0: d7f6 523d 8682 623d 9c8f 963d c847 643c
000002c0: e0de 24bd 1299 6b3d 85ac 94bd e1c7 9e3d
000002d0: 2ea4 893d c089 9dbd b29f 693d 72e7 883d
000002e0: 857f d63c 1b77 743d 36d9 813d 8c09 56bc
000002f0: 1bb2 6dbc f56f cb3c e216 64bc f060 9fbd
00000300: 2c11 ffbc 6c4d e73c 9032 45bd 7aa3 78bc
00000310: 3732 75bd 9b1c 373d 6203 793d b870 01bd
00000320: 73d0 81bd f032 283c 5c19 d6bc 163c 823d
00000330: 2cd6 8f3d 2b7c b6bd 0e1b 45bd e244 df3c
00000340: 2af8 953d b1c6 87bd 40af a03c 19fd 633d
00000350: 654b faba ad54 93bd 4f48 8f3d 4716 a1bd
00000360: 09c1 b8bd 708d 8e3c 743b 883d 8c1e 26bd
00000370: 5edc 3dbd 9729 98bd e652 24bc ff65 3ebd
00000380: 2b2f 02bd d3e4 abbc 5d77 7c3d a83c a0bd
00000390: 824c a5bc 02af 9e3d d72f a6bd 0085 b3bd
000003a0: bf8a 223d 107d ce3c 86d5 8bbd f7a5 a9bd
000003b0: 9b2c 5b3d 9e99 b3bd fe7a 34ba 95b6 9b3d
000003c0: 7c65 c7bb 67db 023d 2b1a 09bd 4d43 24bc
000003d0: e152 a9bd 620b 423d c837 dd3a 7200 ca3b
000003e0: 1f31 debc 1571 86bd 6e8e 943d 1e32 f3bc
000003f0: b993 773b f97e e43c 9627 93bd 7edf 1a3d

gru.bias_hh_l0 f4 [300]
0.099293895 -0.027643995 -0.04161099 0.0031884762 0.08483053 0.09032832 0.09910752 -0.063850395
-0.08349853 0.0005029867 0.06855224 0.028738106 -0.06866255 0.02906151 -0.033317223 0.054556638
-0.01605421 0.0530365 -0.07096306 -0.09756295 -0.002863882 -0.00029937516 -0.09014755 -0.016959665
0.059226815 0.08437323 -0.03532882 -0.06822339 -0.047017302 0.08474629 -0.06602641 -0.022110583
-0.021019595 0.013096722 -0.07304493 0.0003071974 -0.07436432 0.0994894 -0.090214625 -0.063608706
-0.09598633 0.05638465 -0.040763017 0.03610401 0.04730255 -0.09400069 -0.049673177 0.017411178
-0.0044130194 -0.03159224 0.09435886 0.03185143 0.019532755 -0.0013898297 -0.025230851 0.0688409
0.0181737 0.0657166 0.08224733 0.079269364 0.017621575 0.030120114 -0.089003146 -0.01739281
-0.049322758 0.066071995 -0.077125974 0.040371493 0.009563624 -0.060428005 -0.05149618 0.086860076
0.03050213 -0.09868182 0.096420415 0.0624316 0.04490243 -0.07990274 -0.024823785 0.04576194
0.0901779 -0.01608582 0.007978895 0.06470855 0.08773155 0.0030869911 0.083902314 -0.051222157
0.069080494 0.015053858 -0.09709606 -0.0014936739 -0.06560077 -0.038788732 0.027549317 -0.06474432
-0.086962156 -0.08870022 0.06609946 -0.06320377 0.073809244 0.0041646985 -0.06531583 0.051352683
0.06754594 -0.010237641 -0.0019925158 -0.008795943 0.07269993 -0.0016289719 0.012880843 -0.06267794
0.08004911 -0.055884495 0.058949683 -0.0971044 -0.020140283 0.0005365756 0.09060079 -0.0058969394
0.07135013 -0.07901811 -0.0077528786 0.0776071 0.062366106 0.00922715 -0.07551993 -0.050015405
-0.04238148 -0.02489892 -0.06169875 0.02795796 -0.0992041 0.062373374 -0.00097113184 -0.05502644
-0.031376906 0.086271256 -0.08462957 -0.008995817 0.053381063 0.07246769 0.055120237 -0.08412296
0.08610695 0.097262315 -0.0037365602 -0.06443096 -0.047008045 -0.057514526 -0.08003348 -0.034970757
-0.054887153 -0.023511026 -0.08855209 -0.027456934 0.05227944 -0.07802959 0.05440617 -0.091773175
-0.003872975 0.09506452 0.09374246 0.0704114 0.016795946 0.06660008 -0.04719562 -0.013374405
-0.08275916 0.04592944 0.03569167 -0.0556781 0.02741187 0.027599195 -0.05015338 0.09643966
-0.085804485 0.050752066 0.0064953486 0.006716207 0.048228834 -0.040993698 0.0112793995 0.00032429886
-0.0024913158 0.08364734 0.06465327 0.08546104 -0.058840714 -0.035334665 0.038523737 -0.08399027
0.07988424 0.07757117 0.07808042 0.063229434 -0.08281447 -0.09272873 -0.005653072 -0.014329512
0.092277884 0.011260221 0.08556146 0.008492955 -0.098317795 -0.005907762 0.028311254 0.051120415
-0.08950689 0.0276808 -0.083181396 0.09734225 0.008916269 -0.0024011817 0.050188366 0.049111832
0.046842523 -0.09616088 0.021949835 -0.056577705 -0.032367717 -0.09440479 0.07570304 0.06786748
-0.05959691 0.08209382 -0.09533675 -0.013902721 -0.024786092 -0.032874804 0.010886518 -0.0327711
-0.059866797 -0.095072605 0.09520117 0.07130758 -0.02516432 0.014403862 0.0626396 0.01304604
-0.06414025 0.045447987 0.014499282 -0.00479929 -0.09833576 0.019723851 -0.06880744 -0.05188856
0.011315019 -0.072789825 -0.035677798 -0.03212394 0.09412758 -0.019151261 -0.023540739 0.090227194
00000000: 995a cb3d a975 e2bc 4970 2abd c1f5 503b
00000010: a1bb ad3d 0efe b83d e2f8 ca3d ffc3 82bd
00000020: 4701 abbd deda 033a 1e65 8c3d 2d6c eb3c
00000030: f39e 8cbd 6712 ee3c a477 08bd c876 5f3d
00000040: 1e84 83bc cd3c 593d 1555 91bd 15cf c7bd
00000050: f8af 3bbb 74f5 9cb9 479f b8bd ffee 8abc
00000060: d197 723d dfcb ac3d f4b4 10bd b4b8 8bbd
00000070: 3795 40bd 778f ad3d db38 87bd 4121 b5bc
00000080: 4931 acbc a293 563c 9598 95bd 560f a139
00000090: 524c 98bd 19c1 cb3d 72c2 b8bd 4845 82bd
000000a0: 7b94 c4bd 97f3 663d 1ff7 26bd cce1 133d
000000b0: 52c0 413d 6f83 c0bd 1a76 4bbd e3a1 8e3c
000000c0: 179b 90bb dd66 01bd 383f c13d a576 023d
000000d0: 2803 a03c f22a b6ba eeb0 cebc 75fc 8c3d
000000e0: 03e1 943c 6d96 863d 4a71 a83d fa57 a23d
000000f0: 1f5b 903c 75be f63c 4847 b6bd 5e7b 8ebc
00000100: a906 4abd c150 873d 39f4 9dbd 945c 253d
00000110: bfb0 1c3c 5b83 77bd a9ed 52bd b2e3 b13d
00000120: 9adf f93c b219 cabd 1178 c53d 47b8 7f3d
00000130: 9ceb 373d 0ca4 a3bd 405b cbbc df70 3b3d
00000140: 31af b83d 69c6 83bc e9b9 023c eb85 843d
00000150: 99ac b33d 1e4f 4a3b fad4 ab3d 53ce 51bd
00000160: 137a 8d3d 75a4 763c 4dda c6bd 61c7 c3ba
00000170: b259 86bd efe0 1ebd 1baf e13c ac98 84bd
00000180: 3719 b2bd 76a8 b5bd 275f 873d fa70 81bd
00000190: 4d29 973d 0678 883b 4ec4 85bd 3157 523d
000001a0: 8755 8a3d c7bb 27bc de94 02bb dc1c 10bc
000001b0: b3e3 943d 3a83 d5ba 2c0a 533c 4b5d 80bd
000001c0: caf0 a33d 24e7 64bd 3975 713d acde c6bd
000001d0: 3cfd a4bc fba8 0c3a e88c b93d 1d3b c1bb
000001e0: 0420 923d 3fd4 a1bd dc0b febb 79f0 9e3d
000001f0: 9a73 7f3d 792d 173c 31aa 9abd f4dc 4cbd
00000200: 3498 2dbd d2f8 cbbc d4b7 7cbd 1708 e53c
00000210: 852b cbbd 397b 7f3d 8e93 7eba 6863 61bd
00000220: 1285 00bd fcae b03d 4552 adbd 3163 13bc
00000230: 1aa6 5a3d f169 943d c2c5 613d a948 acbd
00000240: d758 b03d 7731 c73d 14e1 74bb 61f4 83bd
00000250: 828b 40bd 5a94 6bbd 98e8 a3bd 7f3d 0fbd
00000260: 5ad1 60bd 329a c0bc cc5a b5bd 5ded e0bc
00000270: f722 563d facd 9fbd 01d9 5e3d 93f3 bbbd
00000280: bdd1 7dbb 30b1 c23d 0cfc bf3d da33 903d
00000290: a797 893c 9f65 883d 3250 41bd 5220 5bbc
000002a0: a27d a9bd 8220 3c3d 6e31 123d b80e 64bd
000002b0: dc8e e03c b517 e23c a16d 4dbd 2882 c53d
000002c0: 43ba afbd 66e1 4f3d efd6 d43b a113 dc3b
000002d0: 998b 453d 02e9 27bd 3bcd 383c a806 aa39
000002e0: 5845 23bb 4c4f ab3d ef68 843d 3306 af3d
000002f0: f602 71bd 15bb 10bd 11cb 1d3d 1703 acbd
00000300: 599a a33d a2dd 9e3d a1e8 9f3d 6f7e 813d
00000310: a29a a9bd 8fe8 bdbd 683d b9bb 54c6 6abc
00000320: 30fc bc3d ca7c 383c d93a af3d 0926 0b3c
00000330: d75a c9bd e695 c1bb 01ed e73c a463 513d
00000340: 634f b7bd d8c2 e23c 025b aabd 605b c73d
00000350: 8b15 123c 255d 1dbb 5192 4d3d 7d29 493d
00000360: f2dd 3f3d ffef c4bd 24d0 b33c 06be 67bd
00000370: 0394 04bd 4c57 c1bd 320a 9b3d 1bfe 8a3d
00000380: e41b 74bd ce20 a83d ea3f c3bd 3dc8 63bc
00000390: 340c cbbc bba7 06bd 5e5d 323c fd3a 06bd
000003a0: e336 75bd 6db5 c2bd d5f8 c23d b509 923d
000003b0: 6725 cebc 2dfe 6b3c 3149 803d 0fbf 553c
000003c0: f75b 83bd ab27 3a3d 668e 6d3c 5d43 9dbb
000003d0: 4264 c9bd ea93 a13c eaea 8cbd 1989 54bd
000003e0: a162 393c d512 95bd e222 12bd 6494 03bd
000003f0: f6c5 c03d 1be3 9cbc 82d8 c0bc 09c9 b83d

gru.weight_ih_l1 f4 [300, 100]
-0.058073323 0.03428647 -0.036768734 -0.055852562 -0.059903417 -0.063112065 0.05289276 0.063479915
0.08883723 -0.0102448845 0.046601895 -0.0010071206 -0.05098058 -0.045211796 -0.08149026 0.030957047
-0.032597557 0.001755553 -0.034065578 -0.017859964 0.037562657 -0.096421264 0.045439027 -0.070324644
0.09742297 -0.0017297188 -0.006163038 -0.02237737 -0.033303987 0.0041101803 0.038738407 -0.0483909
-0.08952994 0.058390148 0.048537217 0.054277774 -0.0704796 0.040605858 -0.0084862765 -0.08603984
0.07337451 -0.0242775 -0.002155222 -0.07539414 0.08056974 0.08593393 -0.027351813 -0.04393419
0.03960174 0.08020131 -0.008947661 0.016858412 0.004091684 0.057484046 0.004633417 0.013603679
-0.01493657 -0.023992091 0.050039224 0.067403495 -0.026331367 -0.062169593 -0.077897005 0.0150296325
0.067864336 -0.07492559 -0.045114 -0.054989737 -0.07101564 -0.09402649 -0.009225732 -0.09947972
0.03638461 0.026493516 0.08114602 -0.0053083417 0.060177732 -0.01196627 -0.0939426 0.06525838
-0.0868311 -0.045638647 0.058003176 0.024932312 -0.052423317 -0.098354355 -0.006675345 -0.051974803
0.061540745 0.06551545 -0.060327433 0.08361472 -0.09608947 0.084156655 -0.08893592 -0.06567433
0.004272304 -0.036568537 0.059401784 0.03583704 -0.06415979 -0.0056768516 0.03802721 -0.041899104
-0.0870885 0.05675597 -0.061973017 0.011560364 0.08249552 -0.0122958 0.04024572 0.097054936
-0.028434962 0.04156175 -0.0017202133 -0.03228132 -0.020877434 -0.08519134 -0.030333776 -0.09221909
0.09118984 -0.06976172 -0.022107018 0.027688101 0.07765752 -0.045821473 0.026789598 -0.08887137
-0.007258066 0.011717808 0.04993046 0.078737676 0.06533888 -0.011198873 0.03552858 0.06851173
0.07739638 -0.093107775 -0.094338164 -0.004814318 0.08193105 0.04887136 -0.014874474 -0.07322956
0.028545316 -0.043968946 -0.07179509 0.07212878 -0.014098781 -0.04691239 -0.09307418 -0.00049635995
-0.036312897 0.08938107 0.05333283 -0.07389597 -0.06742069 0.06739099 0.03650623 0.091314524
-0.019127803 -0.05154058 -0.09537736 -0.017892297 -0.09841244 -0.03817638 0.09830924 -0.09278596
0.05720237 -0.073778875 0.04187286 0.089160696 -0.035576627 -0.0929224 0.057545766 0.088192254
-0.07774154 -0.028952904 0.0435159 -0.004325224 0.073438965 0.0109536 -0.09304964 0.09825338
0.06517562 -0.08174419 0.042668168 0.014029285 -0.045859955 -0.010056305 0.044433102 -0.0162089
0.0009853333 -0.012111714 0.019567484 -0.053304937 -0.030714773 -0.042579677 -0.040910464 -0.086035416
0.08677692 -0.06544242 -0.062265188 -0.064048626 0.06479442 -0.09667564 -0.014038445 0.026974976
0.0529151 -0.09197162 0.00606748 -0.028131315 0.09128385 -0.037131336 -0.054488275 -0.08651002
0.09456525 0.017524753 0.029572314 0.0012759572 -0.059701603 0.021400785 0.013389302 0.054266058
-0.0170594 -0.050367024 0.06777457 -0.09591627 -0.07115502 0.054834995 -0.04075349 0.03613347
0.057985555 -0.050400108 0.039396852 -0.08219234 0.021510122 0.034924727 -0.0043811454 -0.09919019
-0.06915542 -0.0503901 -0.02991888 -0.07681362 0.053808328 0.067199856 0.076108366 0.042530578
0.04450148 0.010399232 -0.01930539 -0.040465564 -0.06195381 0.06639857 -0.09185142 0.040079486
00000000: 4bde 6dbd f86f 0c3d d09a 16bd a8c5 64bd
00000010: 495d 75bd e640 81bd 14a6 583d c201 823d
00000020: 4bf0 b53d 29da 27bc a1e1 3e3d 5c01 84ba
00000030: 03d1 50bd 0130 39bd 5ee4 a6bd a299 fd3c
00000040: 0485 05bd 951a e63a 5988 0bbd 0f4f 92bc
00000050: 4ddb 193d 8378 c5bd 461e 3a3d 5e06 90bd
00000060: b285 c73d bbb7 e2ba 4ff3 c9bb bf50 b7bc
00000070: c369 08bd b1ae 863b 2aac 1e3d 8935 46bd
00000080: 795b b7bd 822a 6f3d f6ce 463d 5f52 5e3d
00000090: 9c57 90bd 5452 263d 060a 0bbc a835 b0bd
000000a0: 6045 963d 9ce1 c6bc a03e 0dbb 3e68 9abd
000000b0: bf01 a53d 21fe af3d e910 e0bc 56f4 33bd
000000c0: 6f35 223d 9640 a43d 3699 12bc a71a 8a3c
000000d0: 8813 863b 6474 6b3d ebd3 973b f7e1 5e3c
000000e0: 84b8 74bc 108b c4bc eef5 4c3d d80a 8a3d
000000f0: e1b4 d7bc 8ba5 7ebd 7788 9fbd d93e 763c
00000100: 75fc 8a3d 9672 99bd 75c9 38bd eb3c 61bd
00000110: a670 91bd f690 c0bd 8627 17bc 06bc cbbd
00000120: 0708 153d ee08 d93c e22f a63d 99f1 adbb
00000130: ed7c 763d 2d0e 44bc fa64 c0bd 2fa6 853d
00000140: 81d4 b1bd 97ef 3abd bd94 6d3d d93e cc3c
00000150: d5b9 56bd 026e c9bd dabc dabb 88e3 54bd
00000160: 2612 7c3d f72c 863d e619 77bd 323e ab3d
00000170: 8eca c4bd 535a ac3d 0924 b6bd 4380 86bd
00000180: affe 8b3b e4c8 15bd 494f 733d dcc9 123d
00000190: 3566 83bd e204 babb 6bc2 1b3d 659e 2bbd
000001a0: 755b b2bd f378 683d 6bd7 7dbd ae67 3d3c
000001b0: 69f3 a83d 5374 49bc b2d8 243d bdc4 c63d
000001c0: 70f0 e8bc a73c 2a3d c878 e1ba 6b39 04bd
000001d0: 2707 abbc cc78 aebd 8a7e f8bc 5ddd bcbd
000001e0: bdc1 ba3d 3cdf 8ebd c719 b5bc 28d2 e23c
000001f0: e80a 9f3d 4caf 3bbd dc75 db3c 3102 b6bd
00000200: 12d5 edbb 0dfc 3f3c e283 4c3d 3841 a13d
00000210: 64d0 853d 7a7b 37bc 6b86 113d e14f 8c3d
00000220: fe81 9e3d 4aaf bebd 5e34 c1bd 6dc1 9dbb
00000230: 77cb a73d 562d 483d 11b4 73bc 61f9 95bd
00000240: ded7 e93c c818 34bd 4e09 93bd 41b8 933d
00000250: 93fe 66bc 3527 40bd ad9d bebd 271e 02ba
00000260: d5bc 14bd 6c0d b73d 8773 5a3d c556 97bd
00000270: dc13 8abd 4a04 8a3d 8e87 153d 1c03 bb3d
00000280: e9b1 9cbc 371c 53bd 3555 c3bd de92 92bc
00000290: 768c c9bd d65e 1cbd 5b56 c93d 9106 bebd
000002a0: 084d 6a3d 6119 97bd e082 2b3d e299 b63d
000002b0: ccb8 11bd 194e bebd 1cb5 6b3d 249e b43d
000002c0: f536 9fbd a42e edbc ba3d 323d 9cba 8dbb
000002d0: 2b67 963d ba76 333c cf90 bebd 1139 c93d
000002e0: cc7a 853d 7f69 a7bd d1c4 2e3d 16db 653c
000002f0: a6d7 3bbd 33c3 24bc 7cff 353d 87c8 84bc
00000300: 4d26 813a 3670 46bc fd4b a03c 4756 5abd
00000310: 8c9d fbbc 0768 2ebd bb91 27bd 5633 b0bd
00000320: 19b8 b13d ad06 86bd c809 7fbd ed2b 83bd
00000330: f0b2 843d e1fd c5bd 8201 66bc a0fa dc3c
00000340: 81bd 583d 9e5b bcbd b6d1 c63b a573 e6bc
00000350: 07f3 ba3d 0717 18bd 192f 5fbd 2a2c b1bd
00000360: 6dab c13d 1290 8f3c a341 f23c 053e a73a
00000370: ab89 74bd b350 af3c ce5e 5b3c 1646 5e3d
00000380: 28c0 8bbc a74d 4ebd 65cd 8a3d c06f c4bd
00000390: b9b9 91bd a99a 603d 22ed 26bd b000 143d
000003a0: 4382 6d3d 5870 4ebd 985e 213d 7554 a8bd
000003b0: ff35 b03c 3b0d 0f3d b68f 8fbb 3a24 cbbd
000003c0: 5ba1 8dbd d965 4ebd 7018 f5bc 7650 9dbd
000003d0: 1f66 5c3d 14a0 893d b4de 9b3d 8b34 2e3d
000003e0: 2f47 363d 8a61 2a3c 5626 9ebc 38bf 25bd
000003f0: 47c3 7dbd f9fb 873d 991c bcbd 632a 243d

gru.weight_hh_l1 f4 [300, 100]
-0.0498132 -0.045197845 -0.005748338 0.010885437 0.045786265 -0.08136953 -0.029427174 0.03812941
-0.07373963 -0.01085734 0.028067192 -0.098533645 0.049605075 0.060748383 -0.026147747 -0.074045986
0.09997387 0.05289983 -0.098837845 0.061764196 -0.004817101 -0.09381465 0.08422048 0.023240943
0.036014248 0.09131123 0.08475545 -0.08296523 -0.09360986 0.09682789 0.07777796 -0.07033498
-0.013173283 -0.08821144 0.09355172 0.06172381 0.029815702 0.054538447 -0.0005066413 0.026740063
-0.019738136 0.078853294 0.053212956 0.066648565 0.078887776 -0.03634381 0.056321755 -0.00961029
-0.07330506 -0.03282277 -0.029654877 -0.042124532 0.0137191815 0.08194924 -0.028640961 -0.09109846
0.0484375 -0.07508516 -0.030594168 -0.09838025 -0.06743513 -0.074307196 0.01171091 -0.02362435
0.06567566 0.09410326 0.03568378 0.039863378 -0.0499351 -0.038049936 -0.07755055 0.09105963
-0.075537056 -0.09993726 0.09631161 -0.0068793823 0.0881512 -0.009415454 0.080987096 0.0714655
0.05522111 0.029806264 -0.04834043 -0.039028373 0.06252729 0.03819508 0.03319755 -0.011155437
0.068641536 -0.062486418 0.045039885 -0.0581897 0.0852089 -0.093928844 0.035177775 0.058329567
0.014598309 0.035274155 -0.02575308 -0.080518305 0.04939733 -0.06413467 0.012044509 -0.015005891
0.06631266 0.09852609 -0.096936055 0.01782899 0.062532715 0.010081639 -0.016406931 0.005325204
-0.0938017 -0.003198118 0.0051301382 0.09469918 0.015557895 -0.09914947 0.03337429 -0.032163117
-0.0241778 -0.008998602 -0.043332614 0.029722027 0.023026675 -0.047711264 0.03529035 0.09317575
-0.046388645 0.034113787 -0.082363 -0.015903607 0.06906856 0.016110484 0.016559834 0.024678372
0.06308987 0.056305572 -0.0040202676 -0.0044214237 0.047992904 -0.012094577 -0.061596964 -0.020865522
0.039685454 -0.027789695 -0.07167225 -0.038260937 0.087640546 -0.028092805 0.040324204 -0.027838226
0.046136618 -0.044062015 0.009100184 -0.03474349 0.09047951 -0.03124736 -0.02623999 0.06707018
-0.05072559 -0.062236123 -0.009937859 -0.07317132 0.017520508 -0.037040945 0.074045785 -0.013666559
0.05252445 -0.018587744 0.031154031 0.020189874 -0.059284154 -0.062961325 0.0045032846 -0.093055084
0.06909021 0.025361892 -0.07680344 -0.07127198 -0.026037006 -0.08096465 0.02917921 -0.019694738
-0.044818316 -0.047458176 -0.03494833 -0.07898381 -0.090898454 -0.06253045 -0.0039643724 -0.049537417
-0.028016273 0.04137372 0.061620217 -0.0990732 -0.0065232697 0.066656195 0.031093216 0.032266434
0.07073862 -0.082530074 -0.05581865 -0.08207091 0.036402825 0.0116753355 -0.027956873 0.024668206
-0.060016535 -0.07410887 -0.036834724 -0.0049425955 0.027176253 0.08449755 -0.034370277 -0.020535037
-0.006955648 -0.08160584 -0.009633181 -0.024423817 -0.021649217 0.08160642 -0.070968226 -0.056864724
-0.019391533 -0.029778998 0.025738161 0.0943365 -0.020969246 0.03565181 0.054821856 0.06393706
-0.029148608 -0.07715794 -0.023187477 0.03826485 -0.035840165 0.0861926 0.023029443 0.06531038
-0.082889095 -0.04133888 0.09897738 0.025722995 0.026471363 -0.036425594 -0.09092222 -0.056267757
-0.039829466 0.089342676 -0.0051432336 -0.019011013 0.042766698 -0.092956126 -0.078105964 0.037525997
00000000: ed08 4cbd 6021 39bd 8e5c bcbb d558 323c
00000010: 618a 3b3d 11a5 a6bd 4211 f1bc 962d 1c3d
00000020: ce04 97bd fce2 31bc 2bed e53c 02cc c9bd
00000030: b12e 4b3d 4cd3 783d cd33 d6bc 6ca5 97bd
00000040: 1abf cc3d 7ead 583d 7f6b cabd 74fc 7c3d
00000050: c6d8 9dbb e521 c0bd c97b ac3d ca63 be3c
00000060: ad83 133d 6201 bb3d 4494 ad3d ade9 a9bd
00000070: 87b6 bfbd b34d c63d 0d4a 9f3d c90b 90bd
00000080: c1d4 57bc 33a8 b4bd 0b98 bf3d 1bd2 7c3d
00000090: 0f40 f43c b563 5f3d 1fd0 04ba fa0d db3c
000000a0: dfb1 a1bc d67d a13d d4f5 593d 0b7f 883d
000000b0: ea8f a13d 3fdd 14bd a4b1 663d 7a74 1dbc
000000c0: f720 96bd 2b71 06bd c9ee f2bc c68a 2cbd
000000d0: 6bc6 603c 01d5 a73d 73a0 eabc d491 babd
000000e0: 6666 463d 40c6 99bd 9fa0 fabc 967b c9bd
000000f0: 6e1b 8abd 5f2e 98bd 1edf 3f3c da87 c1bc
00000100: f680 863d 36b9 c03d 2829 123d c847 233d
00000110: bf88 4cbd 40da 1bbd d3d2 9ebd 797d ba3d
00000120: 2cb3 9abd e8ab ccbd 053f c53d 716c e1bb
00000130: 9e88 b43d 4743 1abc 90dc a53d 815c 923d
00000140: 882f 623d 442c f43c 9d00 46bd 37dc 1fbd
00000150: 4f0e 803d 7272 1c3d 27fa 073d 4bc5 36bc
00000160: ef93 8c3d c2f1 7fbd be7b 383d 5358 6ebd
00000170: 0182 ae3d c45d c0bd 9216 103d fcea 6e3d
00000180: bf2d 6f3c a27b 103d 20f8 d2bc c8e6 a4bd
00000190: db54 4a3d 0a59 83bd 5556 453c 45db 75bc
000001a0: efce 873d 0cc8 c93d 6986 c6bd 1a0e 923c
000001b0: 2711 803d 752d 253c d467 86bc 0d7f ae3b
000001c0: 1b1b c0bd 8497 51bb b81a a83b a5f1 c13d
000001d0: 8be6 7e3c e10e cbbd 7bb3 083d 79bd 03bd
000001e0: 8610 c6bc df6e 13bc 8a7d 31bd 9c7b f33c
000001f0: 70a2 bc3c e36c 43bd 9d8c 103d edd2 be3d
00000200: 0502 3ebd e6ba 0b3d efad a8bd 4848 82bc
00000210: d173 8d3d 22fa 833c 7da8 873c 4c2a ca3c
00000220: 4335 813d aca0 663d 73bc 83bb 97e1 90bb
00000230: 3594 443d 5528 46bc 194d 7cbd 2cee aabc
00000240: 378d 223d 37a7 e3bc e7c8 92bd 80b7 1cbd
00000250: e37c b33d e222 e6bc fe2a 253d fe0c e4bc
00000260: c0f9 3c3d 5f7a 34bd f018 153c 314f 0ebd
00000270: 524d b93d 77fa ffbc 3ff5 d6bc 175c 893d
00000280: a3c5 4fbd 4eeb 7ebd 67d2 22bc d8da 95bd
00000290: 2b87 8f3c 3fb8 17bd 51a5 973d b4e9 5fbc
000002a0: e123 573d 5345 98bc bd36 ff3c 3c65 a53c
000002b0: f1d3 72bd def1 80bd 4a90 933b aa93 bebd
000002c0: 2b7f 8d3d bec3 cf3c 1f4b 9dbd 0bf7 91bd
000002d0: 8f4b d5bc cbd0 a5bd 3d09 ef3c dc56 a1bc
000002e0: 6993 37bd 8163 42bd fb25 0fbd 44c2 a1bd
000002f0: f828 babd f70f 80bd 91e7 81bb bfe7 4abd
00000300: 6282 e5bc 7d77 293d 7b65 7c3d e4e6 cabd
00000310: 27c1 d5bb 0b83 883d 33b7 fe3c cf29 043d
00000320: 69df 903d 8705 a9bd 19a2 64bd cb14 a8bd
00000330: 211b 153d e849 3f3c d005 e5bc fa14 ca3c
00000340: e6d3 75bd 64c6 97bd 02e0 16bd 7ff5 a1bb
00000350: bca0 de3c 0d0d ad3d d9c7 0cbd 1839 a8bc
00000360: 34ec e3bb f620 a7bd 7dd4 1dbc 7514 c8bc
00000370: b359 b1bc 4421 a73d ca57 91bd fcea 68bd
00000380: feda 9ebc 16f3 f3bc d6d8 d23c 7f33 c13d
00000390: b2c7 abbc a207 123d e28c 603d 6ff1 823d
000003a0: 10c9 eebc fb04 9ebd aaf3 bdbc 9abb 1c3d
000003b0: 23cd 12bd bf85 b03d 3ea8 bc3c 73c1 853d
000003c0: c2c1 a9bd f552 29bd a7b4 ca3d 08b9 d23c
000003d0: 79da d83c 0133 15bd 6e35 babd 0579 66bd
000003e0: 3924 23bd 4bf9 b63d 9288 a8bb fcbc 9bbc
000003f0: 222c 2f3d c85f bebd 05f6 9fbd dcb4 193d

gru.bias_ih_l1 f4 [300]
0.070233904 0.062979124 -0.05650463 -0.07875143 -0.047180418 0.09210606 0.08420053 -0.046740822
0.037765432 0.099693246 -0.05576525 0.086706825 0.06899465 0.021789651 0.082005836 -0.08832653
0.042370345 -0.08189762 -0.08154728 0.0628991 -0.025146998 -0.055560995 -0.02885751 -0.08164134
-0.09480467 -0.062561095 -0.010608692 0.09184906 -0.09201051 -0.023196382 -0.045200605 -0.05837617
-0.049008124 0.0055391598 -0.088324614 -0.065584034 -0.054067917 -0.041568484 0.040378872 -0.07908793
0.037472505 0.085668944 0.095025405 -0.01083724 -0.05465967 0.0064976867 0.008793998 0.0853261
-0.087411664 0.01416705 -0.06258142 0.01647531 0.08898175 0.054347187 -0.052951306 0.0013251225
-0.034772284 -0.06800606 -0.092505105 0.03470389 -0.027751762 0.06339331 0.07043075 0.0758482
-0.06293541 0.04663989 0.034036495 0.038685918 -0.0020128293 0.01351751 -0.062741295 -3.818835e-05
0.083595194 0.036808096 -0.029690042 0.06968822 -0.034698755 0.096909314 -0.069002345 0.04799623
0.038329586 0.06983439 -0.057574507 -0.040458266 -0.027403045 0.0044884183 -0.050596002 -0.0718396
0.042894226 0.08621435 -0.07737436 -0.0413968 -0.053975936 -0.024916133 -0.09316904 0.050218463
0.045482602 0.011947259 0.07034601 -0.012726692 0.07633485 -0.033834025 0.0041290345 0.07826678
0.094919 -0.03649824 -0.0074786968 0.05431245 0.0921446 -0.03442882 -0.06898162 -0.077598736
0.00017044318 0.058187768 -0.028453862 0.053840403 0.0033045372 0.094380476 0.017547049 0.003559378
-0.045779604 -0.06904014 0.05682306 0.052818246 -0.05006137 0.034146108 0.044248942 -0.042393226
-0.005984751 0.061874315 0.015300669 0.050235067 -0.07932721 0.058652945 0.05743211 -0.014700495
-0.044502564 0.054023404 -0.074318685 0.01274894 0.038058262 -0.05307118 0.023268543 0.008831712
0.042054214 0.083072014 0.00039453193 -0.009085073 0.045334294 0.027896957 -0.019121857 0.09225356
-0.08199961 -0.095630944 -0.046950888 0.06136676 -0.013296548 -0.014668651 -0.067863174 0.08974343
0.0072051263 0.034832455 -0.030927654 -0.06365146 -0.075751655 0.07896282 -0.027361767 -0.033898
0.040213414 0.09431866 0.019235892 -0.044695828 0.015960483 0.08012496 0.07637836 0.0167675
0.021405464 0.05829092 0.029169342 -0.07729869 0.04341971 -0.040029276 0.060367033 0.035405997
-0.09511475 0.025608273 -0.05178131 0.09933233 0.07899657 0.059260603 0.07498798 -0.07514385
-0.07814171 0.059438977 0.065264225 0.02992981 -0.08433547 -0.024433712 0.05143879 -0.07822489
0.06676494 -0.00087303214 -0.008049074 0.06535129 -0.055573687 -0.09727418 0.08180021 -0.07763602
0.09275443 -0.05287693 0.076507695 -0.07999654 -0.032814115 0.024966042 0.03509889 0.0063446183
0.021806108 0.0716329 0.07094474 0.09676043 -0.092041545 -0.06861411 0.008595321 -0.0008669755
-0.020275975 -0.08263167 0.04307775 0.07206304 0.018934455 0.06198282 -0.028324537 0.043583617
0.06664639 -0.07694229 -0.03373471 -0.027653564 0.00030690935 0.09086474 0.025486605 -0.04961596
-0.012708966 -0.09662529 -0.01537641 0.02735908 0.08257012 0.047140647 0.057326756 -0.05567223
0.09315462 0.05178509 0.03474734 0.060860194 0.04006017 -0.041924674 -0.0068894513 -0.02848116
00000000: cbd6 8f3d 33fb 803d 6671 67bd 6e48 a1bd
00000010: 4140 41bd 1aa2 bc3d 5471 ac3d 4e73 3fbd
00000020: edaf 1a3d f92b cc3d 1a6a 64bd 5993 b13d
00000030: 114d 8d3d 3680 b23c adf2 a73d 8ae4 b4bd
00000040: 878c 2d3d f0b9 a7bd 4302 a7bd 3ed1 803d
00000050: 1401 cebc ed93 63bd 9666 ecbc 9333 a7bd
00000060: f328 c2bd 0820 80bd 14d0 2dbc 5c1b bc3d
00000070: 0270 bcbd 5706 bebc 4524 39bd da1b 6fbd
00000080: bebc 48bd d781 b53b 89e3 b4bd ec50 86bd
00000090: 5276 5dbd b743 2abd 5164 253d daf8 a1bd
000000a0: c57c 193d 3373 af3d ae9c c23d ae8e 31bc
000000b0: d1e2 5fbd 8cea d43b b314 103c 73bf ae3d
000000c0: e304 b3bd ea1c 683c b02a 80bd 3bf7 863c
000000d0: 103c b63d 289b 5e3d 78e3 58bd bcaf ad3a
000000e0: 626d 0ebd c346 8bbd 5173 bdbd ab25 0e3d
000000f0: aa57 e3bc 5ad4 813d ff3d 903d 4d56 9b3d
00000100: 48e4 80bd 7809 3f3d da69 0b3d 2075 1e3d
00000110: ace9 03bb 8c78 5d3c 827e 80bd 6e2c 20b8
00000120: f533 ab3d 16c4 163d 8838 f3bc b3b8 8e3d
00000130: 4820 0ebd 6478 c63d 1a51 8dbd b297 443d
00000140: 7cff 1c3d 5505 8f3d 3fd3 6bbd 91b7 25bd
00000150: 5a7c e0bc 9513 933b c13d 4fbd a420 93bd
00000160: dbb1 2f3d 2691 b03d 7376 9ebd b18f 29bd
00000170: df15 5dbd eb1c ccbc 69cf bebd e0b1 4d3d
00000180: f74b 3a3d 70be 433c 9211 903d 9d83 50bc
00000190: 7255 9c3d 8c95 0abd da4c 873b 554a a03d
000001a0: e564 c23d 2e7f 15bd db0f f5bb bb76 5e3d
000001b0: 4fb6 bc3d 3c05 0dbd 3c46 8dbd 16ec 9ebd
000001c0: feb8 3239 4c56 6e3d 1318 e9bc c187 5c3d
000001d0: ef90 583b 8d4a c13d d4be 8f3c 7444 693b
000001e0: 6583 3bbd eb64 8dbd 4cbf 683d f257 583d
000001f0: 270d 4dbd cadc 0b3d 613e 353d 85a4 2dbd
00000200: bb1b c4bb ec6f 7d3d a8af 7a3c 49c3 4d3d
00000210: 4e76 a2bd 123e 703d ef3d 6b3d 58da 70bc
00000220: 5248 36bd a547 5d3d 6534 98bd eee0 503c
00000230: fbe2 1b3d 2a61 59bd ac9d be3c e3b2 103c
00000240: 0a41 2c3d a921 aa3d 2ed9 ce39 8fd9 14bc
00000250: 74b0 393d 2988 e43c 71a5 9cbc 6fef bc3d
00000260: 69ef a7bd 28da c3bd 934f 40bd b65b 7b3d
00000270: c4d9 59bc c854 70bc d9fb 8abd 67cb b73d
00000280: fb18 ec3b 7aac 0e3d fe5b fdbc b25b 82bd
00000290: af23 9bbd 42b7 a13d c925 e0bc a1d8 0abd
000002a0: d2b6 243d 242a c13d 9794 9d3c f912 37bd
000002b0: 8fbf 823c 8e18 a43d 426c 9c3d ff5b 893c
000002c0: 835a af3c 76c2 6e3d 8bf4 ee3c c74e 9ebd
000002d0: ded8 313d bdf5 23bd 6c43 773d e105 113d
000002e0: 86cb c2bd 71c8 d13c a418 54bd c06e cb3d
000002f0: f4c8 a13d 3fbb 723d 4c93 993d 05e5 99bd
00000300: c308 a0bd 4976 733d 40a9 853d 5c2f f53c
00000310: 13b8 acbd 3529 c8bc 7bb1 523d 5f34 a0bd
00000320: 0fbc 883d 32dc 64ba 43e0 03bc e6d6 853d
00000330: 3ca1 63bd af37 c7bd de86 a73d a2ff 9ebd
00000340: 09f6 bd3d 7b95 58bd 11b0 9c3d 3ad5 a3bd
00000350: 1868 06bd 9685 cc3c dbc3 0f3d 84e6 cf3b
00000360: b9a2 b23c 45b4 923d 7a4b 913d 552a c63d
00000370: 4780 bcbd 8e85 8cbd 64d3 0c3c be45 63ba
00000380: cd19 a6bc cb3a a9bd 4b72 303d ca95 933d
00000390: 6e1c 9b3c b3e1 7d3d dc08 e8bc bc84 323d
000003a0: e77d 883d eb93 9dbd 682d 0abd ba89 e2bc
000003b0: ade8 a039 4b17 ba3d 49c9 d03c 1b3a 4bbd
000003c0: 4439 50bc 7be3 c5bd 57ed 7bbc 2620 e03c
000003d0: 861a a93d 8d16 413d 76cf 6a3d 9008 64bd
000003e0: d9c7 be3d 9a1c 543d 3a53 0e3d 8a48 793d
000003f0: 2216 243d 35b9 2bbd e8c0 e1bb 5251 e9bc
