KGs/carcinogenesis/model weights/LSTM_{_n_layers_ 2, _n_hidden_ 100, _input_size_ 40, _out_size_ 4}_.pt (torch, 576353 bytes, 16 tensors)

lstm.weight_ih_l0 f4 [400, 40]
000000 25 42 bd bc 60 3b 9b 3d a0 d9 74 bd d5 17 ae 3d
       -0.02310283 0.07579684 -0.059777856 0.08500639
000010 c1 6f 18 3c 50 77 0e 3c 60 cf 5a bc af e0 29 bd
       0.009303988 0.0086954385 -0.013355106 -0.04147404
000020 14 10 9a 3d 4a 39 b5 bc c6 5d 9b 3d c8 0f 92 bd
       0.07522598 -0.022122044 0.07586245 -0.07131916
000030 90 ab 8b 3d e5 83 15 bd da 47 bc 3d 2d 95 9e bd
       0.06819832 -0.036502738 0.09193392 -0.07743297
000040 27 c9 8b bd b0 cd fc bc be 63 47 bd 92 4c 4c bd
       -0.06825476 -0.030859798 -0.048679106 -0.04987771
000050 35 c4 c7 3c e0 f0 77 bd b7 cc 84 bc 92 c4 30 bc
       0.024385551 -0.06053245 -0.016210897 -0.0107890535
000060 0e 5b 30 3d b9 d2 65 bd 2b eb b0 3d 52 ca 2c bc
       0.043055587 -0.056109164 0.08638605 -0.010546284
000070 37 76 11 3d b9 b8 fa bb 94 aa b2 3b 91 2f c7 bd
       0.03551313 -0.007651415 0.0054524634 -0.097258694
000080 28 a7 00 bc 77 4d 95 bc e8 a3 93 3d 57 91 c3 bd
       -0.007852353 -0.018225415 0.07208997 -0.09549206
000090 8a 57 3d bd 4d 14 a2 bd 0c 9c 3c 3d 8f c7 89 ba
       -0.046226062 -0.07914028 0.046047255 -0.0010511744
0000a0 fd 82 04 bd 47 70 bf 3b 9e 9e 4d 3a 30 87 37 3d
       -0.032351483 0.005842242 0.0007843765 0.04480666
0000b0 5c b3 55 bd f0 a2 9b 3d 17 e7 03 bd b9 13 bb 3d
       -0.052173004 0.07599437 -0.032202806 0.09134621
0000c0 ee 67 e2 3c 8a 0d e8 3c 39 d4 be 3d dc 7b bf 3c
       0.027637448 0.028326768 0.09317822 0.02337449
0000d0 04 23 b1 3d c4 56 aa 3c da dc 09 3d e5 35 7a bd
       0.08649257 0.020793326 0.033657886 -0.061086554
0000e0 37 6a 1a bd 75 0f ca 3c 12 fd c5 bd d2 42 86 bd
       -0.03769895 0.024665574 -0.0966741 -0.06555714
0000f0 06 c8 02 3d 50 04 ba bd 2a 75 0b 3b 27 63 90 bc
       0.03192904 -0.09082854 0.0021279552 -0.017625405
000100 bf 89 8d bd ec 2c 41 3d f0 c9 ed 3c 89 a5 91 bd
       -0.069110386 0.04716198 0.029026955 -0.071116515
000110 f5 2e f8 3c a0 18 ba bd c1 72 c7 3d 17 9f 5c 3d
       0.030295828 -0.09086728 0.097386844 0.053862657
000120 d7 62 86 3d a6 5b b3 bb 6e ff e4 bb 40 73 9b 3d
       0.06561821 -0.005473572 -0.0069884574 0.075903416
000130 15 1a 9a bd ed f9 a1 bd ad a8 92 bb ec 4c 92 3c
       -0.07524506 -0.07908998 -0.004475674 0.017858945
000140 78 53 e1 bc cc ba c1 3d 4b 23 b6 3d c4 9b 0c 3c
       -0.027505621 0.09459457 0.0889345 0.008582059
000150 11 e6 76 3c d9 55 b6 bd 4f a6 ab 3d ca 7c 10 bd
       0.015069501 -0.08903093 0.0838133 -0.035275258
000160 48 64 a3 bd 42 08 86 bd c4 e5 c6 bd c4 74 bc 3d
       -0.079781115 -0.06544544 -0.09711793 0.09201959
000170 5d 64 8e 3c 80 17 8e 3d 16 7b c2 3a 77 93 2f bd
       0.017381841 0.06938076 0.0014837708 -0.042865243
000180 57 2f be bd 91 36 8d 3b 40 80 f7 bc fa 6e d1 3c
       -0.09286373 0.0043094833 -0.030212522 0.025565613
000190 98 95 37 3c d0 43 96 3d 6b 59 8d bd 2b b4 ac 3d
       0.0112050995 0.07337153 -0.06901821 0.08432802
0001a0 77 68 83 3c 41 43 7d bd 39 32 07 bd 02 82 ba bc
       0.016041024 -0.061831716 -0.03300688 -0.02276707
0001b0 02 0f 59 3d 31 08 ae bb d0 bd d7 bc aa e3 56 3b
       0.05299283 -0.005311035 -0.026335627 0.0032789507
0001c0 2e 0b 6f bc 70 c7 90 bd 76 f2 31 3d 03 28 16 3d
       -0.014590068 -0.0706929 0.04344412 0.036659252
0001d0 5a 31 1e bd 20 2b 4b bd 2c 05 cb 3d ec ca aa 3d
       -0.038621284 -0.049601674 0.09913096 0.083394855
0001e0 cd b1 b5 bd 98 26 a5 bd 37 86 99 bd f8 ba 9f 3c
       -0.088718034 -0.08064002 -0.074963026 0.019498333
0001f0 29 c9 7d 3d b6 a3 d8 bc ca c5 5d 3d 4f e3 99 bd
       0.06195942 -0.026445251 0.054143704 -0.07514059
000200 c2 25 ac 3c ba 85 b3 bd f1 38 8f 3d 27 7b 89 3d
       0.021014098 -0.08765741 0.069932826 0.067129426
000210 a1 db 26 3d 69 ca a7 bd 55 6b e6 bc 5d bf a5 3d
       0.0407368 -0.081929035 -0.028127352 0.0809314
000220 ef e9 d6 3c b6 6d c0 3d 69 cd 82 3d 97 9a 93 3c
       0.026234595 0.09395926 0.06386835 0.01801805
000230 de c5 69 bb 7f 2a 4d bc 67 e8 1a 3d c8 60 55 bd
       -0.0035670917 -0.012522339 0.037819292 -0.05209425
000240 7f 1d 19 3d 64 3f a5 bc 60 f4 04 3d 82 05 bc 3d
       0.037381645 -0.020171829 0.032459617 0.09180738
000250 4a 5d 88 bd 31 c6 41 bd 2e 0e ed 3c c7 b1 b5 3d
       -0.066584185 -0.04730815 0.028937425 0.08871799
000260 0b e3 95 3d 57 bf 1e 3d f9 00 b0 bd 47 9d 89 3d
       0.07318696 0.038756695 -0.085939355 0.067194514
000270 ce 6b 36 bd ac 41 8d bd 7e 9a 9f 3d 0e 94 7d bd
       -0.044536404 -0.068972915 0.07793139 -0.061908774
000280 e5 d0 78 3d af 34 d9 bc 85 bc ae bd 4d 9f c8 bd
       0.060746092 -0.02651438 -0.08532051 -0.09796009
000290 50 e1 a5 bd 6e 8f 1f bc 3b 97 a0 3d 58 30 04 bd
       -0.080996156 -0.009738786 0.07841345 -0.032272667
0002a0 b4 37 b8 bc 3f 71 39 3d f7 ce ca 3d 26 d1 1f 3d
       -0.022487499 0.045274016 0.09902757 0.03901782
0002b0 62 0c 8f 3c 76 9e b8 3b 71 e2 bc 3d 7e 5d 7e bd
       0.01746196 0.0056341244 0.09222878 -0.06210088
0002c0 2f da 9d bd ca c6 27 bd b1 c5 98 bc 81 c5 c4 bd
       -0.07707631 -0.040961064 -0.018648954 -0.096079834
0002d0 bf c6 2b 3d 98 6c 44 bc 2d db bd 3d df 5f 48 bc
       0.041937586 -0.011988781 0.0927032 -0.012229889
0002e0 90 f2 fa 39 d4 5e a8 bd 4b 30 c3 bd 60 66 dd bc
       0.0004786444 -0.08221212 -0.095306955 -0.027026355
0002f0 d5 e3 b5 3d e4 d1 83 bd 1a 68 8b bc ce 7f b5 bd
       0.08881346 -0.06436518 -0.017017413 -0.088622674
000300 0d 7c 72 bd 88 0b 0f 3d 55 2b 9c 3d 28 8e fa bc
       -0.059200335 0.034923106 0.076254524 -0.030585364
000310 d5 c7 65 bc 3c c4 98 bd 88 1c e7 ba b9 9d 76 3d
       -0.014024694 -0.07459304 -0.0017632404 0.06020901
000320 d2 d0 b8 bd 49 97 c4 bd 06 07 78 bd d0 55 98 3d
       -0.09024204 -0.09599168 -0.060553573 0.074382424
000330 22 75 af 3d 33 f0 36 bd be cc d9 3b 81 c7 b4 bd
       0.08567263 -0.044662666 0.0066467216 -0.08827115
000340 04 85 1d bd 1e 64 b1 bd 46 17 d2 bc f4 6a ad 3d
       -0.03845693 -0.08661674 -0.025645863 0.08467665
000350 67 5a bf bc c9 d0 60 bd 5b 7a 9f 38 5e 40 7f bd
       -0.023358537 -0.054886613 7.604501e-05 -0.062317245
000360 8e 7d c1 3d b8 9d a6 bc c8 ad 55 3d 43 d5 88 3c
       0.09447776 -0.020338878 0.052167684 0.016703254
000370 cf df b6 3d f4 7c 40 3d 02 21 4b bd 55 6f fd bc
       0.08929407 0.046994165 -0.049592026 -0.030936876
000380 19 d1 42 bd a2 69 85 bd a9 ce 7c 3d 6f 9e a5 3c
       -0.047562692 -0.065142885 0.061720524 0.020217149
000390 32 e0 10 bb 6c 69 c3 bd 18 a5 a6 bd 18 b0 0d 3d
       -0.0022106287 -0.09541592 -0.08136958 0.034591764
0003a0 5d 35 38 bd b6 60 0e bd b5 24 8d bb a4 38 97 3a
       -0.044972766 -0.0347602 -0.0043073543 0.0011537266
0003b0 86 be 32 3d ad b7 96 3d ab ce 98 3d 50 91 89 3d
       0.04363873 0.07359252 0.07461294 0.06717169
0003c0 5f 3c bc 3d 64 c7 85 bd fd 12 88 bd 09 82 23 3c
       0.09191202 -0.06532171 -0.06644247 0.009979733
0003d0 26 fc 8c 3d 50 8a 93 3d 0d b3 aa bc 25 03 6c bd
       0.06884031 0.072041154 -0.020837331 -0.057620186
0003e0 48 08 9d bd 6e 1c 62 3d 9b 94 c5 3d 78 b5 a0 3d
       -0.07667595 0.055202894 0.09647485 0.078471124
0003f0 f6 f1 67 3d 19 b6 ac 3d 8c ae 3c bc f5 d3 ab bd
       0.056627236 0.0843317 -0.011516225 -0.08390037

lstm.weight_hh_l0 f4 [400, 100]
000000 70 36 b9 bd 0d 3d b3 3d 76 7c 94 bd 2c 20 c5 3d
       -0.09043586 0.08751879 -0.072503015 0.09625277
000010 79 c2 cb ba 8f 7e 07 bd 4d 61 a1 3d c2 e6 18 bd
       -0.0015545628 -0.03307968 0.07879887 -0.037329443
000020 36 40 c1 3d 62 53 12 bd 5e 79 39 bd fa e4 64 3d
       0.094360754 -0.03572405 -0.04528176 0.05588243
000030 b4 3e 94 3d b4 5f 76 3d db db c3 bd 80 e7 b4 bd
       0.07238522 0.060149863 -0.095634185 -0.088332176
000040 95 98 eb ba 44 90 44 bb 0b f9 36 3d 8d 32 c8 3d
       -0.001797455 -0.0029993216 0.0446711 0.09775267
000050 0c 3b 69 3c 1b fb ff 3c 4c 84 ac bd cf 1b 61 bd
       0.014235269 0.031247666 -0.08423671 -0.05495816
000060 71 da 9f 3c e8 53 80 bd 93 5b ca bd 91 0d 5d 3c
       0.01951334 -0.06266004 -0.09880748 0.013492004
000070 d7 6e 73 bd cc 49 b1 bd 8d 9e 56 3d bf 52 74 3d
       -0.059431877 -0.08656654 0.0523973 0.059649225
000080 cf 75 2c 3d 9d fc 7e 3d ee 6e 28 bd 35 1b b8 3d
       0.04210454 0.06225263 -0.041121416 0.08989564
000090 db 1d 0c bd 90 65 9a bd 44 a2 bd bd 13 67 06 3c
       -0.03420816 -0.07538903 -0.09259465 0.008203286
0000a0 87 24 d7 3c 3b 3d 7e 3d 5a 47 68 bd c2 df 15 bd
       0.026262535 0.062070113 -0.05670867 -0.036590345
0000b0 ec 68 8d 3d ac 41 77 bd 97 39 33 bd 0a cf c2 bd
       0.06904778 -0.060365364 -0.043756094 -0.09512146
0000c0 30 2e 85 3d a2 06 6f bd b0 4c ae bd 34 06 4b ba
       0.0650295 -0.058355935 -0.08510721 -0.000774476
0000d0 3a 44 b4 3d 5f a8 b7 bb bf 14 8d 3d 30 ac 97 bd
       0.08802076 -0.005604788 0.06888723 -0.07405889
0000e0 0b 5c ac 3d 6b 91 d1 3b 40 c3 3d bd 25 38 26 3d
       0.08415993 0.006395509 -0.046328783 0.040580887
0000f0 f5 b8 69 3c 11 db 90 3c d3 33 6d bd 3d 3c 41 3d
       0.014265289 0.017682584 -0.05791075 0.04717659
000100 7a 47 c9 bd 0f f3 8a 3c 8a 07 a8 bd 0d 68 81 bd
       -0.09828086 0.016961602 -0.08204563 -0.06318674
000110 c4 65 21 bd 0b e6 3b 3d 23 b7 a5 3d 3f 06 11 3c
       -0.039403692 0.045873683 0.08091571 0.008851587
000120 ca 20 c0 bd 02 9a 91 bd ba da a8 bd ce 4d af bd
       -0.09381254 -0.07109453 -0.08244844 -0.08559762
000130 75 39 b9 3d 98 ac 7c 3d 6c 5c 0d bc d2 0c 30 3d
       0.09044162 0.061688036 -0.008627992 0.042980976
000140 da cb 27 3d f4 5d 19 3c b6 01 dd bc 10 d8 c6 bd
       0.040965892 0.009360779 -0.026978355 -0.097091794
000150 fd c9 c8 3c ac 06 2a bd 82 ba b0 3d 83 5c 09 bd
       0.024510378 -0.04151027 0.086293235 -0.03353549
000160 62 78 3f bd 23 91 a1 3d 36 e7 9a 3c 52 aa 39 3d
       -0.046745665 0.07889011 0.018909078 0.045328446
000170 31 75 26 3d d1 63 f2 3c 5a 54 23 3d f3 e9 82 3d
       0.040639106 0.029588612 0.039875366 0.063922785
000180 99 fd 7f bc 55 e6 fb bc 78 cd 8b 3c b9 b7 9c bd
       -0.015624427 -0.03074948 0.017065749 -0.0765223
000190 bb 5d c6 3d 83 f3 84 bb 24 3c b9 bd e5 47 a5 3d
       0.096858464 -0.004057349 -0.09044674 0.080703534
0001a0 72 c4 86 3d cf 64 fd bc 7c c9 a9 bd 5b 06 0b 3d
       0.06580438 -0.030931858 -0.08290383 0.033941608
0001b0 f0 39 35 ba 2f 5b bd bd 35 a0 6f 3b 13 90 df bb
       -0.00069132354 -0.092459075 0.0036563997 -0.006822595
0001c0 13 17 8d 3d 76 80 8d 3d e5 f1 81 3d 7e 73 ad bd
       0.06889167 0.069092676 0.06344966 -0.08469294
0001d0 89 d1 44 bb e7 5c 76 3d 63 05 1b bd 72 16 c4 bc
       -0.003003212 0.060147192 -0.037846934 -0.023936484
0001e0 26 38 fb bc 32 b6 9f bc 39 c9 04 bd e3 8a 8c 3c
       -0.030666422 -0.019496057 -0.032418463 0.01715607
0001f0 54 b2 0d bd b8 ee 09 3d cb 27 48 bd 0a 23 f0 3c
       -0.034593895 0.033674926 -0.048866075 0.029313583
000200 0b 36 1a bd 78 f8 91 3d 09 ec f0 3c 92 7d a0 bd
       -0.037649196 0.0712747 0.029409425 -0.07836451
000210 98 9b b1 bd 6f 79 4e bb 71 c6 ca bd 1b b9 c2 3d
       -0.08672255 -0.0031505486 -0.09901131 0.09507962
000220 d4 d1 71 3c b9 8f a9 3c ae ec 2a bd 1c eb a8 3c
       0.0147595 0.020698415 -0.04172962 0.020619921
000230 21 f2 9a 3d fb 27 48 bc fc 57 cb bd bc 0e 73 bd
       0.07565714 -0.012216563 -0.09928891 -0.059340224
000240 9b ae 16 3d b8 09 d1 bc 81 0b a8 bd a5 47 8e bb
       0.03678761 -0.02551733 -0.08205319 -0.004342037
000250 2d a3 c5 3c fb 76 7c bb 3d 22 ee bc 42 35 1d bd
       0.02412566 -0.0038523066 -0.02906906 -0.03838087
000260 f7 3c e2 3c cc 2e 91 bd ca 1f ff bc 8b 33 74 3d
       0.02761696 -0.07089004 -0.031143088 0.059619468
000270 7f f1 39 bd 15 fe 0f 3d 66 dc c4 3d 21 11 85 bd
       -0.045396324 0.03515442 0.0961235 -0.06497408
000280 27 78 c5 bd a6 39 6a 3d a6 a8 a0 3d 8e db 6a bd
       -0.09642058 0.057183884 0.07844667 -0.05733829
000290 a4 41 c1 3d 7c 67 14 3d aa cb 2e 3c b6 81 71 3d
       0.09436348 0.036231503 0.0106686745 0.058961593
0002a0 76 20 85 3c 4b 2c 21 bd 31 71 ad bc cc 77 7c bd
       0.01625083 -0.03934888 -0.021172138 -0.061637685
0002b0 8f 3f 7b bd 1b a3 70 bd 09 21 8b bd fd 13 fa bc
       -0.06133991 -0.0587493 -0.0679341 -0.03052711
0002c0 e5 bf 83 bd 72 dd 50 3d 52 06 4b bd 83 ee 94 bd
       -0.06433085 0.050992437 -0.049566574 -0.07272055
0002d0 f7 4a c8 3d 67 9d b9 bd 50 68 27 3d 52 9a 89 3d
       0.097799234 -0.09063225 0.040870965 0.067188874
0002e0 f0 5a 3a 3d 04 a0 a2 3d a7 0d 8f 3d 4b d3 13 bd
       0.04549688 0.07940677 0.06985026 -0.036090177
0002f0 39 fb 1a 3d 1b 69 09 3d af ee 89 3d 08 ec 70 bd
       0.03783724 0.033547502 0.067349784 -0.058818847
000300 e6 1e aa 3d 03 8a 25 bd 91 7f ad bd 74 6d 90 bc
       0.08306675 -0.04041482 -0.08471597 -0.017630316
000310 fc 82 a4 bc 9e b0 a8 3d 65 54 b6 bd 75 de 9e bd
       -0.02008199 0.08236812 -0.08902816 -0.07757274
000320 a7 fe b5 3d 2d 10 1e 3d e7 94 b3 3d 5f 9c b9 3d
       0.08886462 0.038589645 0.08768635 0.090630285
000330 28 63 b4 bd 5c 11 82 3d 17 7c 8c 3d 92 55 da 3c
       -0.08807975 0.06350967 0.06859606 0.026652131
000340 48 3c 68 3b 82 7c ca 3d 96 89 a0 3d c1 77 64 bc
       0.003543632 0.09887029 0.078387424 -0.013944567
000350 7d 13 c3 bd c1 3d ab bd 06 77 5e 3d 66 00 1c bd
       -0.095252015 -0.08361388 0.05431273 -0.038086317
000360 af 1e 63 3a 13 33 cc 3d 82 37 79 bc 3a 82 55 3d
       0.0008663935 0.09970679 -0.015210988 0.052126147
000370 a7 db 95 3d 07 e4 24 bd 26 b4 7d 3d 51 44 33 3c
       0.07317286 -0.040256526 0.06193938 0.010941581
000380 33 4d bd bd 33 12 2b bd 5a ea 88 bc 13 64 7b bd
       -0.0924324 -0.041765403 -0.01671331 -0.061374735
000390 09 a6 a1 bd 1c 37 a5 bc 8d 6d 92 bd 33 aa 81 3d
       -0.07892997 -0.02016788 -0.071498014 0.06331291
0003a0 18 ce 5d bd e3 2d f6 bc 51 66 57 bd 13 b7 8e 3c
       -0.054151624 -0.030051177 -0.05258781 0.017421281
0003b0 0d 1b 94 3c fd f1 8a bc 58 93 c9 bd d9 5d 68 3c
       0.018079305 -0.016961092 -0.09842557 0.014182531
0003c0 2d 3c 72 3d 68 ab cf bc aa ba c9 3d 16 75 9d bc
       0.05913942 -0.025350288 0.098500565 -0.01922087
0003d0 8a 6c 96 bd 22 ed 38 3b f1 ed 56 bb 9c a3 a4 3d
       -0.07344921 0.0028217514 -0.0032795633 0.080390185
0003e0 cd bf 5d bd 96 ff 45 bd 48 90 12 3c dc fd 96 bd
       -0.054137994 -0.04833945 0.008945532 -0.073726386
0003f0 84 e8 9b 3d 8e c9 d6 bc 67 78 2e 3d ec 5f 34 bd
       0.07612708 -0.026219156 0.042595293 -0.04403679

lstm.bias_ih_l0 f4 [400]
000000 58 b0 c5 3c 04 f5 ae bd 13 3e 8d bc 50 c5 72 3d
       0.024131939 -0.08542827 -0.017241513 0.059270203
000010 ee 2d 38 3d 00 c9 b1 bd c8 ef 73 3b 62 e3 31 bc
       0.044965677 -0.08680916 0.0037221778 -0.010857435
000020 5e c4 be 3d 1f d0 ca bc 49 2a 8b bd 5c 7f 73 bd
       0.09314798 -0.024757443 -0.06795175 -0.05944763
000030 d2 4f 45 3d 59 ee b1 bd e9 0c 80 bb 21 f5 33 bc
       0.048171826 -0.08688039 -0.003907789 -0.010983736
000040 6e 18 85 3d 4f 60 aa 3d 09 d0 18 3c 9b fd f8 bc
       0.064988 0.08319151 0.009326943 -0.030394366
000050 eb 8a 48 bc 66 b0 97 3b 13 4c 94 3d c8 4e c2 bd
       -0.012240152 0.0046291826 0.072410725 -0.094876826
000060 e3 ba 91 3d 87 c9 a4 3d ed f7 69 3d 98 91 e1 bc
       0.07115724 0.08046251 0.057121206 -0.027535245
000070 a3 63 96 3d 0f 4e 68 3c 85 89 89 bc f4 b8 9a 3d
       0.07343223 0.014178767 -0.016789207 0.07554808
000080 b9 ed 4a 3c 2b 7b 50 3d 93 86 8b bd 26 b8 66 bd
       0.012385779 0.050898712 -0.06812777 -0.05632796
000090 2f 5d ae 3d e6 34 43 bc d7 77 6f bd 25 67 44 3b
       0.08513867 -0.011914467 -0.058463898 0.0029968705
0000a0 b5 f5 e9 3c 76 43 35 3c f0 c0 73 bb b1 10 3a bd
       0.028559545 0.011063447 -0.0037193857 -0.045426074
0000b0 40 31 87 3c f7 36 ff b9 22 41 68 bd cb d0 91 3d
       0.016502976 -0.00048678342 -0.05670274 0.07119902
0000c0 d4 50 b2 bd 59 77 a1 3d a6 bb 53 3d c0 62 62 3d
       -0.08706823 0.07884092 0.051692627 0.055269957
0000d0 b4 12 79 3b 6b 38 c1 bc 68 57 9d bd e8 2e a4 3d
       0.0038005533 -0.023586472 -0.07682687 0.08016759
0000e0 79 7e 8a 3d f1 0c 2f bd 91 a6 b7 3d 3f e8 1f bd
       0.06762404 -0.04273695 0.08967317 -0.039039847
0000f0 d7 50 c2 3c 32 20 73 bd 60 be 9d bd ca 6e 33 3d
       0.023720188 -0.059356876 -0.07702327 0.04380683
000100 be ff 31 3d db ea ac 3d 9b fc fb 3a d2 17 9f 3d
       0.043456785 0.084432326 0.0019225063 0.07768215
000110 5f 10 85 3c 1c 41 53 3c 8a b2 b1 bd 59 00 8c bd
       0.016243158 0.012893941 -0.08676632 -0.06836004
000120 12 d3 78 bd f6 7c 74 39 88 25 61 bd c8 dd 43 bd
       -0.060748167 0.00023316205 -0.054967433 -0.04781893
000130 db c2 b5 3d 74 2a 85 3d e0 90 c1 3c 61 d3 a9 bd
       0.08875056 0.06502238 0.023628652 -0.082922705
000140 a9 a5 8b 39 c8 c3 1d 3d 10 e0 b5 3c 0a d9 9f bc
       0.00026635572 0.03851679 0.022201568 -0.019512672
000150 8d 98 d9 3c 1f 66 c2 bb aa 64 f8 bc 92 2b 3a 3d
       0.026562 -0.005932584 -0.030321438 0.04545171
000160 59 d0 96 bd bd 42 7c 3d 1a bd 23 bd 68 f7 ae 3d
       -0.07363958 0.061587084 -0.039975263 0.08543283
000170 0e 55 f1 3c e9 57 6f 3d f7 b6 ae 3c 1f 60 d2 3a
       0.029459503 0.058433447 0.021327479 0.0016050375
000180 03 c3 1d bc 50 19 56 bd 08 f5 a3 3c 6b 54 61 bd
       -0.009629014 -0.052270234 0.020014301 -0.055012148
000190 1a 6c 88 3d 10 14 9e 3d cf d6 1b bd 18 1f b2 bc
       0.06661244 0.0771867 -0.038046654 -0.021743342
0001a0 ca fb 45 3d 92 b2 b8 bd 95 77 98 3b 40 86 1c 3d
       0.048335828 -0.090184346 0.004652927 0.03821397
0001b0 ce e4 62 3d 87 7b 46 bd 15 b3 ba bd 02 29 b0 3d
       0.055393986 -0.04845765 -0.091161884 0.086015716
0001c0 a1 39 13 bd a9 c6 bf bd 55 b5 b7 bc 89 ba be 3d
       -0.03594363 -0.09364063 -0.022425333 0.093129225
0001d0 7e 25 95 3d 71 a2 87 bd 74 7a c5 bd d5 b1 bb 3d
       0.07282542 -0.0662278 -0.09642497 0.09164778
0001e0 07 7f b3 3d 18 b2 7b 3d cf a7 b9 bd 88 69 81 3d
       0.08764463 0.06144914 -0.0906521 0.063189566
0001f0 ca 36 85 bd 81 fe a2 bc 6e a6 90 bd 6d 1a a9 bd
       -0.06504591 -0.019896748 -0.07062994 -0.082569934
000200 35 a0 32 3d 55 e0 1e 3d f9 bf a6 bc c2 56 51 bd
       0.043609817 0.03878816 -0.020355212 -0.05110813
000210 af bd 6e 3d 27 93 70 bd af f3 fc bb 9e bc 93 3d
       0.058286365 -0.058734085 -0.007719479 0.0721371
000220 83 fb f6 3c d4 20 ab 3d 3c 39 18 3d 2a c9 3c bd
       0.030149227 0.08355871 0.037163958 -0.046090282
000230 51 6e f7 3c c1 18 2b bc 66 5c 84 bd eb d1 3a bd
       0.03020397 -0.0104429135 -0.06462936 -0.04561035
000240 c0 db ab bd 19 22 47 bd 53 d7 8c 3d 3c 81 6e 3b
       -0.08391523 -0.048616502 0.06877007 0.0036392948
000250 54 3b 94 3d 28 35 b2 3d 4e ce eb 3c 03 42 98 3d
       0.072378784 0.08701545 0.028784897 0.07434466
000260 c7 73 25 bd ab f3 5f bd 87 80 e2 3c 9f 33 b7 3c
       -0.040393617 -0.05467574 0.027649177 0.022363482
000270 83 af 97 3d c9 bd 9e 3d a0 7e f1 3c f8 b3 21 bd
       0.07406523 0.077510424 0.029479325 -0.039478272
000280 7e a7 51 3c d3 47 a2 3d c4 cb 69 bc 00 66 b7 3c
       0.012796281 0.07923856 -0.014269773 0.022387505
000290 f1 cd 86 3d fe fd dd bb 23 e2 3b bd 21 5d 4c bd
       0.06582249 -0.006774663 -0.045869958 -0.049893502
0002a0 d1 9d 30 bd 1f bf fc 3a 8a db aa bd b9 ac f6 3b
       -0.043119255 0.0019283033 -0.08342655 0.0075279144
0002b0 c3 6e b3 bd 2f 30 fa bc 15 3c d9 bc 71 27 24 bc
       -0.087613605 -0.030540554 -0.026517907 -0.010019169
0002c0 44 aa 31 bc a3 93 bc 3d e9 f0 96 3d 53 6a 8e 3d
       -0.010843817 0.09207847 0.07370169 0.069538735
0002d0 7f 32 3c bd 92 6e dd 3a 85 93 4d bd 63 8b aa bd
       -0.045946594 0.0016893914 -0.050189514 -0.08327367
0002e0 29 1b b3 bd 11 fd 01 3d e8 07 09 3d f8 75 08 bd
       -0.08745415 0.031735484 0.033454806 -0.03331563
0002f0 b8 f9 66 3d 7f e3 3a 3d b8 23 8d 3d 2c 9f b5 3d
       0.056390494 0.045627113 0.068915784 0.0886825
000300 11 79 a8 3d c0 98 c4 bd f4 c7 56 3d 42 90 2a 3d
       0.082262166 -0.09599447 0.052436784 0.04164148
000310 9c ac a7 3b 24 37 ad bd 3c 73 66 3d 8e 44 9e 3d
       0.005117012 -0.08457783 0.05626224 0.077279195
000320 63 22 4b bd ab 47 d9 3d 88 46 d1 3d 7a a3 af 3d
       -0.04959334 0.10609373 0.10218531 0.085761026
000330 57 ac 7b bc b2 f3 97 3d d1 ff 11 bd 86 50 07 bc
       -0.015360913 0.07419528 -0.035644356 -0.008258944
000340 60 e6 be bd 2a aa 6b bc a3 00 6c 3d cc 08 ca 3b
       -0.09321284 -0.014383832 0.057617795 0.0061655995
000350 84 8c af 3c 88 27 b8 3b 0e 68 f1 bb 01 7f bc 3a
       0.021429308 0.005619947 -0.0073671406 0.0014381112
000360 e9 ec 98 3d 98 4e 5b 3d e9 6b f9 3c 8b 98 cf bc
       0.07467062 0.05354175 0.030446963 -0.025341293
000370 21 38 3b bd 5b 94 95 3c 02 31 55 bd 94 a9 87 bd
       -0.045707826 0.018259218 -0.05204869 -0.06624141
000380 9e c2 df 3c 71 4f 32 3c f2 8c 1c bc b8 c3 8f bd
       0.02731448 0.010883198 -0.009555088 -0.07019752
000390 67 59 69 bd f4 9e 86 3d 7e 2a 3a bd 3e 12 98 bd
       -0.056970026 0.06573287 -0.04545068 -0.074253544
0003a0 27 93 42 bc 07 e1 29 3d 63 b0 82 3d a9 61 31 3d
       -0.011875904 0.04147437 0.06381299 0.043306027
0003b0 96 0e 43 bd 46 8c f1 bb de d9 a8 bd 19 60 9b 3d
       -0.047621332 -0.007371458 -0.0824468 0.075866885
0003c0 89 25 a3 3c 82 30 af bc 78 2a 92 3c 65 65 3d bd
       0.01991536 -0.021385435 0.017842516 -0.046239275
0003d0 1a 5a d6 3c 0e 08 1b 3d 7f 9e b8 3d af 13 00 bd
       0.02616601 0.03784948 0.09014606 -0.03126877
0003e0 ff 70 73 3c 9c 45 b6 bd 6a 9c f5 bc 66 10 28 3d
       0.014858483 -0.08899996 -0.02998181 0.041031264
0003f0 55 3b 6c 3d d6 2b 1e 3c 18 46 7d 3d 30 35 10 3d
       0.05767377 0.009654006 0.061834425 0.035206974

lstm.bias_hh_l0 f4 [400]
000000 74 2c c2 bd 5e 7a 0a bd 44 eb 90 3d 4d 4f 36 bd
       -0.09481135 -0.033808105 0.07076123 -0.04450922
000010 fc 32 0b bd 73 71 9e bd ea 9c bc 3b d8 83 0f bd
       -0.03398417 -0.077364825 0.0057560103 -0.035037845
000020 45 53 8d 3b ff e3 de bc 85 46 fb 3b 8e 36 c3 3c
       0.004312905 -0.027208326 0.0076683187 0.023829725
000030 87 cb c6 3c 80 7c eb bc 53 bc d8 3c e2 06 cb 3d
       0.024266971 -0.02874589 0.026456987 0.09913422
000040 90 5c 57 3d 82 fe 88 bc 05 cd 98 3d 8d 52 90 3d
       0.05257851 -0.016722921 0.07460979 0.07046995
000050 a6 8a 13 bd 20 17 84 3d 03 81 8f 3d de 8c a5 bd
       -0.036020897 0.06449723 0.07007029 -0.08083509
000060 61 35 8d bd 62 4b 63 3d 1e 7b ac 3a 8f c5 8c 3d
       -0.06894947 0.055491813 0.001315925 0.06873619
000070 3e 65 9c 3c ef a4 b9 3d f9 26 c1 3d 97 39 cf 3c
       0.019091245 0.09064662 0.094312616 0.025296016
000080 01 32 6d bd fd 30 9a bc 41 ff 83 3b d6 47 0c ba
       -0.057909016 -0.018822188 0.0040282314 -0.00053512806
000090 f6 e1 20 3d 75 dd 79 3c b0 21 cd 3d 7d a3 a4 bc
       0.039277993 0.015250553 0.10016191 -0.020097489
0000a0 cc 0c b5 bd 28 e1 bb 3d 69 c7 de bc 58 69 54 bc
       -0.088403314 0.091738045 -0.027194696 -0.012964569
0000b0 5e 0d 5a bc 1d b4 0f 3d 34 e2 b2 bd f0 88 b5 3d
       -0.013308851 0.03508388 -0.08734551 0.088640094
0000c0 2a 1a 8a bd 75 34 a3 3c 27 9e 52 bd 61 0c 69 3c
       -0.06743272 0.019922474 -0.051420357 0.014224143
0000d0 3f 5c b5 3d 25 4f cc bc 9f ad 32 bd b4 b3 a3 bb
       0.08855485 -0.024940083 -0.04362261 -0.0049957875
0000e0 81 ae 7e bc a8 21 40 bd 03 52 1a 3d fe b5 f9 3c
       -0.015544535 -0.046907097 0.03767587 0.030482288
0000f0 98 11 b6 bd c4 d1 76 bb 8d d2 ae bd b7 fe ad bd
       -0.088900745 -0.003766165 -0.08536253 -0.084958486
000100 ef d1 48 bd 56 54 c5 3d e5 0d 52 bd f5 ae 7c bb
       -0.049028333 0.096352264 -0.051282782 -0.003855643
000110 15 da 2b bd 15 90 45 bd 2f fa ca bd 0b 92 85 bc
       -0.041956026 -0.04823311 -0.09911 -0.01630499
000120 c2 db fa bc 6d 1b ba 3d 68 b1 2e bd 05 41 99 bc
       -0.030622367 0.09087262 -0.042649657 -0.018707762
000130 80 f0 65 bc 57 b4 62 bb 6c aa 59 3d 25 ac 3f bd
       -0.01403439 -0.0034592354 0.053141043 -0.04679503
000140 c9 67 8e bc 8f 74 b7 3d f3 46 1e 3c 5d 1d c9 3d
       -0.017383473 0.08957779 0.00966047 0.09820054
000150 7c 0f 69 bd da b6 56 3d f3 50 38 bd e5 4e 75 bd
       -0.056899533 0.052420475 -0.044999074 -0.059889693
000160 37 ab c8 3d eb e4 9c 3d 29 8c ae 3d 95 ac 47 3d
       0.09798282 0.0766085 0.08522827 0.04874857
000170 8d 58 6d bd 71 0d 06 bd cc a2 ff bc a9 db 89 3b
       -0.057945777 -0.032727662 -0.031205557 0.0042070937
000180 a3 60 ba bd a9 ad bf bd 0c e2 3a bd 9b 44 a2 3d
       -0.09100463 -0.09359295 -0.04562573 0.07923242
000190 ee 07 06 bd fc 7d 9a bb cb 2c af 3b b3 26 a9 3d
       -0.032722406 -0.0047147255 0.005345916 0.082593344
0001a0 f7 04 3b 3d 5a f0 a4 3d 30 87 b8 bd dd 16 86 bd
       0.04565903 0.08053656 -0.0901016 -0.065473296
0001b0 5f dd 48 bd 6a 43 b4 3d 29 9d 39 3d 47 03 c0 3d
       -0.04903924 0.08801921 0.045315895 0.09375625
0001c0 6f bd c2 3d b5 c3 ac bd 18 1d 31 3b 59 cf 3b 3d
       0.09508788 -0.08435766 0.0027025398 0.04585204
0001d0 8e 0f 9a 3d a8 b2 a6 bc 51 03 2c 3d 2e 1c c7 bc
       0.07522498 -0.020348862 0.04199535 -0.02430543
0001e0 61 b3 a1 bd 10 64 b4 3d 71 4e 4d 3d 09 3b 11 3d
       -0.07895542 0.08808148 0.050123636 0.03545669
0001f0 aa c1 b3 3c ef f7 8e 3d e7 96 9d bc 26 f2 3e bd
       0.021942932 0.06980883 -0.019236995 -0.04661765
000200 de c8 ad bd 25 98 3b bd 98 d3 1a bd 23 50 b8 bc
       -0.08485578 -0.045799393 -0.037799448 -0.02249915
000210 fb e6 06 bd c9 2d a7 3d 62 ea a3 3c 2b e8 3a bd
       -0.032935124 0.0816303 0.020009223 -0.04563157
000220 b2 f0 43 bd 40 6f 78 bc 33 52 96 bd 41 56 a8 3c
       -0.047836967 -0.015163243 -0.07339897 0.020548942
000230 cf 3c 96 bd 18 79 8d bd f8 db 9a bd 9c 0e fd b9
       -0.07335817 -0.069078624 -0.07561487 -0.00048266805
000240 8c 70 6e 3c c3 8a 5d bd 5b f2 97 3d 28 cb c8 bd
       0.0145532 -0.05408741 0.074192725 -0.09804374
000250 f0 20 98 bd a3 7c f5 ba 2f 19 a8 bd 51 5a c2 bc
       -0.07428157 -0.0018729161 -0.082079284 -0.023724707
000260 80 fb 95 bd f9 da 2e 3d 64 15 ba 3d 97 24 ae bd
       -0.073233604 0.042689297 0.09086111 -0.08503073
000270 1e cb 36 3d 7e 81 c0 bc 26 81 5f 3b cd a1 95 bc
       0.0446273 -0.023499247 0.0034104078 -0.01826563
000280 29 82 48 bc d9 d2 88 bd fe b5 bc bd 29 33 b4 3d
       -0.012238064 -0.06680841 -0.092144 0.087988205
000290 b1 1d 9b 3d 1c 41 b9 3b d3 05 30 bc 60 81 ad 3c
       0.075740226 0.0056535136 -0.010743576 0.021179855
0002a0 53 dd d1 3c f2 fd 5d 3d 03 06 51 3d b9 e6 ba bd
       0.02561823 0.05419726 0.051031124 -0.09126038
0002b0 10 84 1a 3c cf 70 59 bd a5 08 d1 3c 6b b3 5c 3d
       0.0094309 -0.0530861 0.025516817 0.053882044
0002c0 b5 51 12 3d d5 08 33 3d 3f 15 15 bd 7a c4 bd bc
       0.035722453 0.043709595 -0.036397215 -0.023164976
0002d0 ba 52 ab bd 88 b6 15 3d f9 25 a9 3d 1f b1 4c bd
       -0.08365388 0.03655103 0.08259196 -0.049973603
0002e0 8e 47 9c bb 77 bb 98 bd 5c ad 18 bd 80 bb ca 3d
       -0.004769272 -0.07457631 -0.037274703 0.09899044
0002f0 d8 48 55 3c 36 e1 dc 3b 22 f4 9f 3d 1a 8b e1 3c
       0.013017856 0.0067407144 0.078102365 0.02753215
000300 3c 9f 97 bd be 40 87 bc f4 2a 62 bc 22 c3 48 3d
       -0.074034184 -0.016510364 -0.013804186 0.04901422
000310 3f 3a 96 3c dc 6d 22 bd f5 5d f5 ba b6 99 58 bd
       0.01833832 -0.03965555 -0.0018720018 -0.052880965
000320 ae 7e c8 bd f7 eb 7e bd ee 34 1f 3d 35 36 a6 bd
       -0.09789787 -0.062236752 0.038868837 -0.08115808
000330 51 8b 5a bd a5 9b 63 bd 75 6c 64 bd a5 b7 98 bd
       -0.05335552 -0.055568356 -0.055767495 -0.074569024
000340 0d 4b ac 3d fc a0 74 bd 3e c3 22 3c d9 fe 55 bd
       0.08412752 -0.05972384 0.009934245 -0.052244995
000350 a3 e0 48 3c bd 35 9d 3d 9b a9 bd bd e8 43 94 3d
       0.012260589 0.076762654 -0.09260865 0.072395146
000360 2d 81 16 bd 02 c3 df bc bc ef db 3b 70 92 8b 3b
       -0.036744285 -0.027314667 0.006711928 0.0042594
000370 fa ad 09 bd 58 97 ad bd 15 a6 64 ba 70 6d 0b 3d
       -0.033613183 -0.08476132 -0.0008722258 0.034039915
000380 f8 aa 22 3d 35 bb 77 bd 43 3a 0d bd db 8e b8 bd
       0.03971383 -0.06048127 -0.03447939 -0.090116225
000390 49 2f 94 bd 20 84 d8 3c 82 a1 2f 3d da 91 02 bb
       -0.072355814 0.02643019 0.042878635 -0.001992336
0003a0 b4 94 09 bd 39 b6 5e 3d ae e7 84 bd f9 ab 10 3d
       -0.03358908 0.054373 -0.06489502 0.035320256
0003b0 89 1a 9e 3d 50 15 c8 bb c4 a1 5d bd 4a 39 89 bd
       0.07719905 -0.0061060563 -0.05410935 -0.0670038
0003c0 07 8c 8e bd 93 ee b9 3d 76 01 ba bd b7 1e ca 3d
       -0.06960302 0.090787075 -0.0908231 0.0986914
0003d0 51 55 34 3d 75 60 fa 3c eb b8 92 bd 1c 94 85 bd
       0.044026677 0.030563572 -0.071641766 -0.0652239
0003e0 ac 4c 34 3d 05 17 6c bd 86 be 6d 3d 57 9f a0 3d
       0.044018432 -0.05763914 0.058043025 0.07842892
0003f0 dd 74 f4 3c ed da 0b 3d 15 4a 41 bd 61 50 7d 3c
       0.029840881 0.03414433 -0.04718979 0.015461058

lstm.weight_ih_l1 f4 [400, 100]
000000 e7 5f 39 bd ce 94 31 bd 3d e9 9a bd c9 ab 02 3d
       -0.045257475 -0.0433548 -0.07564018 0.03190211
000010 68 85 c3 3d da 51 08 bd 2a 81 f2 3c 3d 57 a5 3d
       0.095469296 -0.033281185 0.029602606 0.0807328
000020 95 4b a7 3c 62 08 98 bc 5c 54 35 bd e3 97 89 bd
       0.020421783 -0.018558685 -0.044269904 -0.06718423
000030 5b 69 6c 3d 7e 1f 88 bd 3a 2f 3d bd aa 8d ee 3c
       0.057717662 -0.06646632 -0.046187617 0.029120285
000040 d3 d5 e9 bc c6 99 b7 37 81 5b 75 bd 19 ce 3e 3c
       -0.028544342 2.1886906e-05 -0.059901718 0.011645817
000050 08 5b 37 bc f4 91 dc 3a 82 3e 95 3d 67 3a 0a bd
       -0.011191137 0.0016828165 0.07287313 -0.033747103
000060 b8 ea ae bd 9e 78 d0 bc 8b b2 d6 3c c8 32 65 3d
       -0.08540863 -0.02544814 0.026208183 0.055956632
000070 1c 19 aa 3d 21 31 74 39 9d 07 83 bc 1f 25 82 3c
       0.083055705 0.00023287955 -0.015994841 0.015886841
000080 04 51 ca bd ad 45 b8 3d 0b 40 28 bc c0 14 89 3d
       -0.09878734 0.089976646 -0.010269175 0.06693411
000090 ec 63 a5 3d b0 d2 01 bd a4 5b 82 3d 81 64 bc bd
       0.08075699 -0.031695068 0.06365135 -0.09198857
0000a0 a4 1f 91 bd f8 e2 c2 bb ca eb 08 bd 05 7d 8a bd
       -0.07086113 -0.005947467 -0.03342799 -0.06762127
0000b0 06 f9 5f 3c d4 5a 88 3d 69 5c 0b 3d a1 4a 9d 3d
       0.013670212 0.06657949 0.034023676 0.0768025
0000c0 6d 14 79 bb 02 23 91 3c 91 b6 7d bd d3 d3 a8 bc
       -0.003800656 0.017716888 -0.061941687 -0.020608818
0000d0 ba 9b 69 bb 5c e0 c7 3d ec dd f7 3c ec 7a 27 bd
       -0.0035645799 0.0975959 0.030257188 -0.04088871
0000e0 2d ca 2d 3d 3a 61 8d 3c 5e 2f c7 3d d2 b0 a1 bc
       0.042429138 0.017258275 0.097258314 -0.019737635
0000f0 6c 23 2c bd 6e b1 83 3c 42 b3 9f bd 75 61 b1 bd
       -0.04202597 0.016075816 -0.077978626 -0.086611666
000100 a1 13 82 3d c9 f6 a2 3d 4e 45 43 3d 5d 29 97 bd
       0.063514 0.07957227 0.047673516 -0.07380936
000110 c3 8a c3 3d 23 a2 1d 3c ea 35 e8 bc 0f cd c6 bc
       0.09547951 0.009621176 -0.02834602 -0.024267701
000120 d9 26 aa 3d 15 f3 a1 bd 6e e7 c5 3d 3e f2 9b 3d
       0.08308191 -0.07907692 0.09663282 0.076145634
000130 f3 57 b3 3d 1a 2d e1 bc e0 2b b0 bd fb a1 a2 bc
       0.08757009 -0.027487326 -0.086021185 -0.019852629
000140 ce 4b 19 3d 7c 48 0f 3d 7a 83 77 3d f3 9b b6 bc
       0.03742581 0.034981236 0.06042812 -0.02229116
000150 c7 48 80 bd ef bd 6c 3d 45 f9 b8 3d 90 e5 a6 bd
       -0.06263881 0.057798322 0.090319194 -0.08149254
000160 ea 28 9a 3d 94 8f b3 bd 8b 6e 87 bd 71 c0 7a bd
       0.07527335 -0.0876762 -0.06612881 -0.061218683
000170 97 19 8b 3c 2c 4e 2a 3d 36 a5 a4 bd da 54 c3 3c
       0.016979976 0.041578457 -0.08039324 0.023844171
000180 19 b3 da ba f3 9e c1 3b c9 6d bb 3d ff 43 a5 bd
       -0.0016685455 0.005908841 0.09151799 -0.0806961
000190 ff b7 87 bd 7a 32 38 bb 47 e3 85 bd ed 62 66 3d
       -0.06626891 -0.0028106258 -0.0653749 0.056246687
0001a0 bd cc 5a 3c fd 12 2f 3d 3a 5e 37 3d 43 98 3f 3d
       0.0133544775 0.042742718 0.044767596 0.046776067
0001b0 a4 59 89 bd 89 99 b8 bd c9 3a 88 bd 18 75 b2 bd
       -0.06706551 -0.090136595 -0.066518374 -0.0871374
0001c0 0a d1 01 bd b1 0a 9d bd c8 c3 8b bd f6 42 a6 3d
       -0.031693496 -0.07668055 -0.06824452 0.081182405
0001d0 11 cd 5e bd 6a 61 c3 bd 00 63 8f bb 15 1c 14 3d
       -0.054394785 -0.09540065 -0.0043758154 0.036159594
0001e0 35 42 80 bd aa 34 a3 3c e9 cc a1 bd 07 f1 ed bb
       -0.06262628 0.019922573 -0.07900412 -0.0072613987
0001f0 89 d2 eb 3c bc 89 8b 3c 52 b5 0c bd 78 b4 c1 3d
       0.028786914 0.01703345 -0.034352608 0.0945825
000200 fd d6 9c bd a5 af b9 bd ad e9 b2 bc ac e9 fa bb
       -0.07658193 -0.09066705 -0.02183994 -0.0076572504
000210 eb 67 5b 3d 4c e8 82 bd 32 ab b2 bd ae 08 c7 bb
       0.0535659 -0.06391963 -0.08724059 -0.0060740327
000220 bc 97 76 bc d3 2a 83 3c 58 11 42 bd c5 60 b3 bc
       -0.015050825 0.016011631 -0.04737982 -0.02189673
000230 e7 07 c0 bd 82 8d 30 3c 0d b1 b6 3d 3e 1c 40 bb
       -0.09376507 0.010775926 0.089204885 -0.0029313709
000240 c0 f8 08 3d 50 ea 5c 3d 3a 3e b6 3d 8b 7d c2 3c
       0.03344035 0.053934395 0.088985875 0.023741504
000250 a8 2c 8c 3d de 45 f2 3c e8 f4 e9 bb 3e a8 75 3d
       0.06844455 0.02957433 -0.007139791 0.0599749
000260 93 1e c4 bd a1 26 32 3c 70 43 c2 3c c0 b6 5c 3d
       -0.09576144 0.010873468 0.023713797 0.05388522
000270 30 5a 8b bc d6 45 ab bd c4 48 de 3c 3d 84 40 bd
       -0.017010778 -0.083629295 0.027134307 -0.047001112
000280 d3 d1 87 3d b6 b0 87 bd 1f ef 9b 3d 42 8f c1 bc
       0.06631818 -0.06625502 0.07613968 -0.023627881
000290 0a cd a8 bc 02 ca bf bd 15 1a 92 3b 44 51 79 bd
       -0.020605583 -0.09364702 0.0044586756 -0.060868517
0002a0 a7 88 22 3d 09 ae 87 3d 3f 12 ba bd 91 d0 40 bd
       0.039681103 0.066249914 -0.090855114 -0.047073904
0002b0 9f 71 0c bd a9 5b 05 bd 79 66 12 bd ec 52 96 3d
       -0.034288045 -0.032558117 -0.035742257 0.07340035
0002c0 f3 86 44 bd 00 61 3a bd 81 05 93 3c b9 82 df bc
       -0.04798026 -0.045502663 0.01794696 -0.027284013
0002d0 96 f4 11 3d 63 49 93 3d c1 b8 9d bd 4e f4 78 bd
       0.035633646 0.07191732 -0.07701255 -0.060779862
0002e0 18 a7 5b 3c 07 9a 4f 3d 83 0c 49 3d 45 6e 6a bd
       0.0134065375 0.050684 0.049084198 -0.057234067
0002f0 ed 93 b3 3d 8d 0b 8e bc f3 96 16 3d 87 1a 9d bd
       0.08768449 -0.017339492 0.03676505 -0.07671075
000300 71 df 72 bd 39 e9 e7 bc f0 e8 c0 bc 0f aa 74 bd
       -0.05929512 -0.028309451 -0.023548573 -0.059732493
000310 c3 1c 66 bd f0 3c 1d 3d 4f 31 95 bd a0 11 bc 3d
       -0.056179773 0.038388193 -0.072847955 0.09183049
000320 6b d8 90 bd 73 f1 21 bd ab 6d ae 3c 47 4a af 3d
       -0.070725285 -0.039536905 0.021292528 0.08559089
000330 a7 c9 bf 3d 53 8c a7 3d 52 2a 38 bd 6a 44 b8 bc
       0.09364634 0.081810616 -0.044962235 -0.02249356
000340 73 68 88 3d 17 3d 6e 3b d2 88 d0 3c 8c 5f 78 3d
       0.06660547 0.003635233 0.025455866 0.060637996
000350 24 6c 8f 3c f3 ab c7 3d da b6 fb bc bd c5 55 bd
       0.01750762 0.097495936 -0.030726839 -0.05219053
000360 1c a6 68 bd 37 c1 ae 3d 76 c3 12 bd b7 2e fa bc
       -0.05679904 0.085329466 -0.035830937 -0.030539853
000370 8c af 89 3d 44 8e a8 3d a5 cc cb bc 37 4d ae bc
       0.06722936 0.0823026 -0.024877856 -0.021277053
000380 53 99 88 3d e5 64 9c 3d a8 63 14 bd e2 8d 85 3d
       0.06669869 0.076364316 -0.036227852 0.065212026
000390 91 f2 f9 3c 01 62 91 bc e8 59 c3 3b a1 ef c3 3b
       0.030511172 -0.017746927 0.0059616454 0.0059794937
0003a0 be 1a fc bb be dc bb bd 59 d4 85 bd 08 25 b9 3d
       -0.0076936176 -0.091729626 -0.06534643 0.09040266
0003b0 03 6d af bd 14 e6 5b 3d e6 59 2d bd 45 5e 63 3c
       -0.08565714 0.053686216 -0.042322062 0.013877456
0003c0 fb 23 9d 3d 54 a2 ad 3c 0e a1 01 3d 1a 72 1f 3d
       0.07672878 0.021195568 0.031647734 0.038927175
0003d0 8c ee 8c bd 3c 4a 5b 3c ac e9 1d 3d 69 42 65 3d
       -0.06881437 0.013384398 0.038552925 0.055971537
0003e0 0d 33 34 3d 24 db 97 3d 97 7b c3 bd f1 96 0a bd
       0.043994 0.07414845 -0.09545057 -0.033835355
0003f0 fe 95 92 3c 61 f4 a3 bd bd c6 74 bc 0f 3e 70 3d
       0.017893787 -0.08005596 -0.014939961 0.058652934

lstm.weight_hh_l1 f4 [400, 100]
000000 2c f7 bd bc 72 fe b7 bb c7 03 05 3d 51 e6 99 3d
       -0.02318915 -0.005615049 0.032474305 0.075146325
000010 af d4 b8 3c 48 1b c7 bb 6a 4a c5 bd 54 93 5b 3d
       0.022562353 -0.00607625 -0.09633334 0.0536073
000020 8d 72 56 3d cb 0a 7e bd 6b 79 ae bd 72 45 02 3d
       0.052355338 -0.06202201 -0.085192524 0.03180451
000030 35 fb 8e 3d c9 ca a6 3d e9 19 b9 3d 2f a6 b9 3c
       0.06981508 0.08144147 0.09038145 0.02266225
000040 69 ed f9 3c c3 d2 81 bc b5 c2 e8 bb 62 44 a4 3d
       0.030508714 -0.01584757 -0.007103289 0.080208555
000050 2a a6 ad bc 1b 58 c0 bc 8e 38 87 bd 47 ce 8c bd
       -0.021197397 -0.023479512 -0.06602584 -0.06875282
000060 f4 52 87 3c 54 d8 bd bc 95 aa dd 3a e6 7a a1 bd
       0.016519047 -0.023174442 0.0016911799 -0.07884769
000070 f4 46 a5 bd 52 97 ac 3d 43 ed 8a 3d 27 01 a9 bc
       -0.08070174 0.084272996 0.06783535 -0.020630432
000080 dd a2 d1 bc 2a 0a b4 3c b8 48 ad bd 33 cc be 3d
       -0.025590355 0.021977503 -0.084611356 0.09316292
000090 32 96 c8 3d 80 cd 66 bc d4 0d d5 bb ac c5 9d bd
       0.097942725 -0.014087081 -0.0065018926 -0.077037185
0000a0 b0 0c 88 bc 35 4e 87 3d 46 80 94 3c 6c 09 d9 3c
       -0.016607612 0.06606714 0.018127572 0.02649375
0000b0 b4 14 d6 3c b2 c0 b1 3d e7 0b 20 3d 66 71 05 3d
       0.026132919 0.08679332 0.03907385 0.03257885
0000c0 8e e6 55 3d 42 32 5c bd e2 84 a2 3d a6 b0 69 bd
       0.052221827 -0.053758867 0.07935502 -0.05705323
0000d0 fa 12 c6 bc 64 f3 cb bd e3 80 e2 3c ff 6b 93 bd
       -0.02417897 -0.099585325 0.027649349 -0.07198333
0000e0 a6 47 a6 bc 00 52 3e bd 0e 07 35 3d a3 56 48 bd
       -0.020297837 -0.04646492 0.04419618 -0.04891075
0000f0 2e f0 08 3b 83 0b 35 bd ce 81 e7 ba 40 ac 1d 3d
       0.0020895111 -0.04420043 -0.0017662586 0.03849435
000100 6d 5c 41 3d 28 08 ba bd 88 41 90 bc 49 04 68 3d
       0.047207285 -0.09083587 -0.017609373 0.05664471
000110 00 70 62 3d e9 65 42 3d e7 38 ab 3d 3c ee 96 3c
       0.055282593 0.04746047 0.08360463 0.018424146
000120 a6 0c de 3a 47 41 ca bc a5 c4 79 3c 44 13 c3 bd
       0.0016941025 -0.02468933 0.015244638 -0.09525159
000130 b9 63 ab 3b 80 18 7a 3c 87 43 cb 3d 1b 85 6b 3d
       0.0052303937 0.01526463 0.09924989 0.057499986
000140 09 d5 3b 3d 67 24 7e 3d 22 7c bc 3c 1e 8d 4a bd
       0.045857463 0.062046435 0.02300841 -0.049450986
000150 a6 60 56 3d 14 38 79 bd 1d d2 a5 3d 93 74 f4 bb
       0.052338265 -0.060844496 0.080967166 -0.007460186
000160 3d ee 7d 3d 9d 12 ab bd fd d4 99 3d 63 3b a7 bc
       0.06199478 -0.083531596 0.075113274 -0.02041406
000170 56 6b 87 bd 6a 53 63 3c 29 bb fd 3c a7 91 a6 bd
       -0.066122696 0.013874868 0.030973034 -0.0813325
000180 01 24 85 3d d8 8a 31 bd 8d c9 7b bd 85 22 53 3d
       0.06501008 -0.043345302 -0.06147151 0.051546592
000190 ef e4 99 bb d3 c7 c4 bd da be df bc 93 da 4b bd
       -0.0046964805 -0.09608426 -0.027312685 -0.049768995
0001a0 95 e2 8a 3d a6 b1 04 bd 11 f5 c5 bc ee 72 48 bd
       0.06781498 -0.03239598 -0.024164708 -0.04893773
0001b0 55 bd b8 bd b7 38 02 3c 2c 07 35 bd 53 83 b5 3d
       -0.09020487 0.007948092 -0.044196293 0.08862939
0001c0 b3 ea 96 bd 41 41 91 3d 3c fb d9 3c 14 ab 8f bd
       -0.07368984 0.07092524 0.026609056 -0.070150524
0001d0 13 66 05 bd be 95 4c bd 69 67 5b 3b af e0 b5 bc
       -0.03256805 -0.049947493 0.0033478385 -0.022201864
0001e0 9e 82 58 3d a5 a5 be 3d 21 35 ac 3d c3 68 32 bd
       0.05285894 0.09308938 0.08408571 -0.04355694
0001f0 72 04 0f bc d6 0e 52 bd 05 f7 25 bd ff 6f cb bd
       -0.008729087 -0.05128368 -0.04051878 -0.09933471
000200 31 a8 6a 3d 0e 21 84 bd 26 28 c2 bb e8 58 b7 bd
       0.057289306 -0.06451617 -0.005925196 -0.089525044
000210 88 ef ab bd 36 71 3e 3d 6b 91 9b 3d 13 87 35 bd
       -0.08395296 0.046494685 0.07596096 -0.04431827
000220 7a ec f9 bc bc a9 b9 3d 20 41 50 3d 0b 3a 0d 3d
       -0.030508269 0.090655774 0.050843358 0.034479182
000230 2d ca 97 bc b8 6f 03 3d 43 c5 fb 3c 4a 02 d1 bb
       -0.018529022 0.032088965 0.03073371 -0.0063784467
000240 a4 27 4f 3d 04 a1 97 3d e2 e7 98 bc fe a3 a2 bd
       0.050574914 0.07403758 -0.018665258 -0.07941435
000250 b3 e8 af 3d 10 2a 9d bd 0f 44 0a 3d a7 b4 c4 bd
       0.08589306 -0.076740384 0.033756312 -0.09604769
000260 73 9d ba bc 07 b9 ae 3d f9 c2 aa bd c9 b6 79 bb
       -0.022780156 0.08531385 -0.08337969 -0.0038103333
000270 b2 e6 82 3d 05 3f 8f 3d de 2b 36 3d 85 58 9b bc
       0.06391658 0.06994442 0.04447543 -0.018963108
000280 64 5c 44 3c ac 62 ba 3c 20 6c ca bc 81 bc 9a 3c
       0.011984918 0.022752129 -0.024709761 0.018888714
000290 9f 17 18 bd 47 66 20 bd 28 58 98 bd 0e 42 ac bc
       -0.0371319 -0.03916004 -0.074386895 -0.021027591
0002a0 8c 6e e2 3c 7c b4 9b 3d d2 f4 a9 3c 7d d3 be 3c
       0.027640603 0.07602784 0.020746622 0.023294205
0002b0 e6 40 32 3d 22 31 9d 3d 3d a3 91 3d 05 e3 32 3c
       0.043518923 0.07675387 0.07111213 0.0109183835
0002c0 7c 03 87 bd 87 2f b8 3d 58 19 46 3c 29 ba 4c bd
       -0.065924615 0.0899344 0.012091003 -0.049982224
0002d0 5e 1e ee 3c 3b af 29 3d a9 93 0f 3d ec d9 5f 3d
       0.029067215 0.04142688 0.03505293 0.054651186
0002e0 2e 51 04 bd dc a1 45 bd 55 11 c1 3d 6d c6 63 bd
       -0.03230398 -0.048250064 0.09427134 -0.055609155
0002f0 44 e2 dc 3c bc 85 08 3d 6e c6 8c bc f0 45 03 bd
       0.02696336 0.033330664 -0.017184462 -0.03204912
000300 57 0a 14 3d 76 27 9e 3d 31 9d fa bc b2 70 9a 3d
       0.036142673 0.0772237 -0.030592533 0.07541026
000310 f4 23 3c bd 6f 18 93 bd 20 55 c2 3d ab 80 e5 3c
       -0.045932725 -0.07182395 0.094888926 0.028015455
000320 f6 9a 4e bb f3 aa 81 3d f0 9c 65 3d 34 77 d4 bc
       -0.003152547 0.06331434 0.05605787 -0.025935747
000330 45 7a d5 3c af 48 2e bd ee cf b3 bd bf 7a 7c 3c
       0.02605928 -0.042549785 -0.08779894 0.015410124
000340 b6 37 a0 bd 82 e5 50 bd 86 6a 99 3d 77 b8 c4 bc
       -0.07823126 -0.051000126 0.07491021 -0.024013741
000350 2f 5e a9 3d 5b c6 9f 3d 48 c6 56 3d c4 c8 85 bd
       0.08269917 0.07801505 0.05243519 -0.06532434
000360 29 67 60 3d f2 20 d0 3c 8a 36 9d 3d 16 b6 40 3c
       0.05478588 0.025406335 0.07676418 0.011762163
000370 d9 16 93 3c 14 78 96 bd 54 47 a4 3d a5 18 80 bd
       0.01795523 -0.07347122 0.08021417 -0.062547006
000380 9f 49 c9 3d 72 28 a2 bd 42 a7 93 bd 52 ab 2d 3d
       0.09828495 -0.079178706 -0.07209636 0.042399712
000390 f5 c3 b1 bc ea 99 8f 3d ca 74 78 3d fd 04 c3 3d
       -0.021699885 0.07011779 0.060658254 0.09522436
0003a0 c3 d6 d3 3c 3d 02 60 3d c5 16 61 3d c7 3e 80 3d
       0.025859242 0.054689635 0.054953355 0.06261974
0003b0 76 99 8b 3d 3f eb 3e 3d e1 39 7f bd 94 db 49 3d
       0.0681638 0.046611067 -0.062311057 0.04928167
0003c0 8a 6d 23 3d 53 0c 91 3d 03 67 96 3d fd 01 83 3d
       0.039899386 0.07082429 0.07343867 0.063968636
0003d0 48 03 81 3d 34 b2 34 bd 94 de a0 bd cc 80 94 3d
       0.06299454 -0.04411526 -0.078549534 0.072511286
0003e0 99 71 5a bb f5 9c 14 3c 00 39 c5 bd 60 f8 07 3c
       -0.003333187 0.009070625 -0.096300125 0.008298963
0003f0 65 c0 be bd a6 ea 93 3d 5a 67 71 bd 52 a5 b9 bc
       -0.0931404 0.0722249 -0.058936454 -0.022661839

lstm.bias_ih_l1 f4 [400]
000000 0c bf c2 3c ff 42 62 bd b3 65 79 bc 71 4d 93 3d
       0.023772739 -0.055239674 -0.015222001 0.07192505
000010 f2 72 a7 bd db 96 5a bd 9c b7 36 3d d3 d6 bc bd
       -0.08176221 -0.053366523 0.044608697 -0.09220662
000020 9b 49 15 3d 91 9f 8d 3d d1 43 a6 3d a8 8d ca bd
       0.03644715 0.069152005 0.08118404 -0.098903
000030 1c cb a5 3c 23 e4 c3 3d 27 92 93 bd fb f5 e6 3c
       0.020238452 0.09564998 -0.07205611 0.028193465
000040 d7 02 bc 3d 4c ea 82 3c 43 6f a5 bc f8 68 76 3b
       0.09180229 0.015980862 -0.020194655 0.0037599187
000050 10 53 26 3c 2a f4 b2 bd 46 be c6 bd 0b 80 4e 3d
       0.01015164 -0.08737977 -0.097042605 0.05041508
000060 7b a0 a6 bd b8 3a 58 3d 58 7f 11 bd 98 4c 9e 3d
       -0.08136078 0.052790374 -0.035521835 0.07729453
000070 8f 5c 91 3d 43 e3 04 3b 85 1a 8d bd 44 f7 94 bd
       0.07097732 0.002027706 -0.06889824 -0.07273725
000080 ac 0e a4 bd fe 56 49 bd f8 65 72 3c 7b 5b 1a bc
       -0.08010611 -0.049155228 0.014794819 -0.009421225
000090 7d 9a 68 bd aa 03 13 3d 2e 5c c9 bc ce ea bb 3d
       -0.056787957 0.035892166 -0.024580088 0.09175645
0000a0 1a 45 1a 3d 06 a6 a4 3d bd 93 b1 3c 89 f0 c8 3b
       0.037663557 0.08039479 0.021676892 0.0061321897
0000b0 42 56 bf 3d 58 18 11 3d 98 56 b0 bb 3d 70 d9 bc
       0.09342624 0.035423607 -0.0053814165 -0.026542777
0000c0 4a 18 10 bc 11 5f b3 bd 64 cc 49 3d 84 fe a9 bc
       -0.008794853 -0.08758367 0.049267188 -0.020751245
0000d0 bd eb 8a 3c 29 80 4f bc 34 81 c3 3d 44 07 f3 bc
       0.016958112 -0.012664833 0.09546128 -0.02966655
0000e0 48 73 9f 3d 75 f7 9f bd dd 95 17 3d 16 87 5e bd
       0.0778566 -0.078108706 0.037008155 -0.054328047
0000f0 8a c5 cb 3c 69 40 34 3c 1c 13 67 3d b9 28 dd bc
       0.024874467 0.011001685 0.05641471 -0.026996957
000100 47 39 e5 bc 6a 61 42 bd 8e c7 65 3c ac 21 82 3d
       -0.027981414 -0.047456183 0.014024628 0.06354079
000110 e1 a4 87 3c 21 66 c2 3d 4d 09 80 bc a0 03 9a bd
       0.016558113 0.09492136 -0.015629435 -0.07520223
000120 77 c4 8d 3c 2f 67 8b 3d bd 6e de bc 9f 6d a5 bc
       0.017305596 0.0680679 -0.027152414 -0.020193873
000130 71 35 5d bc 3f a0 39 3b 64 7e b0 3d f7 19 30 bd
       -0.013501511 0.0028324274 0.08617857 -0.042993512
000140 dd 02 90 3d 6b 49 83 3c 6f 30 ab 3c 59 f2 08 3d
       0.07031796 0.01602622 0.020897118 0.033434246
000150 53 a8 6a ba 61 8c 39 bc 9b f2 ca 3d 40 c9 78 3d
       -0.0008951474 -0.011324973 0.099095546 0.060738802
000160 d4 d6 a3 bb 89 31 7b bd f0 08 ba 3c 6a 2d e5 bc
       -0.0049999747 -0.061326537 0.02270934 -0.027975757
000170 fa 0e c8 3d 57 0d 93 bd e5 60 98 bd e9 73 58 3c
       0.097684816 -0.07180279 -0.07440356 0.013211229
000180 53 4e 97 bd 7e 01 b8 3c 5f 0c df 3c 08 bf b0 3d
       -0.07387986 0.022461649 0.027227579 0.08630186
000190 a9 5c 9a 3d a5 ab 27 bd 34 89 5d bc 4f be 26 bc
       0.07537205 -0.040935177 -0.013521481 -0.010177209
0001a0 26 70 b3 bd 7a 2f 88 3d 44 43 94 bb 0d ab 90 3d
       -0.08761625 0.066496804 -0.0045246202 0.07063875
0001b0 0d 34 ca bb 48 2c af bd 28 70 26 bd df 28 10 3d
       -0.0061707557 -0.08553368 -0.040634304 0.035195228
0001c0 43 14 96 bd b1 af b4 bc 37 8e bf 3d a3 b3 97 3d
       -0.07328083 -0.022056432 0.09353297 0.0740731
0001d0 6f 43 82 bc 13 67 cc bd 84 34 54 bd 91 0e 0f bd
       -0.015901295 -0.09980597 -0.051807895 -0.034926
0001e0 27 ca 6c 3c 60 8d 8f 3d 8d ce 24 bd 4b cc 48 3c
       0.014452494 0.07009387 -0.040236045 0.0122557385
0001f0 e0 e2 7d bd 6d 39 89 bd 9d 9f d0 bc b3 e3 c2 3d
       -0.061983943 -0.06700406 -0.025466735 0.095160864
000200 52 26 0f bc f3 ec 99 3b 41 99 6a bd 1a 00 8a bd
       -0.008737164 0.004697436 -0.05727506 -0.067383006
000210 9f db 0f bb dd 4c 84 3c 7b c4 83 bd b1 71 cb 3d
       -0.0021950973 0.016149933 -0.0643396 0.09933794
000220 1b 91 3e bc ef b1 af ba 75 1d a8 3d 68 f5 c4 3d
       -0.0116312755 -0.0013404469 0.082087435 0.0961712
000230 6f d3 65 bd f4 54 22 bc 8c 91 8f 3d 8a 2a 5d bd
       -0.056109842 -0.00990795 0.07010183 -0.053995647
000240 47 ad 8c 3d 81 05 b7 3c 03 0a c7 bd 5b 87 b5 bd
       0.068689875 0.022341492 -0.097187065 -0.08863708
000250 64 b2 db 3c 91 ae bf bd 6a a5 f9 3b a2 1f 9e 3d
       0.026818462 -0.09359468 0.007618596 0.07720877
000260 6c b0 c5 3d 37 7c 03 3d d9 b3 f8 bc db 16 fe 3c
       0.096527904 0.032100882 -0.030359196 0.031016758
000270 1c f6 e5 bc 36 a8 a3 bd aa a2 33 3c 25 ae 6f bd
       -0.028071456 -0.07991068 0.010964075 -0.058515687
000280 69 38 af 3d 22 fc 0e 3d 62 b8 ae 3d 62 89 c2 bd
       0.08555681 0.03490842 0.08531262 -0.0949886
000290 3d 66 1a bb 15 8b 53 3d a6 63 ae bd 55 0b 48 3d
       -0.0023559474 0.05164631 -0.085151 0.048838932
0002a0 dd 4a 78 bd c8 b3 8c 3d 84 ac 97 bd 91 6e 95 bc
       -0.06061827 0.06870228 -0.074059516 -0.018241199
0002b0 a0 92 44 3d 75 97 67 bd 6a 2b 24 3d d8 82 d6 3c
       0.047991395 -0.056540925 0.040080465 0.026185438
0002c0 cb 1a 5a 3d e1 37 a8 bd 5a 66 b9 3d 81 74 b0 3d
       0.053248208 -0.08213783 0.09052725 0.08615971
0002d0 e1 6b b3 bd 9a 08 23 bd 97 d3 0e 3d f8 0a 3d bc
       -0.08760811 -0.039803125 0.034869757 -0.01153826
0002e0 b2 73 40 bc 83 2c 6d 3d 49 53 da ba e7 9f b6 3d
       -0.011746334 0.057903778 -0.0016656901 0.08917218
0002f0 d2 d3 c6 bc 3d 28 45 3d 77 fe 5d bd c0 6f b4 3d
       -0.024270926 0.048134077 -0.054197755 0.08810377
000300 35 74 3b bd 58 d5 ac bd 83 8c 6d 3c e3 b0 98 3d
       -0.04576512 -0.084391296 0.014498833 0.074556135
000310 0e ef fc 3c 5c 64 b3 bd 4b 23 b5 bd 19 33 ad 3d
       0.030875709 -0.087593764 -0.08844622 0.08457012
000320 66 04 95 3c a9 24 12 bd d6 89 12 bd e2 b8 6c ba
       0.018190574 -0.035679493 -0.03577598 -0.0009030235
000330 4c 2a cd 3c 3a b0 c9 3c 07 60 05 3b ee 8a 93 bd
       0.025044583 0.024620164 0.0020351426 -0.07204233
000340 f4 2d 17 3d 27 4a 66 3d e5 9d 8f 3c fb 27 c6 3c
       0.03690906 0.05622306 0.017531345 0.024188986
000350 93 0f 9f 3d c8 f3 f3 3b 59 43 cf 3c 21 36 3f bd
       0.077666424 0.0074448325 0.025300669 -0.04668248
000360 ab c5 b8 bc b1 6b d9 bb 6d 32 e9 bc b0 71 a9 bd
       -0.022555193 -0.0066351523 -0.028466428 -0.08273637
000370 75 29 79 bd ad 15 40 bd a9 f2 96 bd 20 2f 8f bd
       -0.060830552 -0.04689567 -0.073705025 -0.0699141
000380 07 73 db 3c 77 df 35 bd bd 3b 98 3b b3 4f c9 3c
       0.026788248 -0.044402566 0.0046457932 0.024574136
000390 53 43 6c 3a 6a 9b e3 bb 5e 73 4e bd 06 f9 16 3d
       0.00090127176 -0.006946017 -0.05040299 0.03685858
0003a0 83 b5 cf bc d8 9a 92 3c 35 71 57 3c 9d c1 08 bd
       -0.025355106 0.0178961 0.013149549 -0.03338777
0003b0 ec 9a 92 bc 49 f1 90 3c ef 12 22 3d 35 5c 81 bd
       -0.017896138 0.017693179 0.039568838 -0.06316415
0003c0 ac 56 88 bd 9f f7 04 bc 45 82 a2 3b 1d 45 92 3d
       -0.06657156 -0.008115678 0.004959377 0.071420886
0003d0 0b e3 70 bc ba f5 fd bb 6b 05 97 bd a7 f8 93 bd
       -0.014702569 -0.00775024 -0.0737408 -0.07225161
0003e0 d5 7a 38 bd 90 bc 8f 3d bc 07 74 3b 0c eb 77 3d
       -0.045039017 0.07018387 0.0037236055 0.060526893
0003f0 4c 92 61 bd 98 5c 91 bd 05 4b 3d 3d fd 0c 15 3d
       -0.05507116 -0.07097739 0.046214122 0.03638934
